src/models/v1/pretrained_models/baku_model.pt (torch, 15465 bytes, 5 tensors)

layer.0.weight f4 [64, 12]
00000000: 8356 92be 0055 893e b454 c13d 25ae 1a3e
00000010: 0514 41be 0b31 ebbd b89e 583e b5da 563e
00000020: ca21 ddbd ee8e 553e f50e 00bc 2320 433e
00000030: ad11 823e 82e6 ce3c 9749 81be 3533 793e
00000040: 992d 2f3e 9c11 193e 829b e13d 3291 653e
00000050: c7c8 45be ee83 533d 8136 ff3d 5490 3cbe
00000060: 1e68 a9bd 25ff a33d 9d1a cbbd 702c 72be
00000070: 91f2 223d ad7e b53d 78fd 8e3e 5dee 913e
00000080: 349c 66be b969 5fbe 5092 d83d 261a b6bd
00000090: 5f23 5f3e a1ec 4ebe ff60 edbc 3cbc b7bd
000000a0: 0d42 ef3d d8d0 51be e577 ba3c 7e7d c93d
000000b0: d8f3 05bd e999 9a3d f225 8abe a4c1 7cbe
000000c0: e4c4 2abe 77fa 5e3e e16f 8a3e e880 4e3e
000000d0: 7306 bebd 82d8 cb3d 4060 773c fd7e 14be
000000e0: b5a4 72be 03a7 773e 82cb efbd 1999 913e
000000f0: e0ee 2bbe 7228 753e b0bf 85be 957b 1abe
00000100: 39ff 633e 7226 acbc e484 713e 4763 65be
00000110: 152a a33d a55b 8a3e d608 453e 1acf f73c
00000120: d60d adbd b942 86be c61d 43be d5e3 84be
00000130: c00c 29be 294a 233e 815e 8c3e 0d81 86be
00000140: cf19 64be ccd5 043e 45d5 923e 9968 393e
00000150: bc0f 563e 00c5 e23d 2a7d 04bd e792 87be
00000160: c47f 503e 095f 1abd 9c96 48be b14b 5abe
00000170: c9ed 723e a3d5 323e 6140 6d3d b51c 31be
00000180: 345a 74bd 5273 06be 1038 93be 6134 84bd
00000190: 8266 f2bd b835 8a3e a1f0 62be c8aa 5bbe
000001a0: 3ea5 a63d 6031 aabd ee8a 44be 68ac 10bd
000001b0: 5c9a 8abc af24 6b3e b9a0 0ebe aa10 65be
000001c0: 3b06 6dbe 3ac7 44be 2dff 5d3e 956e 803c
000001d0: f15c a3ba 1ade 4cbe 682c 1cbe 3a18 063e
000001e0: 24fe e3bc a8e6 453e 8414 103e a3c5 033d
000001f0: 87db 473e 701e 8b3e 7da1 42be ef74 81be
00000200: df41 97bd 7349 193e f63f 653e 158d f23c
00000210: 69e0 713e 9b4f 4a3c 9e1b abbb 4533 49be
00000220: a2ea 45be d263 043d 3da4 18bd d5cd 333e
00000230: 90e5 1f3e 5597 00be 0393 2d3d 48de 523b
00000240: 0049 783e b19d 573e 59ab 533e f4d4 f9bd
00000250: 6ef0 333e de67 893e e7cf 50be d2ad 11be
00000260: ac98 ff3d c45d 093e 7ded 3fbe 0143 45be
00000270: 6a37 3cbd 3917 823c bd17 f63d 8c63 ba3d
00000280: ab68 853e deb5 b2bd 9bcf 5a3d d1d9 f43d
00000290: 255d 3fbd a71a 763e 3af7 69be ec93 26be
000002a0: 916d 11be 1300 1c3d 27e1 9f3d a4a4 473e
000002b0: 50e0 733d 2f21 88be 2514 73be c048 033e
000002c0: e3d6 4ebe 7e72 92be 21fd 393e 52da 0cbe
000002d0: 4662 97bc 5756 70bc 0fdf 0e3e d282 debd
000002e0: 20c4 92be 7674 fa3d 1d99 a43c d938 c53c
000002f0: e9f4 38be 9abe 4e3d 7c9e 4c3e c43d 7bbe
00000300: eefc 7b3e c08d 1e3e 0e2c c7bd 5352 5b3e
00000310: b4bf 3dbc b1eb 863e 46eb 66be c381 d23d
00000320: d891 6c3e 05b6 1dbe d5e2 7d3e ad7c 193e
00000330: 1b8c 6d3e 0b29 07bd bada 623e 9b33 a03d
00000340: 995d 343d ef6e 8dbe 94c4 58be e4ae 3a3c
00000350: b001 52be 3baa 833d bd0e b3bd a51d 50be
00000360: eed9 a03d e4ef 88be 0125 e2bd 3af0 63be
00000370: 9cdb 103e f56e 643e 740c 583d 4311 133e
00000380: f455 583e 7723 313e 09e3 1dbe 2b80 c83c
00000390: 2dad 2b3d 9cb1 3a3d 0d68 1c3e 4a02 d73d
000003a0: 5b97 3fbe 1005 09bd d6e1 8a3e 30fe 34be
000003b0: b8d6 353e 11c9 ebbd 3dbf 1abe eca2 7a3e
000003c0: 38f4 193e d693 85be 6da2 c6bd d433 3abe
000003d0: b518 0a3e c06b f73d 3a09 4b3d a6d6 48be
000003e0: ffd4 34be 8595 a83d 9826 e43d 8791 db3d
000003f0: ddfb f7bd 29fc 503e ee48 42be 3b4b a83d
-0.28581628 0.26822662 0.09439984 0.15105493 -0.18855293 -0.114839636 0.21154296 0.20981868
-0.107974604 0.20855305 -0.007816066 0.19055228 0.2540411 0.025256399 -0.25251457 0.2433594
0.17107238 0.14948124 0.11015989 0.22418669 -0.19314872 0.05163949 0.12461568 -0.18414432
-0.08271812 0.08007649 -0.099171855 -0.23649764 0.03978211 0.08862052 0.27927756 0.2850217
-0.22520524 -0.21817674 0.10574782 -0.08891706 0.21790837 -0.20207454 -0.028976915 -0.0897145
0.1168252 -0.20489824 0.022762248 0.09838389 -0.03270325 0.07548887 -0.26982075 -0.24683243
-0.1667667 0.21775232 0.27038482 0.20166361 -0.09278574 0.09953405 0.015098631 -0.14501567
-0.23695643 0.24184804 -0.11708738 0.28437117 -0.16790342 0.2394121 -0.26122808 -0.15086205
0.22265328 -0.021014426 0.2358585 -0.22401153 0.07967011 0.27023044 0.19241652 0.03025012
-0.084499046 -0.2622278 -0.19054326 -0.25955072 -0.1650877 0.15946259 0.2741585 -0.26270333
-0.2227547 0.12972182 0.28678337 0.18106307 0.2090444 0.11072731 -0.03234593 -0.26479265
0.20361239 -0.03768829 -0.19588703 -0.21317936 0.2372352 0.17464308 0.057922725 -0.17296107
-0.059656337 -0.13129929 -0.2875371 -0.06455303 -0.11835958 0.2699411 -0.22162105 -0.21451867
0.08136986 -0.08310199 -0.19193622 -0.03532067 -0.016919307 0.22963212 -0.13928498 -0.22369638
-0.23146908 -0.19216624 0.21679373 0.01567773 -0.0012463612 -0.200066 -0.15251315 0.13095179
-0.027831145 0.1932627 0.14070326 0.032170903 0.19517337 0.2717166 -0.19006915 -0.25284526
-0.07385611 0.14969425 0.2238768 0.029608289 0.23620762 0.012348081 -0.005221798 -0.19648464
-0.19327787 0.03232176 -0.037266005 0.17558987 0.15614915 -0.12557729 0.04237653 0.0032175947
0.24246597 0.21056248 0.20670833 -0.12198821 0.17572185 0.26837057 -0.20391808 -0.14226463
0.12480292 0.13414675 -0.18742938 -0.19263841 -0.045951284 0.015880214 0.120162465 0.09101018
0.26056418 -0.08726095 0.053420644 0.11955608 -0.04671969 0.24033605 -0.22848216 -0.16267365
-0.14201953 0.03808601 0.07806616 0.19496399 0.059540093 -0.26587817 -0.23738153 0.1282072
-0.2019916 -0.28602976 0.18162967 -0.13755158 -0.018479478 -0.0146690225 0.13952278 -0.10864796
-0.28665257 0.122292444 0.020092541 0.024074959 -0.18062176 0.05047474 0.19982332 -0.2453528
0.24608204 0.15483761 -0.097252 0.21418123 -0.01158135 0.26351693 -0.22550687 0.10278656
0.2310251 -0.15401466 0.24793561 0.14988966 0.23197977 -0.032998126 0.2215375 0.07822343
0.044034574 -0.27623698 -0.21168739 0.011394236 -0.20508456 0.06428953 -0.087430455 -0.20323808
0.07854067 -0.26745522 -0.11042214 -0.22259608 0.14146274 0.22307952 0.05274625 0.14362054
0.21126539 0.17298685 -0.15418638 0.024475178 0.0419132 0.045579538 0.15274067 0.104984835
-0.18710081 -0.033452094 0.27125424 -0.1767509 0.1775769 -0.1151296 -0.15112014 0.24476212
0.15034568 -0.26089352 -0.09698949 -0.18183833 0.13485987 0.120810986 0.049569346 -0.19613132
-0.17659377 0.082316436 0.11140174 0.107211165 -0.12108586 0.20408691 -0.18973133 0.08217474

layer.0.bias f4 [64]
00000000: 3dca 81bd e039 263e f8a3 313e 38ea 893e
00000010: 6ded 26be aede e7bd 30c8 c03b 7598 893e
00000020: 74bb 5fbb 4a0b 8f3e acbc 843c 01f7 eb3c
00000030: 0f8c 7b3e 291f b43c 8e82 4ebe cc60 b33d
00000040: 5763 92bd a83d f33d b056 5bbe 907b 65be
00000050: 5311 b33d cff9 2dbd 6387 563e cef1 813e
00000060: f847 dfbd 1506 22be cbcf 4b3d e6ae 89be
00000070: eb1f e73d d07c f63d e031 79bd 0839 e23d
00000080: 5cc5 c63d fe45 513e d1b8 713e 60fb 1c3e
00000090: ed42 86be f8d4 48be 6f3d 90be 964b 883d
000000a0: da87 3d3e 4e29 d33b c450 8c3c 45fd 87be
000000b0: 6f4a 9cbd c4ad 7f3c 29e3 183e 5b45 703e
000000c0: 6f3d 493e 61d1 3a3e 1a26 fa3d f4f4 1bbe
000000d0: c698 13bd 6838 16be d351 5d3e 8ff9 1bbe
000000e0: 4da3 413e d7a2 8b3e 9796 9cbc 72f7 113e
000000f0: d0aa 47be 455c 0b3e fbd4 bf3d ef7b 343d
-0.06337402 0.16233015 0.17347705 0.26936507 -0.16301508 -0.1132177 0.005883239 0.26874128
-0.003413883 0.279383 0.016203247 0.028804304 0.24565147 0.021987515 -0.2016699 0.08758697
-0.07147854 0.11876994 -0.21419787 -0.22410417 0.08743539 -0.042474564 0.20950083 0.25379795
-0.10902399 -0.15822633 0.049758714 -0.2689125 0.11285385 0.12035525 -0.06083858 0.11046034
0.09705612 0.20436856 0.23605658 0.15330267 -0.26222935 -0.19612491 -0.2817187 0.06655042
0.18508855 0.006444133 0.017128356 -0.26560417 -0.076313846 0.015605394 0.14930405 0.23463957
0.19652341 0.18243934 0.122142985 -0.15230161 -0.036034368 -0.14669955 0.21613245 -0.15231918
0.1890995 0.27272674 -0.019114776 0.14254549 -0.19498754 0.13609417 0.09366795 0.044063505

layer.3.weight f4 [32, 64]
00000000: 103e 13bc 6ba4 9ebd d21b d3bd 1961 753a
00000010: 6010 c6bc f85e 6cbd dc84 33bd 99a1 9ebb
00000020: ca5a d6bd 8c8a d73d 00fc 6a39 4850 0abc
00000030: cdf8 7dbc 3016 403c d07c 0bbd e416 fbbd
00000040: c8b7 bd3d cca4 82bd 0626 b93c ffe4 b5bd
00000050: b210 eb3d 5001 363d 2c7a 1d3d e146 03bd
00000060: e409 d8bd a93f e2bc 8889 1d3d 513c 023e
00000070: bc21 2d3d ee13 a23d 6060 3ebd 209a afbb
00000080: d813 7fbd b891 e2bc d075 9e3d 603d e4bd
00000090: 534c 2dbd 98ce 79bd 5894 44bd 8003 c3ba
000000a0: dba7 5bbd 3855 60bd 7276 05bd be6b 033d
000000b0: ecb2 a4bc 0a57 8abd f04e 4abc a80a 553d
000000c0: 8822 c0bd eec8 e03d 56db d2bd 66d1 ac3d
000000d0: 7d04 003e 4080 6c3c 6dc5 ae3d fefd 6a3d
000000e0: c8b1 83bd ddcf e63c 14a8 c8bd 7f72 c4bb
000000f0: 3d5c d93d 3dbf dd3b a4d6 47bd 805b 933b
00000100: e881 dfbd 1830 dabd d84e 5e3d c714 c2bd
00000110: 70b4 58bd 009e 333c 4e00 e2bd fbb5 533d
00000120: 62d4 f5bd 3056 c93c c43c 883d 2ed4 0dbd
00000130: ec58 ccbd a044 cbbd 383e 953c 6c73 013d
00000140: b9b1 d63d 0086 c8bd 8953 ebbd 9e46 e5bd
00000150: cb36 cdbd 0097 c1bd 8e5b db3d be0b 0abe
00000160: 4eff d63d a9f5 e13d 98bf 6bbd 910d 05be
00000170: e4c9 61bd 8e6f f0bd b053 e83c 0442 ea3d
00000180: 008e 623d 687d dc3c 709e 943d 5814 26bd
00000190: 3e22 313b 444a 5d3d 0151 2dbc 0098 9f3b
000001a0: 20b9 b43d fe71 e73d 30db 89bb e0d7 86bd
000001b0: 8ff2 20bd 280b a2bd f421 db3d 186e b5bd
000001c0: d80d 603d 9076 b23c e470 1b3d 3c5b 153c
000001d0: 9138 1cbd c0a8 db3d 16d7 523d 6e0c a5bc
000001e0: faa7 bbbd 368d 08bd 3490 eabd ce40 af3c
000001f0: f1b7 c73d e41a a73d de78 bb3d 988d a33c
00000200: 4c15 143d ef1a 06bd 3e00 bd3d 877c ce3d
00000210: d04a b13d e47d 713d 385f 8dbc 9dde 4c3d
00000220: f40d 383d 1c26 c7bd bc9c 163d b63d 9cbd
00000230: 5d92 303c 1e72 de3d c8e7 1c3d e011 23bc
00000240: 110c 7bbd df5d ddbd 7822 c33c 58ce dd3d
00000250: ef82 dfbd 30b8 cdbd b0b9 b23c ef35 74bd
00000260: 98e4 10bd 30f8 05bc 6cc4 fd3d 821f d13d
00000270: 1492 73bd a85d cb3d 3476 dabd 60e5 8abb
00000280: a227 a8bd b060 4c3c 2d3d 933d a0d6 4fbc
00000290: 908f 6dbd fedd 833d f9ac b0bd 8a72 92bd
000002a0: 459a ac3d 5004 843c e16a edbd 7ffb 233c
000002b0: 0020 debd 7474 1ebd 3ed7 9f3d b871 3dbd
000002c0: ee0f 8c3d 00f5 9f3a b096 aa3d 529d 7c3c
000002d0: 1a11 bcbd 083b c63d 61fe 923d 235a a43d
000002e0: 0033 cd3d f8e1 6f3d bc45 3c3d 6b01 973d
000002f0: 2660 a3bb b365 8e3d 80d9 e7bd a031 ad3d
00000300: 28ae 89bc b88a 203d 54dc 6ebd 7708 3ebd
00000310: 885a a73c 48ef 7c3d 9cc3 77bd 4068 50bd
00000320: 94a0 76bd 98f0 2bbd b610 9dbd 2c39 92bd
00000330: 0cf8 e83b e684 f2bd 5472 c43d 80ca 523b
00000340: ef81 8d3d 106e 08be f324 41bd dff4 e43d
00000350: 987f 40bc 96e1 c3bd e489 e4bd 88b2 c5bd
00000360: 344e 453d b9fc 9b3d b00e 8a3d 4773 183d
00000370: d858 573d 906e 7ebc 3d3d b3bd 98e6 c4bc
00000380: 64bf efbd 583f a53d d52c afbd 6c7e f5bd
00000390: ef69 ef3c 70da bf3c 70d2 8fbd 2823 783d
000003a0: b1cb 3a3d bcd4 d83d bd90 273d 4a0c bd3d
000003b0: 143f 453d 9ec2 fbbd 72d3 ea3d 40b2 5fbd
000003c0: 14c9 4fbd d818 ff3c 98c9 7f3d 91e6 403d
000003d0: aa37 a93d bcb4 33bd 8fc4 893d 8019 bdbd
000003e0: 2e62 e1bd 56db b2bd 2a93 15bd 3b69 803d
000003f0: c42a 00be 0a77 8c3d 5225 acbd d2dd c33d
-0.008986965 -0.07746204 -0.10308041 0.0009360477 -0.02417773 -0.057707757 -0.043827876 -0.0048410413
-0.104665354 0.105244726 0.00022409856 -0.008441992 -0.015501213 0.01172404 -0.034054577 -0.122602254
0.09263569 -0.06379089 0.022601139 -0.08881568 0.11477794 0.044434845 0.03844659 -0.032050017
-0.105487615 -0.027618246 0.03846124 0.12718321 0.0422685 0.079139575 -0.04647863 -0.0053589493
-0.062274784 -0.027657375 0.07737315 -0.11144519 -0.042309117 -0.06098804 -0.047993034 -0.0014878362
-0.053626876 -0.05476877 -0.03258366 0.032085173 -0.020104848 -0.06754883 -0.012347922 0.052012116
-0.09381586 0.10975824 -0.10295741 0.08438377 0.12501712 0.014434874 0.0853375 0.057371132
-0.064303935 0.028175289 -0.09797683 -0.0059950943 0.10613296 0.006767182 -0.04878868 0.0044969916
-0.109134495 -0.106537044 0.05427441 -0.09476619 -0.052906454 0.010962963 -0.11035214 0.051687222
-0.120033994 0.02457723 0.06652215 -0.03462618 -0.09977898 -0.099251986 0.018218145 0.031604216
0.10483117 -0.097911835 -0.114905424 -0.1119511 -0.100202166 -0.09452629 0.10710822 -0.13481042
0.10497914 0.11033184 -0.057555765 -0.12993456 -0.05512418 -0.11740027 0.028360218 0.11438373
0.055311203 0.026915267 0.07256782 -0.040546745 0.0027028467 0.054025903 -0.010578395 0.0048704147
0.08824372 0.11301039 -0.0042070374 -0.06584144 -0.039293822 -0.07912284 0.106998354 -0.08858889
0.054700702 0.02178505 0.037949458 0.00911599 -0.038139883 0.10725546 0.051474653 -0.020147528
-0.09162898 -0.033337794 -0.11453286 0.021393206 0.09751881 0.08159426 0.09153913 0.019964978
0.036153123 -0.03274053 0.09228562 0.100823455 0.086568475 0.05895795 -0.017257318 0.050016988
0.04493518 -0.09724066 0.036770567 -0.07628958 0.010777083 0.1086161 0.03830698 -0.009952992
-0.061290804 -0.1080892 0.023820147 0.108303726 -0.109136455 -0.100448966 0.021817058 -0.059621748
-0.035374254 -0.008176848 0.1239098 0.10211088 -0.059465483 0.09929973 -0.10667077 -0.0042387694
-0.08210684 0.012474224 0.07189403 -0.012685448 -0.05799824 0.06438826 -0.08626742 -0.07150753
0.08427862 0.016115338 -0.11592651 0.010008692 -0.10845947 -0.038685277 0.07804726 -0.04625103
0.06838976 0.0012203753 0.083295226 0.015418367 -0.09182949 0.09679228 0.07177425 0.08025005
0.10019493 0.05856511 0.04596494 0.07373317 -0.004985827 0.06952991 -0.11320782 0.08456731
-0.016806677 0.039194793 -0.05831559 -0.04639479 0.02042891 0.061751634 -0.060489282 -0.05088067
-0.060211733 -0.041977495 -0.07669203 -0.07139811 0.0071096476 -0.118417546 0.09592119 0.0032164156
0.069095485 -0.13323236 -0.04715438 0.11179518 -0.011749171 -0.095645115 -0.11159113 -0.09653193
0.048170283 0.076165624 0.06741083 0.037219312 0.052574962 -0.01552929 -0.08751915 -0.024035737
-0.11706427 0.080687225 -0.08553473 -0.11987004 0.029225318 0.023419589 -0.0702256 0.060580403
0.04560441 0.10587451 0.040909518 0.092308596 0.04815586 -0.1229298 0.11466111 -0.05461335
-0.050728872 0.031139776 0.062448114 0.047094885 0.0826257 -0.043873534 0.06726944 -0.09233379
-0.110050544 -0.08733241 -0.0365173 0.06270071 -0.12516314 0.068586424 -0.08405556 0.09563793

layer.3.bias f4 [32]
00000000: c945 d8ba 1d1e 7dbd db95 b43d 874b 563d
00000010: 5eeb ad3d 01a2 64bc 8491 06bd 6e71 53bd
00000020: ff79 d23d 604e dd3d 77b0 023d 6984 953d
00000030: 0ca0 d63d 7074 82bd ae56 cabd 21a3 8cbc
00000040: b48d e6bd 27bd 6a3d 6c4e c5bd aece c33c
00000050: 3d53 9e3d a02e ad3d 57b6 553b 447a 873d
00000060: 04f6 3bbd 215f d6bc fd73 a3bd 35e0 8bbc
00000070: b642 00be a096 9c3d 6016 02bc 28b0 443d
-0.001650029 -0.061796296 0.08817645 0.052318122 0.08492158 -0.01395464 -0.03285362 -0.051621847
0.10277175 0.108059645 0.03190657 0.07300646 0.10479745 -0.06369865 -0.09879814 -0.01716763
-0.112574965 0.057309296 -0.096340984 0.023902263 0.0773072 0.08456159 0.0032609904 0.06615117
-0.045888916 -0.026168408 -0.079811074 -0.017074684 -0.12525448 0.07645917 -0.007939905 0.04801956

layer.6.weight f4 [1, 32]
00000000: 1ce6 71bc c5f8 973d 8e2c b5bd 296f b4bd
00000010: d097 6fbd fcb7 ecbd 7923 023e 0849 1b3d
00000020: ea2d 2a3d d8f9 a43d 948e 1cbb dc1e a4bd
00000030: c066 a03d fd2e efbd eed2 1dbd 3667 9bbb
00000040: 5abe d43d ac4e 3bbd c6d8 40bd cacf bcbb
00000050: b98f 19be a72f 8c3d 0c46 ff3d b700 c13c
00000060: a700 2abe e36c cd3c 210e e1bd eb42 83bd
00000070: c82a 65bd 60ec a13d 8883 d6bd 92ee 613d
-0.014764335 0.07420496 -0.08846389 -0.088102646 -0.05849439 -0.1155853 0.12708844 0.037911445
0.041547693 0.080554664 -0.0023888694 -0.080136985 0.07832098 -0.11678884 -0.038531236 -0.0047425283
0.10387869 -0.045729324 -0.04708173 -0.005762075 -0.14996232 0.068450265 0.12464532 0.023559911
-0.16601811 0.025076335 -0.10989023 -0.06409248 -0.055949003 0.07906413 -0.10474306 0.05515916
