src/models/v1/pretrained_models/monaco_model.pt (torch, 15465 bytes, 5 tensors)

layer.0.weight f4 [64, 12]
00000000: b94c ea3c 89c5 10bc d597 4fbe c2e8 ec3d
00000010: a6bc 583e 7cad 5d3e b038 6bbe 777d 263e
00000020: e5fa 403d 9aa2 c43d ca7c d8bd 2b06 cd3d
00000030: e2fc cebd c54b 173e 0190 233e 314b 8ebe
00000040: 846d ccbd e29b f83d 0b3e 13ba 852c 703e
00000050: 97b1 343d 4583 f43d 02dd 713e f059 55be
00000060: dee5 773d 2b77 b9bd 4cfb 34bc 9644 1dbd
00000070: d0b4 d03c 06bf 4ebe 8b88 1ebe 28d4 4b3c
00000080: c025 fc3a a516 8c3e ff0e 92be 79a9 06be
00000090: 0b8f 883e 48e3 813d ec9d 94be 3887 fb3c
000000a0: 0306 653e 745f 33be bc97 773d cd5e 643b
000000b0: 925e 243e ed82 f6bd 477a fb3d a8f9 50be
000000c0: 605e e1bd e836 36be d2ae 55be 32a8 153e
000000d0: 0e3a 1f3e 8511 703e 9a2f 44be 9f34 853e
000000e0: 3d75 17be 882d 8dbe 4415 00be 8cab e73d
000000f0: a994 3a3e 55ee 083e 0ca5 8bbd 0c3c 51be
00000100: d91c 43be 7fa8 59be 0e11 5abe 4511 743e
00000110: 4312 debd 3802 44be 9fca 4c3e 2a7f 1ebe
00000120: 2311 7f3e ff7a 80be 9a6f 61be 3692 55be
00000130: b6e7 183e f921 8cbd 2a65 813d db15 01be
00000140: 888a dbbd 3520 ca3c aaa9 b0bc 7aa8 693d
00000150: e906 973d faa1 f2bd 9e30 46be 72ef b4bd
00000160: 86d8 823e 2466 79be 4d6a 0f3e f8ec 9abd
00000170: 1f42 063e 9cb3 d53d 0917 8d3d 69e3 3b3e
00000180: 9dee 953d e02e 75be 917a a83d 97ba 70be
00000190: da2b 4ebd 2211 0abe efb2 903e f50f ab3c
000001a0: 6ff6 143c ae87 423e 48a9 803e ff7f 1bbd
000001b0: 866a f93c cc24 e73c a6b1 af3d d73a 32be
000001c0: e458 4bbd 9f16 90bd 3272 e73d 8fa0 1c3e
000001d0: ca5e d43d f9c4 8a3e b523 4cbe b568 61be
000001e0: c0b2 06bd 54db d3bd 5f09 eebd b2ee 873e
000001f0: 9aaa 5d39 aa46 0d3e 2c18 c33d 1f78 38be
00000200: d2e4 2fbe 65d1 dfbd ec5b 89be 1039 1fbe
00000210: 4618 be3c b92f d6bd acf2 873e 1867 373e
00000220: 7a38 13be 4a9e 2bbe ad64 a7bd 0f3b b63d
00000230: 2ff3 10be e764 80be 39ef 12be f450 fcbd
00000240: baae 233c 8c4e 713e 89d7 183e 4176 f93d
00000250: 0141 7a3e 3fda 493e 47b5 d63d ea77 2cbe
00000260: 04b5 553e 4b0e 893e 09f7 5bbe d604 01bd
00000270: cb9f 423e a841 01be 7a64 c73b 3d16 b9bd
00000280: 1cc7 763e 6efe 33bd d8ab 683e 9303 5abd
00000290: 538a 933d 7274 0ebd 9f93 56be 822f 483e
000002a0: c9e7 983d cb89 e9bb 558b 8e3e 6aee 003e
000002b0: 4055 78be e556 873e f6c7 28bd 640d 213e
000002c0: 48fc 3fbe 33f8 d3bd f233 313e f9d9 513e
000002d0: ad4e 673e 77fe a43d 27cf 2e3e e26f 0b3e
000002e0: c362 603e 3fb9 4cbe 5592 593d 2851 2cbe
000002f0: 24a9 3e3e 5de5 c3bd 7366 08be c499 93bc
00000300: 6776 463e 52d2 81bc 399c 5fbd a17e 81be
00000310: 9d0f 653e eb10 f1bd cd05 5abe 3b9f 813d
00000320: 7975 cfbd a352 b73c 4950 43be 0810 85be
00000330: 9097 e33d 24c6 a63d dfc5 89bd e5ed 6ebe
00000340: 07a5 6abd 2620 4abe 7684 093d e392 473e
00000350: 8ea7 17be 3aa0 a23d 96a2 c5bd 4000 7fbe
00000360: e404 193e 2233 ea3d 7c9f 193e 6f55 b83b
00000370: 9838 f83c 55bb 4cbe d1c0 95be 7238 1dbd
00000380: 34e3 043e 17e6 dfbd ed95 70be fdf3 0c3e
00000390: 572f 8e3d 6500 073e f5cc 413c 8328 203e
000003a0: ee3d 863c ac06 03be 1cb0 30be 55f9 a23d
000003b0: 6b8b 523e bcc9 2bbe 336d 303e 739d c73d
000003c0: b117 75be dca2 24bc 06ef 963c 8b03 143e
000003d0: fc68 463e 78f3 8d3e 8012 493e c759 15be
000003e0: 577a 753e ea0e 433d 3117 f0bc 7bdf 903e
000003f0: b08b 87bd 2865 8ebd b9f0 ce3d 4e38 1f3e
0.028601037 -0.008836159 -0.20272763 0.115678325 0.21165714 0.2164821 -0.22970843 0.16258799
0.04711427 0.09601326 -0.105706766 0.10010942 -0.10106827 0.14774998 0.15972902 -0.27791741
-0.09981826 0.12139107 -0.000561685 0.23454483 0.044114675 0.119391 0.23619464 -0.2083509
0.060521953 -0.090559326 -0.011046242 -0.038395487 0.025476843 -0.20190057 -0.15481775 0.012440719
0.0019237325 0.27361026 -0.28527066 -0.13150586 0.26671633 0.063421786 -0.29026735 0.030704126
0.22365575 -0.17516881 0.06044744 0.0034846545 0.160517 -0.12036691 0.12279182 -0.20407736
-0.11004329 -0.17794383 -0.2086747 0.14614943 0.1554949 0.23444183 -0.19158784 0.2601671
-0.14790817 -0.275738 -0.12508112 0.11312017 0.18220772 0.13372166 -0.068185896 -0.20433062
-0.19053973 -0.21255682 -0.21295568 0.23834713 -0.10843327 -0.19141471 0.19999169 -0.15478197
0.24908881 -0.2509384 -0.22015229 -0.20856556 0.1493214 -0.06842417 0.06318124 -0.12605993
-0.10719782 0.02467356 -0.021565277 0.057045437 0.07374365 -0.11847301 -0.19354483 -0.08834733
0.2555582 -0.2435537 0.14005394 -0.075647295 0.1311116 0.104346484 0.06889159 0.18348469
0.073209025 -0.23943663 0.08226503 -0.23508678 -0.05033479 -0.13483098 0.28261515 0.020881632
0.0090919575 0.1899707 0.2512915 -0.037963863 0.030446302 0.028215788 0.085788056 -0.17405258
-0.04964532 -0.07035565 0.11301078 0.15295623 0.10369642 0.27103403 -0.19935496 -0.22012599
-0.032885313 -0.10344568 -0.11622881 0.26549298 0.00021139756 0.13796487 0.09526095 -0.18014573
-0.17177132 -0.10928611 -0.26827943 -0.15549111 0.023204934 -0.10458321 0.2655233 0.17910421
-0.14377013 -0.16759601 -0.08173499 0.08897983 -0.14155267 -0.25076982 -0.14349069 -0.12320128
0.0099903885 0.2356512 0.1492597 0.12180758 0.2443886 0.1971216 0.10483795 -0.16842619
0.20869833 0.26768717 -0.21480955 -0.031498753 0.19006269 -0.12622702 0.006084976 -0.09037445
0.24099392 -0.043943815 0.22721803 -0.053226065 0.072041176 -0.03477902 -0.2095475 0.19549373
0.074660845 -0.007127022 0.27840677 0.12590948 -0.2425127 0.26433483 -0.041206323 0.15727764
-0.18748581 -0.103500746 0.17304972 0.20493306 0.22588606 0.08056348 0.1707121 0.13616899
0.21912675 -0.19992541 0.05311807 -0.16827834 0.1861921 -0.09565232 -0.13320331 -0.018017657
0.19381104 -0.015847359 -0.054592345 -0.25291923 0.22369237 -0.11770805 -0.21291275 0.06329199
-0.10129828 0.022378271 -0.19073595 -0.25988793 0.11112893 0.08143261 -0.06727194 -0.23332937
-0.05728629 -0.19738826 0.03357359 0.19489627 -0.14810011 0.07940717 -0.096501514 -0.24902439
0.14943272 0.11435534 0.15002245 0.005625419 0.030300424 -0.19993336 -0.2924867 -0.03838391
0.12977296 -0.10932558 -0.23494692 0.13764949 0.06942623 0.13183744 0.011828651 0.15640454
0.016386952 -0.12795514 -0.1725468 0.079577126 0.20560996 -0.16776174 0.17229156 0.09746828
-0.23934819 -0.010048594 0.018424522 0.14454477 0.19375986 0.27724814 0.19635963 -0.14585029
0.2397245 0.047621645 -0.029307934 0.28295502 -0.0661844 -0.06952888 0.10104508 0.15548822

layer.0.bias f4 [64]
00000000: ba87 143c 78c8 933e a2cc 2abe c4ce 4e3e
00000010: 0105 213d dfa6 96bd 843a 86be ed80 a6bd
00000020: 1870 1d3e a182 463e 6408 30bd 89bd 35bd
00000030: df65 363e 0249 4a3e 3670 22be 3d9d 243e
00000040: a785 1fbe fff9 7c3e 7bda a13c 2eb8 86bd
00000050: f812 7a3e dd1a 893e 5dba 063e f586 1dbe
00000060: 9b63 d73d 6797 093d 786d d53d 303e 6abe
00000070: dcee 85be eb4b 82be 4f76 20be d062 89be
00000080: f8e9 5ebe 5b67 0dbe 46f7 2b3e d3f4 74be
00000090: b61f 873e 47d8 84be 6485 6bbe 9298 50be
000000a0: 55b1 15be 10af c73d d96d 8abe 54e7 89be
000000b0: e73e d5bd bdea 713d e663 25be 0eef c6bc
000000c0: 721d 64be 9c5e 393e a363 6fbe 4eac 863e
000000d0: 3a88 a3bb 8b9d cf3c d230 7bbe bf98 933e
000000e0: 58b8 5fbe 40a9 ac3c 3a6f 52be 4215 403d
000000f0: cd7a 003e e3ff 273e 091f cc3d 9325 633d
0.009065563 0.28863883 -0.16679624 0.20196062 0.039311413 -0.07356047 -0.2621652 -0.081300594
0.15374792 0.19385768 -0.042976752 -0.044370208 0.17812298 0.19754413 -0.15863118 0.16075607
-0.15578328 0.24704741 0.0197575 -0.06578098 0.24421299 0.26778308 0.1315703 -0.15383513
0.10517045 0.033591654 0.1042127 -0.22875285 -0.26158798 -0.25448546 -0.15670131 -0.268332
-0.2176894 -0.13808958 0.16793546 -0.23921518 0.2639138 -0.25946257 -0.23000103 -0.20370701
-0.14618428 0.097501874 -0.27036932 -0.26934302 -0.10412388 0.059061754 -0.1615139 -0.024283912
-0.22276857 0.18102497 -0.23377852 0.26303333 -0.0049906047 0.025343677 -0.24530342 0.28827474
-0.21847665 0.021076798 -0.20550242 0.046895273 0.12546845 0.16406207 0.09966857 0.055455755

layer.3.weight f4 [32, 64]
00000000: b679 99bd c0bf f13c 98a1 143d 08c0 353d
00000010: 3897 abbc a8af e6bd c3fd 933d bab0 bbbd
00000020: da94 c5bd 2953 6d3c e081 dc3b 4a37 cf3d
00000030: bf44 cf3d e7c5 e1bd 2f33 303c f3d8 99bd
00000040: 9173 8fbd 3e96 b03c 2695 c6bc d94e c43d
00000050: 08ba 7cbd 08db c8bc 604a f1bd cb68 4ebd
00000060: cbf3 7ebc 6de9 493d ee51 f13d 704c 783d
00000070: 0022 493b e2da fabd 6893 e6bd f079 5f3d
00000080: f0a1 5cbd c05c 213d d0fc 76bd d249 f33d
00000090: 0cda 5a3d 6c3d 1fbd e66e 9cbd 64ec 51bd
000000a0: 1d16 9cbb 4095 82bc 035d af3b 3877 bebc
000000b0: 580e 36bd 08bd 3cbd 1444 2b3d c018 89bd
000000c0: d8e7 babc 5b7e ae3d 9c9b 96bd c05f 5abd
000000d0: 0c99 8b3d ef8a 6c3d a55d f43c 13f2 fcbc
000000e0: 1c11 dcbd d4de ed3d ccdc 3fbd 4299 c7bc
000000f0: 0519 8bbd 73d4 fdbd 1428 a73d 4153 823d
00000100: ce35 613b 000d 90bb 6287 233d fa21 663a
00000110: 7c31 c5bd 862b d7bd 3033 93bd 7edc 0d3d
00000120: a63f 8fbd fbe5 4c3d 74c5 c03d 3304 e6bd
00000130: b21a ae3d ff7f 0ebd 4b8a 1a3d bb1a c23d
00000140: bc4b 5abd 8a3a 79bd 6192 d13c c07f eabd
00000150: a6a6 8dbd 489b a3bd 54f2 26bd f3a2 9b3d
00000160: 757a 003d b4a1 01be 207f e3bb bc36 fabd
00000170: 4832 f53c 1632 c23d a4ac ecbd 60c8 2d3c
00000180: fc20 cd3d 46be 9d3d 50b1 cdbd 0ec1 4abc
00000190: 340c 1a3d a5ec 40bd 4529 bfb9 5652 95bd
000001a0: 6506 023d a079 e53c 06dd d43d 20d0 56bc
000001b0: e6e6 9cbd 344b bb3d 604f 333c c0fe b8bd
000001c0: 540d a23d 201a f03d d03e 4e3d 68b5 1d3d
000001d0: e85a 37bd d7d9 e6bd 3da9 d33d cb4f 81bd
000001e0: 0d2b 43bd 0d59 513d 28c4 b03c 6923 123d
000001f0: e902 c23c c73f 4a3c 4838 68bd 1548 88bd
00000200: dc84 75bd 0c06 e53d bb74 e23d b3d3 123d
00000210: 6287 d63d 4803 89bd 9391 d8bd f5d1 ebbd
00000220: 77a8 82bd c7b7 1a3d f41c 40bd d12f 173d
00000230: a996 fd3d bf52 513c 9da2 e63d 1e66 f0bd
00000240: cf49 5cbd 279f ca3d 4185 653b 8901 bc3c
00000250: 4497 da3d acdf cfbd 8082 7fbb 7208 e83d
00000260: a459 86bd 5a4a c1bd 0225 d6bd 46a7 e73d
00000270: 8060 ee3c 8064 9dba 8636 b9bd 88d4 813c
00000280: b090 48bd 9631 8fbd 902f df3d 43d0 963d
00000290: e088 dfbc b1df 3a3d 2737 debd 3ea0 f0bd
000002a0: 7a1a 04be 903c a93c 55eb 02be 3219 fc3d
000002b0: 0a68 90bd 1865 873c 3c47 393d a0b3 663d
000002c0: 00ad 4a3a 299f 13bd 52ed f0bd 8067 89bd
000002d0: e00e e4bd 3260 ca3d 29fc 8d3d 3da9 903d
000002e0: 0163 7abd f2d2 ae3d 2a39 fa3d 0320 cebd
000002f0: 74fa d53d dab2 313c b44f 253d 62f4 8c3d
00000300: f3af e3bd b4b0 493d ee60 d7bd caa6 a5bd
00000310: f872 f1bd c704 aebd 4c6e 1d3c 09a4 bebd
00000320: e461 da3c 2809 50bd 0e86 d43d 3652 eb3d
00000330: d797 0dbe e9d8 2fbc 60de 813d 6a47 e2bd
00000340: 52b7 e4bd 5de8 02be b9d1 533c a249 afbd
00000350: 5ad5 f8bd 905d 2c3c e4ba ddbd 5be9 eebd
00000360: 5339 eebd d8ea 5b3d a43e ccbd 34ca a83d
00000370: d8f7 dd3d 383a 133d a0e7 813c 9e4c 98bd
00000380: dc42 66bd a659 a5bd 2eb0 d23d e2a2 d6bc
00000390: 4039 05bc 32a5 e4bb 3cb4 173c 5cd8 68bd
000003a0: 136c f9bc 2071 68bc 4310 e23d f44e a23d
000003b0: ac6c d0bd 4007 ed3d 00c4 59b9 e8f4 6fbd
000003c0: b840 193d 85e8 a43d d09d 62bd 18e7 b0bd
000003d0: c01b e53d fe5e 0abd 98ba c73d c295 df3d
000003e0: 03d3 e53c a1e1 dd3d 681a 87bc 37d5 c53c
000003f0: 46c1 da3d 3954 f63d c0a7 5bbc c8cc 813d
-0.07493918 0.029510379 0.03628692 0.04437259 -0.02094613 -0.112639725 0.072261356 -0.09164567
-0.09647532 0.014485159 0.0067293495 0.101179674 0.10120534 -0.11024075 0.010754391 -0.07512083
-0.070044644 0.021556016 -0.024241041 0.095853515 -0.06170085 -0.024518505 -0.11781764 -0.050392907
-0.015561054 0.049294878 0.11783205 0.06061977 0.0030690432 -0.1224878 -0.11258584 0.054559648
-0.053865373 0.039395094 -0.060299695 0.118793145 0.053430602 -0.038876936 -0.0763834 -0.05125083
-0.0047633783 -0.015940309 0.005351664 -0.023250207 -0.044447273 -0.04607871 0.04181297 -0.06694174
-0.02281563 0.08520194 -0.07353899 -0.05331397 0.06816301 0.057749685 0.02982981 -0.030877149
-0.10745451 0.11614767 -0.046841428 -0.024365071 -0.067918815 -0.12394037 0.08161941 0.06363536
0.0034364345 -0.004396081 0.039924033 0.00087788666 -0.09628579 -0.10506348 -0.071874976 0.034634106
-0.06994562 0.050024014 0.09412661 -0.1123127 0.085011855 -0.034790035 0.037729543 0.09477755
-0.053294882 -0.060846843 0.025582494 -0.11450148 -0.06916551 -0.07988602 -0.040758446 0.075994395
0.031366784 -0.12659341 -0.0069426447 -0.12217471 0.029931203 0.094822094 -0.11556366 0.010606855
0.10016057 0.077023074 -0.10043585 -0.012375129 0.037609294 -0.04710068 -0.00036461107 -0.07291095
0.03174438 0.028012097 0.103937194 -0.013111144 -0.07661228 0.09145203 0.010944217 -0.09032965
0.079126984 0.11723733 0.05035287 0.03850308 -0.04476443 -0.112720184 0.10335014 -0.063140474
-0.04764848 0.051110316 0.02157791 0.0356783 0.023683028 0.012344307 -0.0566943 -0.066543736
-0.059941158 0.11182794 0.11057421 0.035846423 0.10475041 -0.06690079 -0.10574641 -0.115146555
-0.06379788 0.03777292 -0.04690261 0.036910836 0.12382252 0.012776076 0.11261485 -0.11738227
-0.053781327 0.09893637 0.0035022052 0.02294995 0.10673383 -0.10150084 -0.0038987696 0.11329736
-0.06560066 -0.094380096 -0.104562774 0.11311202 0.02909875 -0.0012008101 -0.09043603 0.015848413
-0.04896611 -0.0699188 0.10897744 0.073639415 -0.027286947 0.045623485 -0.10850363 -0.11749314
-0.12900725 0.020658761 -0.12785085 0.12309493 -0.07051094 0.016527697 0.04523395 0.056323647
0.00077314675 -0.03604046 -0.11764015 -0.06709194 -0.1113565 0.09881629 0.06932861 0.0706353
-0.061129574 0.085363284 0.122179344 -0.100646995 0.10448161 0.010845864 0.040359214 0.0688255
-0.11117544 0.049240783 -0.10516535 -0.08088453 -0.11789507 -0.08497005 0.009608816 -0.09308631
0.026658006 -0.050789982 0.103771314 0.1149029 -0.13827454 -0.010732868 0.06341243 -0.110487774
-0.11167778 -0.12783952 0.01292842 -0.08558966 -0.121500686 0.010520354 -0.10826662 -0.11665603
-0.116320275 0.05369076 -0.09972885 0.08241692 0.10838288 0.035944194 0.015857518 -0.074364886
-0.056216106 -0.0807374 0.1028751 -0.026200715 -0.008131325 -0.0069777006 0.00925928 -0.05684696
-0.030447042 -0.014187127 0.11038258 0.07925215 -0.101769775 0.115736485 -0.00020767748 -0.05858317
0.037415236 0.08052162 -0.055326283 -0.08637828 0.111869335 -0.033781998 0.09752387 0.10917236
0.02805472 0.10834051 -0.016492084 0.02414952 0.10681395 0.12027783 -0.013406694 0.06337887

layer.3.bias f4 [32]
00000000: da26 853d def9 7d3d 3046 5bbc 278f 16bd
00000010: 8067 833d 9a2d d4bd 5af9 eebc f5e9 233d
00000020: 894e 77bd 0b36 d83d 2f39 923c 83f1 d43d
00000030: c11d 46bd ca65 38bd ac48 ebbd 071e d6bd
00000040: f4ce adbd eb46 b1bc 4c9e 90bd 4328 ed3c
00000050: 030c b2bd cb1b abbd 71a8 193c 46e7 c83d
00000060: 7aac 07be b1a3 8cbd 8b97 a0ba 8a0c a4bd
00000070: 69d8 54bd dd7c bf3d 51ba c5bd 3336 583c
0.06501551 0.06200587 -0.013383433 -0.036757614 0.064162254 -0.1036026 -0.029171634 0.04001804
-0.06037763 0.10557183 0.017849533 0.10397627 -0.04836822 -0.04501895 -0.114884704 -0.10454946
-0.08486739 -0.021640262 -0.07061443 0.028949862 -0.08693697 -0.083549105 0.0093785385 0.09809737
-0.13249388 -0.06867159 -0.0012252195 -0.08010204 -0.051964197 0.09349988 -0.09654678 0.013196516

layer.6.weight f4 [1, 32]
00000000: 1e8f 80bd a3b9 463d 9325 d8bd d282 e53c
00000010: af80 25be 20ff 0a3e db4d c8bd 0f31 d33d
00000020: d094 be3d 9c28 163e 508f 683d 39b2 c1bd
00000030: 5952 76bd 2559 f9bd 5ffb 1b3e d013 253d
00000040: 3bda 063e f73b 8abd 574d e13d 3ba8 fdbc
00000050: f8ad e33d 8069 b0bc fb87 4c3b 165e 46bd
00000060: 3de2 d2bd d09e 023e 73ff 19be bf8b 8dbc
00000070: 96f8 163e d299 19bd d3f0 0a3d ef09 9d3d
-0.062772974 0.04851688 -0.10554042 0.028016482 -0.1616237 0.13573885 -0.09780475 0.103120916
0.093057275 0.14663929 0.0567773 -0.094578214 -0.060137127 -0.12175206 0.15232609 0.040302098
0.13169186 -0.06749719 0.110010795 -0.030964008 0.11117166 -0.021534681 0.003120898 -0.04842957
-0.10297058 0.12755895 -0.15038852 -0.01727855 0.14743266 -0.03750021 0.033921074 0.0766791
