src/models/v1/pretrained_models/silverstone_model.pt (torch, 15465 bytes, 5 tensors)

layer.0.weight f4 [64, 12]
000000 ba 7a e9 3c 4b 69 12 bc 10 b2 4f be 43 b4 ec 3d
       0.028500903 -0.008936237 -0.20282769 0.1155782
000010 73 a2 58 3e 43 93 5d 3e d7 52 6b be 43 63 26 3e
       0.2115572 0.21638207 -0.2298082 0.16248803
000020 1e 92 40 3d 7f 6e c4 3d 3e b1 d8 bd b5 6b cc 3d
       0.04701435 0.09591388 -0.10580681 0.09981481
000030 e2 fc ce bd c5 4b 17 3e 01 90 23 3e 31 4b 8e be
       -0.10106827 0.14774998 0.15972902 -0.27791741
000040 84 6d cc bd e2 9b f8 3d 0b 3e 13 ba 85 2c 70 3e
       -0.09981826 0.12139107 -0.000561685 0.23454483
000050 97 b1 34 3d 45 83 f4 3d 02 dd 71 3e f0 59 55 be
       0.044114675 0.119391 0.23619464 -0.2083509
000060 17 ea 78 3d 26 e6 b8 bd 20 68 30 bc b8 63 1c bd
       0.06077012 -0.09028272 -0.010767013 -0.038181037
000070 76 eb cf 3c 52 d7 4e be fd 55 1e be 22 6f 4d 3c
       0.025380831 -0.20199326 -0.1546249 0.012538703
000080 fe 33 04 3b a6 23 8c 3e 95 02 92 be 45 94 06 be
       0.0020172591 0.27370948 -0.28517595 -0.13142498
000090 19 9c 88 3e a2 17 82 3d d5 90 94 be 8e 57 fc 3c
       0.26681593 0.06352164 -0.29016748 0.030803468
0000a0 38 20 65 3e 3b 45 33 be a4 00 78 3d 0b d1 5d 3b
       0.22375572 -0.17506878 0.060547486 0.0033846523
0000b0 43 70 24 3e 62 b7 f6 bd 81 de fa 3d 6d df 50 be
       0.1605845 -0.12046696 0.122494705 -0.2039773
0000c0 60 5e e1 bd e8 36 36 be d2 ae 55 be 32 a8 15 3e
       -0.11004329 -0.17794383 -0.2086747 0.14614943
0000d0 0e 3a 1f 3e 85 11 70 3e 9a 2f 44 be 9f 34 85 3e
       0.1554949 0.23444183 -0.19158784 0.2601671
0000e0 3d 75 17 be 88 2d 8d be 44 15 00 be 8c ab e7 3d
       -0.14790817 -0.275738 -0.12508112 0.11312017
0000f0 9d a1 3a 3e 9e 04 09 3e 8b 77 8b bd 1c 3b 51 be
       0.18225713 0.13380668 -0.068099104 -0.20432705
000100 cd 04 43 be 3d 90 59 be a1 fe 59 be 57 f7 73 3e
       -0.190448 -0.21246429 -0.2128854 0.23824821
000110 ae a8 de bd 4c 1c 44 be ea b1 4c 3e 02 65 1e be
       -0.10872017 -0.1915142 0.19989744 -0.15468219
000120 4d 2b 7f 3e eb 6d 80 be 73 55 61 be 00 78 55 be
       0.24918862 -0.2508386 -0.22005253 -0.20846558
000130 08 13 19 3e c2 f1 8b bd 94 99 81 3d 9f fb 00 be
       0.14948666 -0.06833221 0.06328121 -0.12595986
000140 3c 56 db bd aa f1 ca 3c 5b d8 af bc c8 6f 68 3d
       -0.10709807 0.024773438 -0.021465471 0.056747228
000150 bb d2 96 3d c4 cc f2 bd 80 1d 46 be ed 21 b5 bd
       0.073644124 -0.11855462 -0.19347191 -0.088443615
000160 a6 cb 82 3e 3a 80 79 be 0f 8c 0f 3e c2 b8 9a bd
       0.25545996 -0.24365321 0.14018272 -0.07554771
000170 59 5b 06 3e 09 e8 d5 3d b3 49 8d 3d a6 fd 3b 3e
       0.13120784 0.10444648 0.06898823 0.18358478
000180 2f 1f 96 3d 0f 16 75 be 51 ac a8 3d 8c a2 70 be
       0.073301665 -0.23934196 0.08235992 -0.23499507
000190 da 94 4e bd 60 2b 0a be ce 8c 90 3e b9 e0 ab 3c
       -0.050434925 -0.13493109 0.28232425 0.02098118
0001a0 b7 96 16 3c ba a1 42 3e 4a b6 80 3e 28 b4 1c bd
       0.009191207 0.19007006 0.25139076 -0.038257748
0001b0 47 39 fa 3c 57 d2 e7 3c 61 44 b0 3d e8 22 32 be
       0.03054489 0.02829854 0.08606792 -0.17396128
0001c0 ca 81 4b bd a4 79 8f bd 1b 9e e7 3d ba b9 1c 3e
       -0.049684323 -0.07005623 0.11309453 0.15305224
0001d0 d9 91 d4 3d c0 d0 8a 3e 2c 0a 4c be ed 38 61 be
       0.10379381 0.2711239 -0.19925755 -0.21994372
0001e0 c0 b2 06 bd 54 db d3 bd 5f 09 ee bd b2 ee 87 3e
       -0.032885313 -0.10344568 -0.11622881 0.26549298
0001f0 9a aa 5d 39 aa 46 0d 3e 2c 18 c3 3d 1f 78 38 be
       0.00021139756 0.13796487 0.09526095 -0.18014573
000200 d2 e4 2f be 65 d1 df bd ec 5b 89 be 10 39 1f be
       -0.17177132 -0.10928611 -0.26827943 -0.15549111
000210 a7 e5 be 3c ef fb d5 bd 81 ff 87 3e 64 7e 37 3e
       0.023302866 -0.10448443 0.26562122 0.17919308
000220 93 4f 13 be 6d b4 2b be 20 d1 a7 bd 5e 6f b6 3d
       -0.14385824 -0.16768046 -0.08194184 0.0890796
000230 09 d9 10 be e4 57 80 be 0c d5 12 be 43 81 fc bd
       -0.14145292 -0.25067055 -0.14339083 -0.12329342
000240 c8 0a 22 3c 50 34 71 3e 4d bd 18 3e c2 41 f9 3d
       0.009890266 0.23555112 0.14915963 0.121707454
000250 c1 26 7a 3e ff bf 49 3e da 80 d6 3d 12 5e 2c be
       0.24428846 0.19702147 0.10473795 -0.1683276
000260 14 9b 55 3e 2c 1b 89 3e 9e 10 5c be 09 6d 01 bd
       0.20859939 0.26778543 -0.21490714 -0.031598125
000270 0b ba 42 3e 6b 27 01 be 05 ac ca 3b c0 e1 b8 bd
       0.19016282 -0.12612693 0.006185057 -0.090274334
000280 57 e1 76 3e 71 95 33 bd 16 c6 68 3e d6 9a 59 bd
       0.24109398 -0.04384369 0.22731814 -0.05312618
000290 d2 be 93 3d ea 0b 0e bd 60 79 56 be 05 f9 47 3e
       0.072141305 -0.03467933 -0.20944738 0.19528587
0002a0 84 b3 98 3d 02 d1 ec bb 3a 7e 8e 3e 88 d9 00 3e
       0.07456115 -0.007227064 0.27830678 0.12582982
0002b0 91 6e 78 be ae 4a 87 3e fe 26 29 bd 4e f5 20 3e
       -0.24260928 0.26424164 -0.04129695 0.15718576
0002c0 70 16 40 be 72 23 d4 bd e4 19 31 3e cb ff 51 3e
       -0.18758559 -0.10358323 0.17295033 0.20507734
0002d0 9d 9a 67 3e ff 99 a5 3d 87 1c 2f 3e b9 77 0b 3e
       0.22617574 0.08086013 0.17100726 0.1361989
0002e0 aa 7c 60 3e c2 9f 4c be 3b 12 59 3d 9b 56 2c be
       0.21922556 -0.19982818 0.0529959 -0.16829912
0002f0 90 f6 3e 3e 36 19 c4 bd 7c 1b 08 be 88 66 94 bc
       0.18648744 -0.09575121 -0.13291734 -0.018115297
000300 29 5c 46 3e 64 80 82 bc 84 ee 5f bd 6c 8b 81 be
       0.19371094 -0.015930362 -0.054670826 -0.25301683
000310 e9 f5 64 3e b4 44 f1 bd 0c 20 5a be 9e ce 81 3d
       0.22359432 -0.11780682 -0.21301287 0.06338237
000320 6f 48 cf bd 98 14 b8 3c a8 3b 43 be 0a 28 85 be
       -0.101212375 0.022470757 -0.19065726 -0.2600711
000330 76 65 e3 3d a0 92 a6 3d 80 f9 89 bd 86 06 6f be
       0.111033365 0.08133435 -0.067370415 -0.23342332
000340 60 0d 6b bd 04 3a 4a be 95 21 09 3d 01 7d 47 3e
       -0.057385802 -0.19748694 0.033479292 0.19481279
000350 62 c0 17 be d0 71 a2 3d 8b d3 c5 bd b4 fa 7e be
       -0.14819482 0.07931864 -0.09659489 -0.24900323
000360 77 07 19 3e 73 5e ea 3d 57 b6 19 3e ca 2f b7 3b
       0.14944254 0.11443796 0.15010963 0.0055904137
000370 f1 f4 f8 3c ce a4 4c be 37 b7 95 be f4 9d 1d bd
       0.030390235 -0.19984743 -0.29241344 -0.038480714
000380 a3 d0 04 3e 34 19 e0 bd fc df 70 be 34 0e 0d 3e
       0.12970214 -0.10942307 -0.23522943 0.1377495
000390 f0 fa 8d 3d 8c e6 06 3e 5b 30 40 3c 43 0e 20 3e
       0.06932628 0.13173884 0.011730279 0.1563044
0003a0 a2 6e 85 3c d1 20 03 be 51 ca 30 be eb c4 a2 3d
       0.016288105 -0.12805487 -0.17264678 0.07947715
0003b0 31 71 52 3e c8 e3 2b be f6 52 30 3e e0 bb c7 3d
       0.20550992 -0.1678611 0.17219147 0.09752631
0003c0 b1 17 75 be dc a2 24 bc 06 ef 96 3c 8b 03 14 3e
       -0.23934819 -0.010048594 0.018424522 0.14454477
0003d0 fc 68 46 3e 78 f3 8d 3e 80 12 49 3e c7 59 15 be
       0.19375986 0.27724814 0.19635963 -0.14585029
0003e0 57 7a 75 3e ea 0e 43 3d 31 17 f0 bc 7b df 90 3e
       0.2397245 0.047621645 -0.029307934 0.28295502
0003f0 b0 8b 87 bd 28 65 8e bd b9 f0 ce 3d 4e 38 1f 3e
       -0.0661844 -0.06952888 0.10104508 0.15548822

layer.0.bias f4 [64]
000000 bd e3 12 3c 78 c8 93 3e 93 8b 2a be df e8 4e 3e
       0.00896543 0.28863883 -0.16654806 0.20206021
000010 01 05 21 3d 06 8d 96 bd 6f 2d 86 be 1a b5 a6 bd
       0.039311413 -0.07351117 -0.26206538 -0.08140011
000020 60 88 1d 3e 78 9c 46 3e 64 08 30 bd d9 56 35 bd
       0.15384054 0.19395626 -0.042976752 -0.044272278
000030 a0 4b 36 3e 42 63 4a 3e 59 8a 22 be 2f e9 24 3e
       0.17802286 0.19764426 -0.15873088 0.16104577
000040 e5 9f 1f be f2 e0 7c 3e 24 ef a1 3c 95 ec 86 bd
       -0.15588339 0.24695185 0.019767351 -0.06588093
000050 f8 12 7a 3e dd 1a 89 3e 5d ba 06 3e 4a 6d 1d be
       0.24421299 0.26778308 0.1315703 -0.15373722
000060 0f 98 d7 3d 67 00 0a 3d 78 6d d5 3d 30 3e 6a be
       0.1052705 0.03369179 0.1042127 -0.22875285
000070 dc ee 85 be eb 4b 82 be 4f 76 20 be d0 62 89 be
       -0.26158798 -0.25448546 -0.15670131 -0.268332
000080 f8 e9 5e be 5b 67 0d be 46 f7 2b 3e 1e 07 75 be
       -0.2176894 -0.13808958 0.16793546 -0.23928496
000090 b6 1f 87 3e 28 e5 84 be 28 6b 6b be 92 98 50 be
       0.2639138 -0.25956082 -0.22990096 -0.20370701
0000a0 48 97 15 be 10 af c7 3d c3 60 8a be 54 e7 89 be
       -0.1460849 0.097501874 -0.27026948 -0.26934302
0000b0 e7 3e d5 bd bd ea 71 3d e6 63 25 be 0e ef c6 bc
       -0.10412388 0.059061754 -0.1615139 -0.024283912
0000c0 72 1d 64 be 8e 44 39 3e a3 63 6f be 4e ac 86 3e
       -0.22276857 0.18092558 -0.23377852 0.26303333
0000d0 c1 c8 a6 bb 54 28 cd 3c b2 17 7b be a3 8b 93 3e
       -0.0050898497 0.025043644 -0.24520758 0.28817472
0000e0 98 d2 5f be 3f 79 ad 3c 3a 6f 52 be f3 7b 40 3d
       -0.21857679 0.021175979 -0.20550242 0.046993207
0000f0 8d 60 00 3e f9 43 28 3e 09 1f cc 3d 90 8e 63 3d
       0.12536831 0.1643218 0.09966857 0.05555588

layer.3.weight f4 [32, 64]
000000 f9 db 99 bd c0 bf f1 3c 71 0a 15 3d ea 85 34 3d
       -0.075126596 0.029510379 0.03638691 0.044073023
000010 38 97 ab bc 13 e3 e6 bd ee 2a 94 3d cd 2b bc bd
       -0.02094613 -0.1127378 0.07234751 -0.09188042
000020 68 27 c6 bd e4 f6 6e 3c e0 81 dc 3b 22 6a cf 3d
       -0.09675485 0.0145852305 0.0067293495 0.10127665
000030 09 b1 ce 3d 71 e1 e1 bd e7 ab 2d 3c ce 42 9a bd
       0.100923605 -0.11029328 0.010600067 -0.07532273
000040 82 3f 8f bd fa 66 b1 3c 9f c9 c8 bc f6 81 c4 3d
       -0.06994535 0.021655548 -0.024510203 0.095951006
000050 08 ba 7c bd 08 db c8 bc 60 4a f1 bd d4 08 4f bd
       -0.06170085 -0.024518505 -0.11781764 -0.05054553
000060 b2 e2 81 bc 76 b1 48 3d ee 51 f1 3d 70 4c 78 3d
       -0.015855167 0.048997365 0.11783205 0.06061977
000070 00 22 49 3b e2 da fa bd 68 93 e6 bd f0 79 5f 3d
       0.0030690432 -0.1224878 -0.11258584 0.054559648
000080 f0 a1 5c bd c0 5c 21 3d d0 fc 76 bd 6c 71 f3 3d
       -0.053865373 0.039395094 -0.060299695 0.11886868
000090 0c da 5a 3d 96 cb 1f bd 8f 4e 9c bd 64 ec 51 bd
       0.053430602 -0.039012514 -0.07632171 -0.05125083
0000a0 17 4e 9b bb 40 95 82 bc ff cc ad 3b 38 77 be bc
       -0.0047395336 -0.015940309 0.0053039785 -0.023250207
0000b0 58 0e 36 bd 08 bd 3c bd 14 44 2b 3d c0 18 89 bd
       -0.044447273 -0.04607871 0.04181297 -0.06694174
0000c0 d8 e7 ba bc 30 ab ae 3d 9c 9b 96 bd c0 5f 5a bd
       -0.02281563 0.08528745 -0.07353899 -0.05331397
0000d0 11 c4 8b 3d 94 51 6b 3d f1 ed f4 3c b9 fa fe bc
       0.06824506 0.057450846 0.029898616 -0.031125413
0000e0 15 3b dc bd cf 4a ed 3d cc dc 3f bd 83 39 c7 bc
       -0.107534565 0.11586534 -0.046841428 -0.024319416
0000f0 5d 34 8b bd 6a a0 fd bd 14 28 a7 3d 12 54 82 3d
       -0.06797097 -0.12384112 0.08161941 0.063636914
000100 33 a6 74 3b 00 0d 90 bb ef c0 24 3d df 2f 80 3a
       0.0037330508 -0.004396081 0.04022306 0.0009779892
000110 7c 31 c5 bd dc f8 d6 bd 7a 66 93 bd ff 42 0e 3d
       -0.09628579 -0.10496685 -0.0719728 0.03473186
000120 c4 a2 8e bd 79 20 4e 3d 74 c5 c0 3d 11 67 e5 bd
       -0.06964639 0.050323937 0.09412661 -0.11201299
000130 8c 4c ae 3d 6f 45 0d bd fc f2 1a 3d 3e b7 c2 3d
       0.08510694 -0.034490045 0.037829384 0.09507607
000140 fb 1d 59 bd 46 02 78 bd 8b fb d3 3c 9c e3 e9 bd
       -0.053007107 -0.060549043 0.025876781 -0.11420366
000150 a6 a6 8d bd 48 9b a3 bd 54 f2 26 bd 00 d7 9b 3d
       -0.06916551 -0.07988602 -0.040758446 0.07609367
000160 9b b1 01 3d 0a 53 01 be 20 7f e3 bb bc 36 fa bd
       0.03166352 -0.12629333 -0.0069426447 -0.12217471
000170 48 32 f5 3c 16 32 c2 3d a4 ac ec bd 60 c8 2d 3c
       0.029931203 0.094822094 -0.11556366 0.010606855
000180 fc 20 cd 3d 46 be 9d 3d 50 b1 cd bd 29 ed 45 bc
       0.10016057 0.077023074 -0.10043585 -0.012080469
000190 34 0c 1a 3d aa b5 3f bd 1e 5c 8a b8 56 52 95 bd
       0.037609294 -0.046804108 -6.597511e-05 -0.07291095
0001a0 c2 6e 02 3d a0 79 e5 3c 61 7a d5 3d 20 d0 56 bc
       0.031843908 0.028012097 0.104237325 -0.013111144
0001b0 e6 e6 9c bd 34 4b bb 3d 60 4f 33 3c c0 fe b8 bd
       -0.07661228 0.09145203 0.010944217 -0.09032965
0001c0 54 0d a2 3d 73 b7 f0 3d d0 3e 4e 3d 68 b5 1d 3d
       0.079126984 0.1175374 0.05035287 0.03850308
0001d0 28 21 36 bd 7c 3c e6 bd 3e dc d3 3d 4b b3 80 bd
       -0.044465214 -0.11242005 0.10344742 -0.062841974
0001e0 0e c2 42 bd 0a c1 51 3d 28 c4 b0 3c ff 5c 13 3d
       -0.047548346 0.051209487 0.02157791 0.03597736
0001f0 2a d2 c2 3c 1e 03 4f 3c 48 38 68 bd 31 b4 87 bd
       0.023781855 0.012635021 -0.0566943 -0.06626166
000200 4e 1c 75 bd 0c 06 e5 3d e0 8b e2 3d da 01 13 3d
       -0.059841447 0.11182794 0.11061835 0.035890438
000210 62 87 d6 3d e8 d8 88 bd cc 2b d9 bd 2d f3 eb bd
       0.10475041 -0.066819966 -0.10604057 -0.115209915
000220 49 82 82 bd 69 12 1b 3d f4 1c 40 bd 3c 59 17 3d
       -0.06372506 0.037859354 -0.04690261 0.036950335
000230 73 f9 fc 3d 21 2f 52 3c 19 c6 e6 3d 70 a9 f0 bd
       0.12352266 0.012828619 0.11268253 -0.11751068
000240 00 82 5c bd f7 c7 ca 3d 60 55 52 3b f4 d2 bc 3c
       -0.053834915 0.099014215 0.0032094344 0.023049809
000250 44 97 da 3d ac df cf bd 80 82 7f bb 54 23 e8 3d
       0.10673383 -0.10150084 -0.0038987696 0.11334863
000260 e2 f6 86 bd a5 e7 c1 bd 02 25 d6 bd 46 a7 e7 3d
       -0.06590058 -0.09468011 -0.104562774 0.11311202
000270 80 60 ee 3c 80 64 9d ba 86 36 b9 bd 88 d4 81 3c
       0.02909875 -0.0012008101 -0.09043603 0.015848413
000280 b0 90 48 bd 96 31 8f bd 90 2f df 3d 45 d0 96 3d
       -0.04896611 -0.0699188 0.10897744 0.07363943
000290 e0 88 df bc 16 f3 3a 3d 65 4d de bd 3e a0 f0 bd
       -0.027286947 0.04564198 -0.108546056 -0.11749314
0002a0 ff 13 04 be 90 3c a9 3c 4b a5 02 be 32 19 fc 3d
       -0.12898253 0.020658761 -0.12758367 0.12309493
0002b0 0a 68 90 bd 18 65 87 3c 3c 47 39 3d a0 b3 66 3d
       -0.07051094 0.016527697 0.04523395 0.056323647
0002c0 00 ad 4a 3a 56 46 13 bd 52 ed f0 bd 80 67 89 bd
       0.00077314675 -0.03595575 -0.11764015 -0.06709194
0002d0 6d aa e4 bd 8c 79 ca 3d c4 2b 8e 3d c4 c2 90 3d
       -0.11165319 0.098864645 0.069419414 0.070683986
0002e0 9a 9d 7b bd 26 06 af 3d 2a 39 fa 3d 5a ee cd bd
       -0.061429597 0.085460946 0.122179344 -0.100552276
0002f0 2e 1e d6 3d ea 20 33 3c b4 4f 25 3d ae e0 8c 3d
       0.10454975 0.01093314 0.040359214 0.06878792
000300 28 7f e3 bd b4 b0 49 3d 3e a7 d7 bd 51 72 a5 bd
       -0.111082375 0.049240783 -0.10529946 -0.08078445
000310 f8 72 f1 bd 38 d1 ad bd 36 e7 1c 3c f3 6f be bd
       -0.11789507 -0.08487171 0.009576609 -0.09298696
000320 2c 21 db 3c 49 94 50 bd 0e 86 d4 3d a9 86 eb 3d
       0.026749216 -0.050922666 0.103771314 0.11500294
000330 ab 7d 0d be 04 ea 31 bc e3 0f 82 3d 44 24 e2 bd
       -0.1381747 -0.010859016 0.063506864 -0.11042073
000340 82 29 e5 bd 49 9b 02 be 40 70 55 3c ff 19 af bd
       -0.111895576 -0.12754549 0.013027251 -0.0854988
000350 5a d5 f8 bd 90 5d 2c 3c e4 ba dd bd 10 38 ef bd
       -0.121500686 0.010520354 -0.10826662 -0.11680615
000360 bd 80 ee bd a7 53 5c 3d a4 3e cc bd 34 ca a8 3d
       -0.11645649 0.053790715 -0.09972885 0.08241692
000370 d8 f7 dd 3d 38 3a 13 3d a0 e7 81 3c 9e 4c 98 bd
       0.10838288 0.035944194 0.015857518 -0.074364886
000380 dc 42 66 bd a6 59 a5 bd 2e b0 d2 3d 4e f5 d5 bc
       -0.056216106 -0.0807374 0.1028751 -0.026117947
000390 40 39 05 bc d0 72 e1 bb 6c 3c 19 3c 5c d8 68 bd
       -0.008131325 -0.006880142 0.009352785 -0.05684696
0003a0 aa af f8 bc 20 71 68 bc 1e 44 e2 3d f4 4e a2 3d
       -0.0303572 -0.014187127 0.110481486 0.07925215
0003b0 ac 6c d0 bd 40 07 ed 3d 00 c4 59 b9 e8 f4 6f bd
       -0.101769775 0.115736485 -0.00020767748 -0.05858317
0003c0 b8 40 19 3d 76 15 a5 3d d0 9d 62 bd 18 e7 b0 bd
       0.037415236 0.08060734 -0.055326283 -0.08637828
0003d0 10 50 e5 3d e0 f9 09 bd 55 eb c7 3d bd c9 df 3d
       0.11196911 -0.033685565 0.09761683 0.109271504
0003e0 05 a2 e6 3c 69 14 de 3d 68 1a 87 bc a3 74 c6 3c
       0.028153429 0.10843737 -0.016492084 0.024225539
0003f0 51 f2 da 3d 6c 11 f6 3d c0 a7 5b bc a9 ff 81 3d
       0.106907494 0.12015042 -0.013406694 0.063475914

layer.3.bias f4 [32]
000000 20 24 85 3d 5c 33 7f 3d cd 6f 5a bc 59 29 16 bd
       0.06501031 0.06230484 -0.013332319 -0.036660526
000010 0e bf 83 3d 1a f9 d3 bd 3b 29 ee bc 28 35 23 3d
       0.06432925 -0.10350247 -0.029072395 0.039845616
000020 7c e6 76 bd 38 6a d8 3d 82 f0 92 3c 63 1c d5 3d
       -0.0602784 0.105671346 0.017936949 0.10405805
000030 8b be 45 bd 4a fd 37 bd 8f 18 eb bd c9 81 d5 bd
       -0.04827742 -0.04491929 -0.114792936 -0.10425145
000040 87 9a ad bd da cc af bc a7 6b 90 bd 4d 4d eb 3c
       -0.084767394 -0.021459986 -0.07051783 0.028723383
000050 11 d8 b1 bd 5e ba aa bd 94 13 1b 3c a8 81 c9 3d
       -0.086837895 -0.08336328 0.009465117 0.09839183
000060 3a 92 07 be 47 6f 8c bd 1d 2d 95 ba 29 0f a4 bd
       -0.13239375 -0.06857162 -0.0011381243 -0.08010704
000070 72 77 54 bd d7 16 bf 3d 56 2e c5 bd 15 da 59 3c
       -0.051871724 0.09330528 -0.096279785 0.013296624

layer.6.weight f4 [1, 32]
000000 5f c3 80 bd 1b 1f 47 3d 10 59 d8 bd cd 54 e6 3c
       -0.06287264 0.04861365 -0.10563862 0.028116608
000010 77 ac 25 be 5a 19 0b 3e 3e 82 c8 bd 76 65 d3 3d
       -0.16179071 0.1358389 -0.09790467 0.103220865
000020 fb c8 be 3d d9 42 16 3e 49 f7 68 3d 93 e1 c1 bd
       0.09315678 0.14673938 0.056876455 -0.09466853
000030 d4 b9 76 bd 71 8d f9 bd 79 12 1c 3e ad 41 26 3d
       -0.060235813 -0.12185181 0.15241422 0.040589977
000040 77 f4 06 3e 49 6d 8a bd 16 80 e1 3d fa 19 fc bc
       0.13179193 -0.06759126 0.110107586 -0.030774105
000050 e6 e1 e3 3d 62 d2 b2 bc e6 88 39 3b 92 b2 46 bd
       0.11127071 -0.021828834 0.0028310358 -0.04851014
000060 ac 16 d3 bd e9 b8 02 3e 97 15 1a be e0 ff 8f bc
       -0.10307059 0.1276585 -0.15047298 -0.017578065
000070 92 12 17 3e 0f e3 18 bd f1 fa 0b 3d 6f 3e 9d 3d
       0.14753178 -0.037325915 0.034174863 0.07677924
