src/models/v1/pretrained_models/spa-francorchamps_model.pt (torch, 15465 bytes, 5 tensors)

layer.0.weight f4 [64, 12]
00000000: 16df 8e3e 07e3 373e d124 053e 81bb 373e
00000010: 8623 6f3e 28a7 79be bc1c 533e 6989 d33d
00000020: 80a1 50be 56f7 8abe e71e f8ba f132 d0bd
00000030: 9d12 973d c2be 69be 8c11 5abd 6801 0e3e
00000040: bc48 6dbe 0241 8e3e 2b48 d43d 659a 87be
00000050: 23ab 753e de85 113e 1ff9 2c3e 8883 263e
00000060: 2502 61be 0035 34be 7ab8 c5bd 6871 003e
00000070: 8ed3 0abe fbc3 ecbd 6810 11be f32a 713c
00000080: a1c7 8e3e 0c1f 7539 7c51 83be 62d5 e1bd
00000090: bed8 19bd 8420 d0bd f140 21bd e9e0 103e
000000a0: 5937 123e 8e5f 43be 23b1 c8bd 5f94 c23d
000000b0: 11f5 e23a cde1 b73d 1cd4 d13d 676a ed3d
000000c0: 2480 3f3e 638f c5bd 131e 463e 8783 15be
000000d0: 2cd6 d3bd 7bca 8f3e 5b76 333e 4b08 73be
000000e0: 6b66 8fbe cf93 4a3e d2a7 243e d5bc 653e
000000f0: 040e 743e 8caa 4f3e b17d bf3d 8708 4d3e
00000100: 276f 93be 6ec3 92be 87d3 84be acdf 1ebd
00000110: 3b14 c6bd 23c0 ef3d 4f23 14be 4740 81be
00000120: de50 5abe e550 0d3e d405 653e 2daa b43d
00000130: f188 87be 412f 3d3e 4f50 913e 1861 40bd
00000140: 0c72 823e f23d d3bd cd59 463e d6d3 8d3e
00000150: f5c5 3cbe f940 8d3e f3ba 5e3e 62bc 043d
00000160: f73c 4bbe ea39 843e d8df 2abe 8fe6 54be
00000170: f7f3 863e 03c8 c7bd 9547 0b3e 8c5e 09bc
00000180: 1e3c 4cbe 99b1 843e 22be 03bd 42fc 403e
00000190: e102 a7bc 0a67 8b3e 32c5 503e 301c d1bd
000001a0: 248d 92bd 7dec 8a3d 17d5 2a3d 46f7 7a3e
000001b0: d615 953d 3e8d cdbd cc6d b83d d9c1 0abe
000001c0: b95c 2e3e d979 89bd f480 cdbd 66f4 003e
000001d0: 504c 7cbe 5e8e 9c3c 7b26 09be 3d14 6e3e
000001e0: 60e8 2a3b ea06 713d a8ab 403e 43af 50bd
000001f0: 3d0f 6bbe 692f 8cbb fddc 7bbe a175 52be
00000200: 7bb2 e23d 30c1 15be 0ef3 c33d ede1 39be
00000210: 5f8a b8bd c995 6cbe c954 76be d6a8 52be
00000220: 90e7 823e 9e37 88be 9b6f 223e 2c27 843e
00000230: d699 d63c 69f2 77be 992c 2f3d 4b70 b13d
00000240: 3ca1 613e 767a 0d3e 45c1 e83d 5bdf 59be
00000250: c6e5 a33c dc50 69be 00c2 9d3d 032d c5bd
00000260: c90e 2e3e fb2e 30bd 922f 0d3e a3c8 bb3d
00000270: 67fa 2abd 040d 793e 02a9 8fbe aa80 083d
00000280: 97d3 a3bc 0b93 83be ff8b 0abe d88b e4bd
00000290: ce97 87be ad7c eabd 92f8 80be aa82 82be
000002a0: 8033 a0bd 01e0 0abd d8e8 65be db5f 6dbe
000002b0: 3907 79be 08f2 74be 822f b73d cb80 a4bb
000002c0: c239 b5bd 2a71 433e f4f6 7e3e 056b 93be
000002d0: 346e 57be 872d 6d3e 1164 ebbb 05a0 0ebe
000002e0: 8416 86be 690d 6a3b 5cfc 9abd d086 b33d
000002f0: 4722 793e 3995 39be 9149 4c3e 4d22 32bd
00000300: 6ae7 663e 790a 81bd 3601 0f3e 8f0d 583e
00000310: a3cf 56be 249a 93be 9200 693e acc9 13bd
00000320: 9e56 97bd e73e 05be 21ca 29be 2ef1 1d3e
00000330: 48bd cbbd a728 843d 6f03 383e f15c 853d
00000340: e0ab 92be 41de 633e 8536 6bbe f414 90be
00000350: 8336 22be 7421 1c3e dcdd 023e 3f93 04bd
00000360: 7f7a 483e 10f4 223d e455 10bb a3e7 86be
00000370: 9dda 633e 1b8c a2bd e864 42be 8b4d 2cbe
00000380: 0dca 3a3e 187c b33d e3ae 2e3e 9e92 92be
00000390: bf02 793e cc74 103e 9723 34bc 3207 25be
000003a0: 761f 75be 6542 ea3d 5f26 a23d 542f 2d3d
000003b0: 14fb 1d3e 81a4 23be e838 393e b2d7 e6bd
000003c0: 5f9e aabd 32a4 753d f2ad 64be 7903 923e
000003d0: 988a 90bd 8b27 5a3e 7023 eabd 3807 33bb
000003e0: c184 09be 8825 363e 36f1 063d c4b4 0a3e
000003f0: 4fde 89be c522 e83d 1caa 553e 91ca ef3d
0.27904576 0.17957698 0.13002326 0.17942621 0.23353395 -0.24380171 0.2061643 0.10328943
-0.20374107 -0.27141827 -0.0018930108 -0.10165966 0.07376597 -0.22826675 -0.05323939 0.13867724
-0.23172277 0.27783972 0.103653274 -0.2648498 0.23991065 0.14211223 0.16891907 0.16261113
-0.21973474 -0.17598343 -0.09654327 0.12543261 -0.13557264 -0.11560818 -0.14166415 0.014719713
0.2788668 0.00023376587 -0.25648105 -0.11027028 -0.037560217 -0.10162452 -0.039368574 0.14148296
0.14278926 -0.1907942 -0.09799411 0.09500956 0.0017315467 0.08978615 0.10245535 0.1159256
0.18701226 -0.096464895 0.1934741 -0.14600955 -0.103435844 0.28084168 0.17525618 -0.23733632
-0.28007826 0.19782947 0.16079643 0.22435315 0.23833472 0.20279902 0.093501456 0.20022784
-0.2879574 -0.28664726 -0.25942633 -0.03878753 -0.096718274 0.11706569 -0.14466594 -0.25244352
-0.21319911 0.1380039 0.22365505 0.08821521 -0.26471666 0.18475057 0.28381583 -0.046967596
0.25477636 -0.103145495 0.19370194 0.2770068 -0.1843489 0.27588633 0.21751003 0.03240622
-0.19847475 0.25825435 -0.16686952 -0.20791076 0.26358005 -0.09754946 0.13601525 -0.008384358
-0.19944808 0.25916746 -0.032163747 0.18846229 -0.020387115 0.2722705 0.20387724 -0.102104545
-0.07155827 0.06783388 0.041707125 0.2450839 0.072795555 -0.100367054 0.09005317 -0.1355051
0.17027558 -0.06712694 -0.100343615 0.1259323 -0.24638486 0.019110855 -0.13393585 0.23249908
0.0026078448 0.058844484 0.18815482 -0.050948393 -0.22955032 -0.0042781127 -0.24596019 -0.20552684
0.11069199 -0.14624476 0.095678434 -0.1815259 -0.09010767 -0.23104014 -0.2405578 -0.20572218
0.25567293 -0.26604933 0.15862887 0.25811136 0.026196402 -0.24213566 0.04276714 0.08663996
0.22034162 0.13816246 0.11364988 -0.2127661 0.020007025 -0.22784752 0.07703018 -0.09627726
0.16997828 -0.043013554 0.13787678 0.09169128 -0.04174271 0.24321371 -0.2805863 0.03332583
-0.019998355 -0.25698122 -0.13529967 -0.111594856 -0.26483005 -0.11449561 -0.25189644 -0.25490314
-0.07822323 -0.033905033 -0.22452104 -0.23181097 -0.24319161 -0.23920453 0.08944608 -0.005020236
-0.08848907 0.19086137 0.24898893 -0.28792587 -0.21038133 0.23161899 -0.0071835597 -0.1392823
-0.26189053 0.003571356 -0.07567665 0.08765948 0.24329482 -0.1812333 0.19949938 -0.043489743
0.22549215 -0.063008256 0.13965306 0.21098922 -0.20977645 -0.28828537 0.22754124 -0.036081
-0.07389568 -0.13012277 -0.16581012 0.15424034 -0.09948212 0.06453066 0.1797006 0.06511868
-0.28646755 0.22252752 -0.22970016 -0.28140986 -0.15841107 0.15247136 0.12779945 -0.032366987
0.19577979 0.039783537 -0.002202385 -0.263486 0.22251363 -0.07936879 -0.18983805 -0.16826455
0.18241139 0.087639034 0.17058901 -0.28627485 0.24317454 0.14107054 -0.010994813 -0.16116026
-0.23937783 0.11438445 0.07917475 0.042281464 0.1542781 -0.15980722 0.18088114 -0.11271609
-0.08330988 0.059971042 -0.2233198 0.28518274 -0.07057685 0.21304147 -0.114325404 -0.0027317535
-0.13429548 0.17787755 0.03294488 0.13545519 -0.2692742 0.11334757 0.20865673 0.11708558

layer.0.bias f4 [64]
00000000: 781d 4dbe d665 6a3e a8e9 34be 32e7 8b3e
00000010: 1fa0 04be f113 823e bd32 ce3d 910e 44be
00000020: 2133 06be 40a6 97be 2ae0 433e b358 b53d
00000030: acb6 853e 9eeb 1f3c df5b 96bc e2c6 1d3d
00000040: 642c b1bd 6ec5 d93d 3ede 6cbd cd20 1d3e
00000050: 3923 e7bd 0566 d83d 6529 223d d770 693e
00000060: 7a95 793c 3380 223e 8b5e 243e 2eb1 edbd
00000070: e05e 0c3e a97d b43d 7988 56bd e553 99bb
00000080: b9c0 5f3d be1a 07bd dd54 0b3e 7dfd 783e
00000090: e464 50be d969 4e3e b05a 8abe fdb5 7bbd
000000a0: dc2a 423e cb65 41be 962c 083e 93c5 783d
000000b0: 50f9 d4bd 1f4a 22be 7499 2dbd 2a6c a63c
000000c0: 09eb 833e 746f 11be b670 4b3d 4cfa 453e
000000d0: cc9c 313e 4438 873e 4ea3 453e 4fb5 5e3e
000000e0: 1fb5 1d3e 7d87 7d3e 675c e9bd f2af 463e
000000f0: b231 e8bd 9375 68be b456 1cbe bf91 7c3d
-0.20030773 0.2289041 -0.17667258 0.27324826 -0.12951706 0.2540584 0.10068271 -0.19146182
-0.13105442 -0.29619026 0.1912848 0.08854809 0.2611593 0.009760765 -0.018354354 0.038519748
-0.08651045 0.1063336 -0.057829134 0.15344544 -0.11286015 0.10566334 0.03959026 0.22796951
0.015233392 0.15869217 0.1605169 -0.1160606 0.13708067 0.0881303 -0.052376244 -0.0046791905
0.054627154 -0.032984488 0.13606592 0.24315448 -0.20350987 0.20157565 -0.27022314 -0.061452854
0.18961662 -0.18886487 0.13298258 0.060735296 -0.10399115 -0.15848587 -0.042382672 0.020315249
0.25765255 -0.14202672 0.049668036 0.19333762 0.1734497 0.26410115 0.19300577 0.21748851
0.15401123 0.24758716 -0.113945775 0.19403055 -0.11337604 -0.22701101 -0.1526745 0.06166243

layer.3.weight f4 [32, 64]
00000000: 5af6 e7bd 2f4f 8a3c 08de fcbd 80cf 3b3c
00000010: def9 adbd e24d edbc f80e a2bc 3c09 3e3d
00000020: a825 d73d 115e 1fbd 6412 9c3d ac8a b23d
00000030: a513 b4bd c02d 79bb 2af8 f53d 9292 da3d
00000040: ca6a 85bd 3498 863d d49f 49bc 4a19 ac3d
00000050: 6ce9 e33d 46a5 cc3d 3242 853d ec04 0bbe
00000060: 20a5 c8bd 1ade b63b 3cfb be3d 84c6 6f3d
00000070: 562d c83d c5da 78bc 060c a83c 00f1 ce3d
00000080: 92be eabd c844 07bc cb00 0cbc 2e22 da3d
00000090: cf6c f83d 8584 05bd 381a fabd b2fe f4bd
000000a0: c8b9 eabd ff43 d1bd 30c8 e13d 199b 993d
000000b0: 90a5 1bbc 0843 9cbd 338e 83bd 5c40 e8bd
000000c0: 664d cfbd 5494 fb3d 306c 1abd 880f f33d
000000d0: 6c26 973d c028 01bc 609c b7bc 80c0 cc3a
000000e0: 6834 1c3d 68ee 5cbd 7400 013d 206d e5bb
000000f0: 4297 e5bb f2e8 843d 9aff 9bbd 9cf1 393d
00000100: c153 16bd 2566 adbc 4429 f33d aa72 e13d
00000110: a10c cc3d b207 ae3d 1480 e1bd 987f 8abd
00000120: d81c e6bc 67d8 813d 8864 66bc bede a2bd
00000130: ab35 fcbd 38c1 1dbd 6adb f53d 5cba f43d
00000140: 9ee7 fa3a c253 a83d d897 5bbc 959b eebc
00000150: e4a9 6f3d 5ccc c4bd 387b cd3c 8b69 853d
00000160: 68ab 333d 43a5 c13c b578 99bd 1828 1ebd
00000170: 9e76 da3d bd8c e13d 0686 44bd d321 4ebd
00000180: fc38 5cbd a40c dabd 7d98 a83d b662 a63d
00000190: c267 5dbd faef 0c3c a24e 943d f4ce e43d
000001a0: 561b c8bd c273 8a3d 701d fdbd 8a17 01be
000001b0: c080 ff3d 8f28 8cbd 3308 01be e9e1 babd
000001c0: dcce 933d 47ba 70bc 8886 a4bc 30c8 3d3d
000001d0: 773d a03d e65d b6bd a038 80bd 80ed e6bd
000001e0: dad5 203d 501b e23d a927 ec3c 70e6 a73d
000001f0: c787 413d 3ca4 6d3d 76c2 d7bd eed6 c43d
00000200: 1243 5a3d 2470 e03d c471 c4bd e063 c13b
00000210: 6957 e73d fe94 fabc 802f a93d 3cc5 7abd
00000220: d8d9 6e3d 033f ac3d 2fae c73d 202b f0bc
00000230: e2f8 1e3d b80f 5d3d 1071 f6bd 7291 89bd
00000240: fc90 fa3c 644e bebd 3a93 303d d9ce f6bd
00000250: 0074 2a3d d842 693d 1041 fe3c 2edb bb3d
00000260: 6e16 8b3d 99ad 0ebd dd7b 7abd 08f0 e9bc
00000270: b881 45bd 82ef 65bd 97c5 643c 9729 a23a
00000280: 8423 43bd ece9 8bbd dfaa b8bc 2098 3e3c
00000290: 0092 503d e7a9 663c e322 1bbd b2ac fd3d
000002a0: 5702 64bd 5a5c c0bd 2223 e23d 05b3 7dbb
000002b0: 6e90 b83d 3004 0ebd 4d9e fbbd 3050 503d
000002c0: f03f 2b3c e27b 433c 6ca2 753d 5c71 11bd
000002d0: bada 05be 1ca4 e03d 48a4 f63c 9a62 04be
000002e0: cde8 d1bd dce8 40bd d205 c83c c062 0f3b
000002f0: ddc6 7ebd f863 863c 001c e43b 6e00 f03d
00000300: bbf7 e03d 7725 96bd 7efc 86bd b88b ec3d
00000310: 5591 e93d 3e80 e4bd 382d c1bd 809d db3c
00000320: 0434 ea3d 9743 a0bd 8288 22bb 8464 073d
00000330: 1002 b3bd 1440 cdbd 888a b83d 0c6d 1abd
00000340: eb51 e63d 5805 2c3d f189 96bd b42f eabc
00000350: 1cbd 813d 6a85 cabd 84d2 ac3d 4a35 ddbc
00000360: 3693 883d 77b3 f9bd c92e 273d 9258 a2bd
00000370: 2006 2fbd a046 67bd d5d8 c1bc 4eb2 00bd
00000380: 701f a3bc b709 c93d 4f4e e6bd 820b d7bd
00000390: e6b6 a6bd 2ac1 05be f3c1 b13d 041d 6a3d
000003a0: d005 03be f9cc c1bd 2e60 b7bc ee3f 673d
000003b0: c271 ccbd ab92 91bd 2ed2 ddbd eb93 03be
000003c0: 5c70 c3bd 3edc f9bd 18c4 a43d 701e 4dbd
000003d0: 71bf 25bd 5887 a43c 3467 acbd 8339 0d3d
000003e0: 43fe b2bd 48b7 c73c f523 e43d 4297 d2bd
000003f0: d6b8 8cbd 981b fb3d 1ed6 e1bd ee4f cabd
-0.11326285 0.01688346 -0.123470366 0.011463046 -0.08494924 -0.028967801 -0.019782528 0.046395525
0.10505229 -0.038908068 0.07620695 0.08717856 -0.087928094 -0.0038021654 0.12010224 0.10672487
-0.06514509 0.06571999 -0.012306172 0.08403261 0.11128506 0.09992461 0.065067664 -0.13576096
-0.0979712 0.005580676 0.09325263 0.05853893 0.09774272 -0.0151888775 0.020513546 0.10104561
-0.1146213 -0.008256145 -0.008545111 0.106510505 0.121301286 -0.032597084 -0.12212032 -0.11962642
-0.11461216 -0.10218047 0.11024511 0.07500286 -0.009499922 -0.07629973 -0.06423607 -0.113404006
-0.101221845 0.12284151 -0.037700832 0.11868197 0.07380375 -0.007883251 -0.022413433 0.0015621334
0.038135916 -0.0539383 0.031494573 -0.007001534 -0.0070065567 0.06489743 -0.076171115 0.045396432
-0.036700968 -0.02116687 0.11873105 0.110081986 0.09963346 0.084975615 -0.11010757 -0.06762618
-0.028089926 0.063401036 -0.014062054 -0.07952641 -0.12314924 -0.038514346 0.120047405 0.11949608
0.0019142514 0.082191005 -0.013402902 -0.029126922 0.05851163 -0.09609291 0.02508317 0.06514271
0.043864638 0.023638373 -0.07493726 -0.038612455 0.10667156 0.11013172 -0.047979377 -0.050325226
-0.053765282 -0.10646942 0.0823221 0.08124296 -0.05405403 0.008602137 0.072415605 0.11172286
-0.09770839 0.0676036 -0.123591304 -0.12606636 0.12475729 -0.068436734 -0.12600784 -0.0912512
0.0721719 -0.0146928495 -0.02008368 0.04633349 0.078242235 -0.089046285 -0.062608 -0.11275768
0.039266445 0.11040366 0.028827505 0.08198249 0.047248628 0.058017954 -0.10535137 0.09611307
0.05328662 0.10958889 -0.095920116 0.0059017986 0.11295969 -0.030588623 0.08261013 -0.061223254
0.05831322 0.08410456 0.0975002 -0.029317439 0.038811572 0.05397007 -0.12033284 -0.067171946
0.030586712 -0.092922956 0.043109156 -0.12051172 0.041614532 0.056948513 0.031036884 0.091726646
0.067913875 -0.034833524 -0.06115328 -0.028556839 -0.048219413 -0.056136616 0.013963125 0.0012372014
-0.047641292 -0.068317264 -0.022542415 0.011632949 0.050920486 0.014078594 -0.037875067 0.12386455
-0.055666294 -0.09392615 0.11041857 -0.003871144 0.09011923 -0.034671962 -0.12286053 0.050857723
0.010452256 0.011931391 0.05996935 -0.0355085 -0.13071719 0.109688014 0.030107632 -0.12928239
-0.10249481 -0.047097072 0.024416838 0.0021878928 -0.06220137 0.01640509 0.0069613457 0.11718832
0.10984751 -0.073313646 -0.06591128 0.11550087 0.11404673 -0.11157273 -0.09432453 0.0268085
0.114357024 -0.07825392 -0.0024800603 0.033054844 -0.08740628 -0.100219876 0.09010798 -0.03770165
0.11246093 0.041997284 -0.07350529 -0.0285872 0.06334898 -0.09888728 0.0843859 -0.02700295
0.06668703 -0.12192433 0.040816102 -0.0792705 -0.04273045 -0.056463838 -0.023662964 -0.031420045
-0.019912452 0.09816306 -0.11245405 -0.10500242 -0.08140354 -0.13061967 0.08679571 0.057156578
-0.12795186 -0.094629236 -0.02238473 0.056457452 -0.09982635 -0.07108053 -0.10831104 -0.12849395
-0.09542915 -0.12200211 0.080452144 -0.050077856 -0.040465776 0.020084068 -0.08418122 0.034478676
-0.08739903 0.024379387 0.11139671 -0.102827564 -0.06871192 0.122611225 -0.11027168 -0.09878527

layer.3.bias f4 [32]
00000000: 454b f0bd 98ed 94bd c9ac b63d 6e4c bcbd
00000010: 1d21 0b3d d632 2b3d 5646 8dbc 1686 573d
00000020: b68f a2bd 7a04 8abd 103c fb3d 4733 dfbc
00000030: 4db8 fd3c 9fdb 9bbd 7b6b 4dbc 0c96 09be
00000040: 6331 9f3d ebfa 983d 1bf6 b53d f3e6 89bc
00000050: 7816 c2bd 22b4 ac3d 1316 02be b9cb d8bd
00000060: 6700 023c 6e63 f2bd 6bcb 8fbd 3fc1 c33d
00000070: 4887 96bb da6b f1bd 2e5a d73d 9086 cb3c
-0.117331065 -0.0727188 0.08919675 -0.09194265 0.033967126 0.041796528 -0.017245453 0.05261811
-0.07937567 -0.06739135 0.122673154 -0.02724613 0.03097167 -0.07610249 -0.012537832 -0.13436145
0.07773092 0.07469734 0.088848315 -0.016833758 -0.09476942 0.08432795 -0.12703733 -0.10585732
0.007934666 -0.11835371 -0.07021221 0.09558343 -0.0045937635 -0.11788149 0.10515247 0.024844438

layer.6.weight f4 [1, 32]
00000000: c6b4 32be 30ef 5fbd 9162 dcbd 0a53 01bd
00000010: 9d83 e5bd 7da2 92bd fa90 1c3e d436 cc3d
00000020: 2c36 bfbc ddde ec39 f29e 523d 246c 0fbc
00000030: a222 b73d c3d4 143e a8cb 193e 48b5 14be
00000040: d941 613d e2a0 09be 9777 c03d b475 b13d
00000050: 0631 9c3d 43e2 4dbd 8055 e93d 877e 263e
00000060: 7f3f 4cbd d6b0 f4bd 7a0f b53d 64e2 16bd
00000070: b6a4 dbbc 04af 05be 4701 23be 0e8a 983c
-0.17451772 -0.054671466 -0.107609876 -0.031573333 -0.11206744 -0.071598984 0.15289679 0.09971395
-0.02334126 0.00045179474 0.051421113 -0.00875381 0.089421526 0.14534287 0.15019095 -0.14522278
0.054994438 -0.13440278 0.0939781 0.08665028 0.07626538 -0.050264608 0.11393261 0.16259204
-0.049865242 -0.11947791 0.088408425 -0.036836997 -0.026811939 -0.13055044 -0.15918456 0.018620517
