src/models/v1/pretrained_models/suzuka_model.pt (torch, 15465 bytes, 5 tensors)

layer.0.weight f4 [64, 12]
-0.24621412 0.28342697 -0.110216595 -0.083774276 -0.2020693 0.22196022 0.26768348 -0.040832456
0.08863026 0.28100252 0.12751964 0.18051666 -0.28000236 0.019406421 -0.13325648 -0.09856192
0.25856298 -0.19130844 -0.045950253 0.110611275 0.008385494 -0.25636634 0.1875062 -0.0390071
-0.19531986 0.19636494 0.11832482 -0.14008641 0.14216389 0.0055680876 0.14231798 0.25826716
0.10870721 -0.19512057 -0.07073411 -0.17416331 -0.17002143 -0.038471673 -0.25361192 -0.094202615
-0.18124744 -0.24446014 0.01507327 0.21518338 -0.07052943 -0.17701058 0.2272764 -0.2163802
0.2089771 -0.2835429 0.2243826 0.03452113 -0.21327269 -0.12854831 -0.027891902 0.13780656
0.2597307 0.077945806 -0.007253559 -0.112402424 0.20943992 0.14650393 -0.11650937 -0.030382726
-0.086892955 0.20857093 0.089192055 -0.11900086 -0.28159449 -0.28572336 -0.017826408 0.20693368
0.27874377 -0.23320904 -0.13664316 0.20419258 -0.17677823 -0.1480259 -0.19627917 -0.0633025
0.11212457 -0.008783348 -0.017484667 0.046748117 0.043199934 0.19156288 0.117153816 -0.07469283
0.24289878 0.12772901 -0.25266865 -0.10676362 -0.2610889 -0.17368005 0.17417581 0.023368698
0.13936289 -0.19268823 0.14497513 0.052866053 -0.14147063 -0.25926977 -0.150713 0.098919705
0.091632575 -0.117242485 -0.04860601 0.09409118 0.15338255 -0.2054543 -0.0620815 0.25994277
-0.07250655 0.046154797 0.017206417 0.0591536 0.22853556 -0.24303418 0.18179393 0.13256852
-0.03871693 -0.18689042 -0.012112155 -0.19666605 0.2189684 -0.06481378 0.26916894 -0.004466535
-0.061836526 0.22214925 0.25958872 -0.2131382 -0.22528893 -0.03741964 0.26743436 -8.0044076e-05
-0.19752114 -0.22938944 -0.17832643 0.21353336 -0.0026905958 0.05223915 0.2688801 -0.113217935
-0.075317204 0.196401 -0.19670442 0.08144935 -0.09894996 0.18718912 0.18956955 -0.03459697
0.21879941 -0.22763582 0.11845322 0.08498278 0.18368326 0.21492776 0.26437792 0.2727247
0.22027513 0.22092062 0.21693574 0.23425692 0.07570003 -0.09226411 0.22156817 -0.21026836
-0.03577165 -0.22609247 -0.12996453 -0.06880236 0.08196595 -0.04870988 0.2235141 0.042048294
-0.22316219 -0.11384074 -0.17783841 -0.093556345 -0.23690881 -0.06826262 0.08035255 0.024660628
0.2732019 -0.097774796 -0.1127078 0.24675076 0.1455629 -0.06437405 0.014875224 0.080667526
-0.15653689 -0.14990772 0.18239522 -0.13519351 0.08950507 0.2186514 -0.07110728 0.19840652
-0.19011094 0.032034975 0.16537611 -0.032692567 -0.0047705374 -0.19082521 -0.11545769 0.043504883
-0.10878471 -0.24655002 0.15206382 -0.09732478 0.08462045 0.28569314 0.17856935 0.063948266
-0.014843151 0.14361788 0.038860366 0.23990072 -0.251047 0.15374653 -0.076233104 0.18521087
0.07049047 0.2823519 0.2650832 0.25787133 0.041456543 -0.0171868 -0.110725805 -0.030589774
0.064984344 0.25401828 -0.04138992 0.25140798 -0.28318688 0.06380971 -0.070766196 -0.03136899
-0.23844855 0.27624613 0.28356907 0.104217455 0.034483027 0.2088704 0.096015275 0.28421235
-0.24121495 0.236581 0.14501725 -0.1895122 -0.13664539 0.026760805 -0.081227325 0.021274174
00000000: 8e1f 7cbe 571d 913e 3db9 e1bd d991 abbd
00000010: 41eb 4ebe 8a49 633e cf0d 893e ef3f 27bd
00000020: c883 b53d 90df 8f3e 8294 023e 5cd9 383e
00000030: 785c 8fbe 37fa 9e3c 6374 08be d5da c9bd
00000040: 5e62 843e 5ce6 43be 5536 3cbd 2a88 e23d
00000050: 5063 093c 7342 83be a001 403e e9c5 1fbd
00000060: ee01 48be e413 493e 4954 f23d d072 0fbe
00000070: 6993 113e 8174 b63b cebb 113e 983b 843e
00000080: e3a1 de3d b0cd 47be 0cdd 90bd de57 32be
00000090: 191a 2ebe 7994 1dbd 6cd9 81be 4ded c0bd
000000a0: ee98 39be c253 7abe e0f5 763c 0859 5c3e
000000b0: bc71 90bd 4342 35be 25bb 683e c592 5dbe
000000c0: 18fe 553e 892c 91be 8dc4 653e 0766 0d3d
000000d0: 2864 5abe 2ba2 03be 8f7d e4bc 2a1d 0d3e
000000e0: 6cfb 843e 0da2 9f3d 43af edbb 3e33 e6bd
000000f0: 6b77 563e 2005 163e 779c eebd 32e5 f8bc
00000100: eff4 b1bd 9e93 553e 53aa b63d b9b6 f3bd
00000110: 272d 90be 554a 92be b008 92bc 6ce6 533e
00000120: 81b7 8e3e 5ace 6ebe 2fec 0bbe dc17 513e
00000130: 5a05 35be 1a94 17be 68fd 48be bea4 81bd
00000140: 91a1 e53d 08e8 0fbc 013c 8fbc f47a 3f3d
00000150: 6af2 303d 0f29 443e 57ee ef3d 8ef8 98bd
00000160: 75ba 783e 65cb 023e c95d 81be e3a6 dabd
00000170: 72ad 85be 2fd9 31be 255b 323e b66f bf3c
00000180: 25b5 0e3e 1050 45be 5c74 143e 138a 583d
00000190: addd 10be 02bf 84be 8254 1abe 6a96 ca3d
000001a0: dca9 bb3d d41c f0bd 1817 47bd e0b2 c03d
000001b0: 5110 1d3e 9d62 52be 2c49 7ebd 3817 853e
000001c0: 507e 94bd d00c 3d3d 79f4 8c3c 0c4b 723d
000001d0: 3a05 6a3e f4dd 78be 3028 3a3e 0bc0 073e
000001e0: a595 1ebd 3460 3fbe 0f72 46bc d362 49be
000001f0: 4139 603e 16bd 84bd 83d0 893e 035c 92bb
00000200: 4c48 7dbd 187b 633e d0e8 843e e640 5abe
00000210: 24b2 66be 5645 19bd 28ed 883e 56dd a7b8
00000220: fb42 4abe 11e5 6abe 349b 36be 7da8 5a3e
00000230: b554 30bb b8f8 553d a7aa 893e cede e7bd
00000240: e83f 9abd 581d 493e e26c 49be ebce a63d
00000250: 47a6 cabd 81ae 3f3e 851e 423e 8db5 0dbd
00000260: f40c 603e 5d19 69be 9a97 f23d 740b ae3d
00000270: 7717 3c3e 0616 5c3e 8b5c 873e 92a2 8b3e
00000280: ce8f 613e 0439 623e 6724 5e3e 0ce1 6f3e
00000290: 9e08 9b3d f7f4 bcbd c4e2 623e 9750 57be
000002a0: 4b85 12bd c984 67be 6c15 05be 40e8 8cbd
000002b0: c4dd a73d 0384 47bd e1e0 643e d53a 2c3d
000002c0: a184 64be 5525 e9bd 461b 36be 789a bfbd
000002d0: 3998 72be 46cd 8bbd e18f a43d 1605 ca3c
000002e0: 1fe1 8b3e 273e c8bd 59d3 e6bd 3bac 7c3e
000002f0: 710e 153e 8bd6 83bd 36b7 733c 0435 a53d
00000300: 354b 20be 6981 19be d0c5 3a3e 2b70 0abe
00000310: 6f4e b73d 27e6 5f3e b2a0 91bd 142b 4b3e
00000320: 71ac 42be 1b37 033d 5b58 293e a4e8 05bd
00000330: 2b52 9cbb af67 43be 1575 ecbd 2d32 323d
00000340: 85ca debd 9c77 7cbe 9eb6 1b3e 3752 c7bd
00000350: 7d4d ad3d 5f46 923e e2da 363e 4ff7 823d
00000360: b030 73bc 9110 133e 0c2c 1f3d 89a8 753e
00000370: 3b89 80be bb6f 1d3e 1a20 9cbd eba7 3d3e
00000380: 4f5d 903d 6e90 903e fcb8 873e b607 843e
00000390: 56ce 293d 55cb 8cbc 36c4 e2bd 6897 fabc
000003a0: 8316 853d af0e 823e 7a88 29bd 8cb8 803e
000003b0: dffd 90be aaae 823d deed 90bd c57c 00bd
000003c0: db2b 74be 2270 8d3e f72f 913e f66f d53d
000003d0: 133e 0d3d 1fe2 553e a8a3 c43d 4884 913e
000003e0: 0d01 77be 4a42 723e 677f 143e 7c0f 42be
000003f0: c5ec 0bbe 7a39 db3c 835a a6bd 2d47 ae3c

layer.0.bias f4 [64]
-0.27655444 0.07130719 -0.034020245 0.25446138 0.20538945 -0.0014528149 0.06337069 -0.03807323
-0.11980447 -0.21065675 -0.19637054 -0.23517857 -0.21432857 -0.19655468 0.28188542 -0.13015613
-0.0110765025 -0.22811842 0.12000303 -0.06582484 -0.067736626 -0.069137566 -0.015372265 0.28331593
-0.14410116 0.1560559 -0.03397238 -0.23158099 0.116812386 -0.07846277 0.2689252 -0.16786905
0.2121703 -0.24682194 -0.25615588 -0.1464273 0.09796176 -0.0029566754 -0.028454429 0.22204022
-0.02375664 0.054039765 0.20058197 -0.09723323 0.26631844 0.008385494 0.21295133 -0.23519413
0.015618574 -0.19496289 -0.075284205 0.20631559 -0.11244427 0.038470432 0.20977348 -0.103464164
0.04453097 0.16282937 -0.08148383 -0.25732768 0.21576224 -0.2567628 0.21453841 -0.17135344
00000000: 8b98 8dbe 8109 923d d058 0bbd c348 823e
00000010: 9d51 523e 616c beba 7ec8 813d adf2 1bbd
00000020: 0c5c f5bd 67b6 57be 5c15 49be a7d2 70be
00000030: f378 5bbe a145 49be 4953 903e a647 05be
00000040: 387a 35bc e097 69be 26c4 f53d 2ccf 86bd
00000050: 80b9 8abd ff97 8dbd f4db 7bbc c90e 913e
00000060: 418f 13be 1ecd 1f3e 9f26 0bbd 9123 6dbe
00000070: 553b ef3d 17b1 a0bd 90b0 893e dde5 2bbe
00000080: 2c43 593e e4be 7cbe dd26 83be 0af1 15be
00000090: 2da0 c83d c8c4 41bb 4319 e9bc 835e 633e
000000a0: 499d c2bc cd58 5d3d 5c65 4d3e 3722 c7bd
000000b0: e45a 883e 5063 093c ea0f 5a3e bbd6 70be
000000c0: 0ce5 7f3c 5aa4 47be 9b2e 9abd 6544 533e
000000d0: 2e49 e6bd 2c93 1d3d dcce 563e 05e5 d3bd
000000e0: 1b66 363d bebc 263e ffe0 a6bd 74c0 83be
000000f0: c7f0 5c3e 6a76 83be f5af 5b3e 4777 2fbe

layer.3.weight f4 [32, 64]
0.04193969 -0.04207489 -0.09126863 0.09538704 -0.11562032 0.011136514 -0.023091163 0.011183953
-0.09693573 -0.09652061 -0.09256317 -0.058245227 -0.042841837 -0.010192096 -0.043208465 -0.03103745
0.062357083 -0.10425255 -0.08348358 -0.0042926776 -0.10432981 0.08600263 0.10914744 0.06809005
0.045590974 -0.050688222 -0.04023619 -0.08723147 -0.1079144 -0.061935157 0.084374756 0.01663807
0.11506988 -0.047484122 0.00042000413 0.06781096 -0.0058756312 0.09987171 0.07775283 -0.11694048
-0.0075030327 0.059120983 -0.0066525564 -0.0028591936 -0.024231775 -0.10516067 -0.09921268 -0.029477552
0.09652987 0.08346948 -0.004232526 0.106167704 -0.05147887 -0.07221489 0.08193993 -0.11032995
0.11330037 0.046521872 0.11797212 0.06530346 0.043308422 -0.110857934 0.014221359 -0.09190137
-0.014577329 0.031028852 0.111723244 0.10606855 -0.09328302 0.041239474 0.09292442 0.008691202
0.10842936 -0.007597718 -0.02286622 -0.07833722 -0.034743607 -0.12738775 0.055450395 0.0660924
-0.07721779 0.08976881 -0.01671648 0.047285836 0.07201782 0.05059871 0.037248183 0.042080134
0.09034171 -0.041024685 -0.055008948 -0.0028550625 -0.065523654 -0.058311358 -0.098552465 -0.08486375
0.03597395 0.004134218 0.08354339 0.086056694 0.0779983 -0.00028793514 0.11532259 -0.09324135
0.056675985 -0.08287969 -0.022630773 0.008559613 -1.77448e-05 0.09538226 -0.051204324 0.09737192
0.0013901293 -0.032754377 0.09756972 0.06679098 -0.110690884 -0.09812181 0.08003462 -0.09077378
-0.03166674 0.020851359 -0.07645945 0.07743736 0.11257368 0.07893893 0.01124244 0.0055759517
-0.05196014 0.09989594 -0.11195418 -0.04414694 -0.10591602 0.028133666 0.08336187 0.10688889
0.08388635 0.10163985 -0.09961863 -0.06980939 0.026447013 0.020510968 -0.04423046 0.023411885
-0.041123927 -0.09795727 -0.07118848 -0.04149906 -0.11989334 -0.10475454 -0.10446003 0.11340441
0.048898153 0.122035116 -0.08537063 0.011925027 0.030227363 -0.054616854 -0.091573715 0.09710817
-0.0049522817 0.061252635 -0.116343245 -0.07778261 -0.008742744 0.09653328 0.07893391 -0.0929205
-0.117396906 0.11658688 0.067152545 -0.12043968 -0.055944443 0.06141454 -0.05530438 -0.12220599
0.114553496 -0.04042487 0.11608517 -0.07581877 0.08800912 0.049986128 -0.015643425 -0.08594601
0.04509999 0.012879804 -0.061627924 -0.027105615 -0.12428832 -0.0037305176 0.076592654 -0.07159382
-0.0063879937 -0.04817806 0.12442729 0.0048671514 0.052157532 0.07522592 -0.007784746 -0.04468154
-0.11988946 -0.10987842 0.00763683 -0.07352938 0.08605306 0.08009475 -0.08969125 -0.04854636
-0.0057621 0.025181442 0.010825664 0.1042216 0.057312652 0.039707974 0.050400726 -0.03796786
0.071025334 -0.037844524 -0.07898156 -0.02946046 -0.023312777 0.034433857 -0.007772545 0.045007855
0.06346694 -0.10762404 0.09485628 0.07820874 -0.10370535 -0.07387613 0.025363863 0.0717473
0.04671949 0.10807127 0.011187074 -0.08272386 -0.009428702 -0.06999339 -0.02818361 -0.0067596585
0.08954948 0.083657965 0.09134053 0.035854526 0.1093946 0.090652175 -0.05369389 0.08221578
-0.05108127 -0.03732893 -0.08783935 -0.018657194 -0.06855075 -0.0055825193 0.051020075 0.10160319
00000000: f4c8 2b3d b856 2cbd 0ceb babd 485a c33d
00000010: 59ca ecbd ed75 363c ae29 bdbc e63c 373c
00000020: 3d86 c6bd 99ac c5bd c291 bdbd 8c92 6ebd
00000030: ec7a 2fbd c0fc 26bc 5cfb 30bd 4042 febc
00000040: 246a 7f3d 5c82 d5bd 70f9 aabd 97a9 8cbb
00000050: deaa d5bd 2622 b03d b188 df3d cc72 8b3d
00000060: 9abd 3a3d 749e 4fbd b4ce 24bd 6aa6 b2bd
00000070: 3a02 ddbd b8af 7dbd accc ac3d 904c 883c
00000080: c2a9 eb3d b67e 42bd 0034 dc39 79e0 8a3d
00000090: 5e88 c0bb 8a89 cc3d e03c 9f3d 7e7e efbd
000000a0: 00dc f5bb d828 723d b0fd d9bb 4f61 3bbb
000000b0: b781 c6bc 7a5e d7bd 0430 cbbd e87a f1bc
000000c0: 74b1 c53d 0cf2 aa3d 00b1 8abb 746e d93d
000000d0: 82db 52bd 66e5 93bd 1fd0 a73d abf4 e1bd
000000e0: 060a e83d b88d 3e3d 5e9b f13d d2bd 853d
000000f0: 2c64 313d 7c09 e3bd b400 693c c936 bcbd
00000100: c0d5 6ebc 3830 fe3c 28cf e43d 783a d93d
00000110: 2b0b bfbd b9ea 283d 294f be3d 8b65 0e3c
00000120: 3610 de3d 47f6 f8bb f051 bbbc 446f a0bd
00000130: 504f 0ebd ef71 02be f41f 633d 745b 873d
00000140: 5c24 9ebd b6d8 b73d 00f1 88bc cbae 413d
00000150: 147e 933d 9840 4f3d 8d91 183d 385c 2c3d
00000160: 1305 b93d 8009 28bd 1051 61bd 001c 3bbb
00000170: 4431 86bd e4d7 6ebd e0d5 c9bd 0ccd adbd
00000180: 6c59 133d 5678 873b cc18 ab3d 7e3e b03d
00000190: 93bd 9f3d 00f6 96b9 402e ec3d 52f5 bebd
000001a0: 1425 683d d4bc a9bd 2c64 b9bc 9e3d 0c3c
000001b0: abda 94b7 c657 c33d a0bb 51bd ee6a c73d
000001c0: 0035 b63a 7429 06bd a2d2 c73d b6c9 883d
000001d0: e7b1 e2bd 16f4 c8bd 31e9 a33d 9be7 b9bd
000001e0: fcb4 01bd 78d0 aa3c c696 9cbd 7b97 9e3d
000001f0: 088d e63d bcaa a13d 3632 383c 79b6 b63b
00000200: 28d4 54bd 3e96 cc3d 3c48 e5bd 6cd3 34bd
00000210: 80ea d8bd 9378 e63c a1b9 aa3d 90e8 da3d
00000220: 9bcc ab3d 8e28 d03d da04 ccbd 3af8 8ebd
00000230: 68a7 d83c 9e06 a83c 002b 35bd 48ca bf3c
00000240: 9071 28bd d29d c8bd 44cb 91bd ebfa 29bd
00000250: a48a f5bd 8c89 d6bd 24ef d5bd 9240 e83d
00000260: 6e49 483d 8ced f93d ccd6 aebd 3061 433c
00000270: 609f f73c ecb5 5fbd 008b bbbd a6e0 c63d
00000280: c046 a2bb 0be4 7a3d 5e45 eebd 7d4c 9fbd
00000290: ba3d 0fbc 3eb3 c53d 1aa8 a13d 1a4d bebd
000002a0: ca6d f0bd 1ac5 ee3d 4687 893d 14a9 f6bd
000002b0: 0026 65bd d08d 7b3d d886 62bd 2247 fabd
000002c0: 069b ea3d 8c94 25bd 10be ed3d df46 9bbd
000002d0: 203e b43d 41be 4c3d a426 80bc 7604 b0bd
000002e0: c4ba 383d d005 533c 906d 7cbd 980c debc
000002f0: e08a febd b37b 74bb 9cdc 9c3d c89f 92bd
00000300: 6052 d1bb 5c56 45bd bcd3 fe3d a07c 9f3b
00000310: 23a3 553d 0c10 9a3d 2f17 ffbb fe03 37bd
00000320: 9b88 f5bd f007 e1bd 603e fa3b 9296 96bd
00000330: 963c b03d b708 a43d 0cb0 b7bd 8cd8 46bd
00000340: 00d0 bcbb 5049 ce3c 205e 313c 2272 d53d
00000350: acc0 6a3d d4a4 223d fe70 4e3d 3084 1bbd
00000360: bb75 913d dc02 1bbd 16c1 a1bd 1057 f1bc
00000370: 70fa bebc 840a 0d3d d5b0 febb 285a 383d
00000380: f4fa 813d fe69 dcbd 0244 c23d e72b a03d
00000390: 7863 d4bd 5e4c 97bd e0c7 cf3c 40f0 923d
000003a0: f05c 3f3d 7854 dd3d fd49 373c 216b a9bd
000003b0: d87a 1abc b258 8fbd 50e1 e6bc 2080 ddbb
000003c0: b865 b73d de54 ab3d be10 bb3d 32dc 123d
000003d0: 470a e03d d9a7 b93d 20ee 5bbd bf60 a83d
000003e0: 983a 51bd 38e6 18bd 1ee5 b3bd f9d6 98bc
000003f0: 5664 8cbd 91ed b6bb 6dfa 503d 5515 d03d

layer.3.bias f4 [32]
0.036884896 0.055983976 0.0729532 -0.123191446 0.06541213 0.06600291 -0.011508998 0.02926204
-0.05066564 -0.07372242 -0.07794369 -0.10879357 0.090458184 0.014317014 0.05604834 -0.11205035
-0.09104637 0.040487666 0.008900214 0.019898891 0.00890635 -0.06980378 0.010721228 0.10923828
-0.10366696 0.05259022 0.004052345 -0.07002345 -0.035794858 0.061722916 -0.004214453 -0.03009916
00000000: 9e14 173d 744f 653d 7d68 953d cc4b fcbd
00000010: cbf6 853d 892c 873d 3d90 3cbc f2b6 ef3c
00000020: c686 4fbd c8fb 96bd f1a0 9fbd 2acf debd
00000030: 2442 b93d e991 6a3c f292 653d a77a e5bd
00000040: 8576 babd 65d6 253d 34d2 113c 0003 a33c
00000050: f0eb 113c 49f5 8ebd 17a8 2f3c 52b8 df3d
00000060: 584f d4bd d868 573d 89c9 843b 7468 8fbd
00000070: a19d 12bd 2bd1 7c3d 6519 8abb 8392 f6bc

layer.6.weight f4 [1, 32]
-0.06653904 -0.16493562 0.13055971 -0.15958458 -0.0116692865 -0.110347964 0.041443292 0.16210163
-0.046709888 -0.046441104 -0.02290378 0.1706847 -0.016922025 0.14788127 0.13060541 0.049010254
0.022619067 -0.11217948 0.17134292 -0.113274455 -0.111846186 0.12743083 0.033119824 -0.14835563
-0.13541098 0.09734134 -0.093005106 -0.036195338 -0.09106882 -0.15901281 -0.032997098 0.1616942
00000000: 9f45 88bd e2e4 28be 72b1 053e 246a 23be
00000010: 8930 3fbc 1dfe e1bd 71c0 293d f8fd 253e
00000020: de52 3fbd 0739 3ebd b5a0 bbbc f8c7 2e3e
00000030: 0fa0 8abc 306e 173e 6dbd 053e fabe 483d
00000040: 9f4b b93c 5bbe e5bd 8574 2f3e 70fc e7bd
00000050: 9d0f e5bd 3a7d 023e a7a8 073d 8aea 17be
00000060: 2da9 0abe e55a c73d 7679 bebd 9041 14bd
00000070: 4a82 babd 41d4 22be f727 07bd 2a93 253e
