src/models/v2/pretrained_models/baku_model_v2.pt (torch, 54383 bytes, 7 tensors)

layer.0.weight f4 [128, 16]
0	0xbe478e0a	-0.19487777
1	0xbdb38749	-0.08766038
2	0xbe5e2982	-0.21695521
3	0xbe3e5fb7	-0.185912
4	0x3c280981	0.010256172
5	0x3ca31dd5	0.019911686
6	0x3dbf9f27	0.09356528
7	0x3d92e69d	0.07172892
8	0x3d2bd602	0.04195214
9	0xbe4690c7	-0.19391166
10	0xbdfc7bd3	-0.12328305
11	0x3d50aef6	0.050948106
12	0x3e5e6de5	0.21721609
13	0x3e5a0b92	0.21293476
14	0xbc27eb9d	-0.010249046
15	0x3e1b8c0d	0.15190144
16	0xbe033070	-0.12811446
17	0xbda8c0ac	-0.08239874
18	0xbe7aa151	-0.244756
19	0xbe67fb83	-0.22654538
20	0x3d9dd168	0.07705957
21	0xbe116f67	-0.14202653
22	0xbd36e3f4	-0.044650987
23	0x3e4a8ce9	0.19780315
24	0x3d455c2d	0.04818361
25	0x3e5228f5	0.20523436
26	0x3e1c60f5	0.15271361
27	0xbd37b48d	-0.04484992
28	0x3da772a0	0.0817616
29	0x3d8de1b7	0.06927817
30	0x3d0624e5	0.03275003
31	0xbd68c1b5	-0.05682536
32	0x3d98fe28	0.074703515
33	0xbe117e91	-0.14208438
34	0xbe458d9b	-0.192923
35	0x3d3e49b0	0.046456993
36	0x3d8e73b1	0.0695566
37	0xbe38ac58	-0.18034494
38	0x3de01066	0.10940628
39	0x3e309abf	0.17246531
40	0x3c8a5171	0.016884537
41	0x3e27ceab	0.16387431
42	0x3d81d44a	0.06339319
43	0xbe0aaf9e	-0.13543555
44	0x3e5082d5	0.20362408
45	0xbe46eec0	-0.19427013
46	0xbddfe0a8	-0.10931522
47	0x3e5447b6	0.2073048
48	0x3db43e60	0.088009596
49	0x3e149f85	0.14513977
50	0xbd33c4d5	-0.043888886
51	0xbe534a86	-0.20633897
52	0xbd45aeb2	-0.048262306
53	0xbe083d28	-0.1330458
54	0xbda7535e	-0.08170198
55	0x3d98af85	0.07455353
56	0x3d9b27a6	0.07575922
57	0x3dc12736	0.09431307
58	0x3b96224c	0.004581725
59	0x3d5cf1b0	0.05394143
60	0x3e0c9d4b	0.13731878
61	0x3d858f29	0.06521446
62	0xbe12bed0	-0.14330602
63	0xb856854b	-5.1145715e-05
64	0x3e38e94c	0.18057746
65	0xbd0acfa6	-0.033889435
66	0x3e55bba1	0.20872356
67	0x3ba8a2af	0.0051463465
68	0xbc06d2ac	-0.008228939
69	0x3de55bc4	0.111991435
70	0xbe0fb967	-0.14035569
71	0x3ddade06	0.10686879
72	0xbe17fa4a	-0.14841571
73	0x3e62a2ef	0.22132467
74	0xbdcb558d	-0.09928427
75	0xbe1f776e	-0.15572903
76	0x3e051c74	0.12999135
77	0x3e57f384	0.21088988
78	0x3d856ead	0.0651525
79	0xbdb3c345	-0.08777479
80	0x3d9c04e8	0.07618123
81	0x3e676cfd	0.2260017
82	0xbe5a373b	-0.21310131
83	0x3da741d3	0.08166852
84	0x3e353d03	0.17699055
85	0xbd8c9688	-0.06864649
86	0x3e00ac62	0.12565759
87	0x3ca41066	0.02002735
88	0xbe06620d	-0.13123341
89	0x3e2d7481	0.16938974
90	0x3d3c1cb7	0.045925822
91	0x3e3ec0de	0.1862826
92	0x3e286443	0.16444497
93	0x3e799b3c	0.24375623
94	0xbd8be043	-0.06829884
95	0x3d67d8be	0.056603186
96	0xbdfca8c0	-0.12336874
97	0x3e3fbb98	0.18723905
98	0xbe6b0650	-0.22951627
99	0xbe779e35	-0.24181445
100	0xbe55ea86	-0.20890245
101	0x3e2fe71a	0.17178002
102	0x3d895d22	0.06707217
103	0xbda5a681	-0.08088399
104	0x3ded1b76	0.115775034
105	0x3d29c237	0.041444983
106	0x3e301cdb	0.17198507
107	0xbe7f0ff4	-0.2490843
108	0xbc318a16	-0.010836145
109	0x3dc8d5c8	0.098064005
110	0xbd3a35d5	-0.045461494
111	0xbe181fde	-0.14855906
112	0x3e5fce76	0.21856102
113	0x3e6db97b	0.23215286
114	0x3e6d91a1	0.23200084
115	0xbe74d308	-0.23908627
116	0xbe2f5f88	-0.17126286
117	0xbe486b66	-0.19572219
118	0xbe3f6f84	-0.18694884
119	0x3d8c8e3f	0.06863069
120	0x3e4c48a0	0.19949579
121	0xbe3b9313	-0.18317823
122	0xbd089fc9	-0.033355508
123	0x3db2eaeb	0.08736213
124	0x3e31c93d	0.17361923
125	0x3e0ab30a	0.1354486
126	0xbd974917	-0.07386988
127	0xbe68eb8d	-0.22746105
128	0xbdf862cc	-0.12128219
129	0x3de12da2	0.10995032
130	0x3e0f4fc4	0.13995272
131	0x3ddcf521	0.10788942
132	0x3d81e950	0.06343329
133	0x3e4d0ac5	0.2002364
134	0xbdd25738	-0.10270542
135	0x3d81248d	0.063058
136	0x3e807a76	0.2509343
137	0x3cbb522d	0.022866333
138	0x3e557772	0.20846346
139	0xbaa776bc	-0.0012776474
140	0xbe49938d	-0.19685192
141	0x3e1a21c6	0.15051946
142	0x3e634eb1	0.22197987
143	0x3e24d0c0	0.16095257
144	0x3deb0324	0.114752084
145	0xbdf93b13	-0.12169471
146	0x3e69e198	0.22839963
147	0x3e63c998	0.2224487
148	0xbe20ad84	-0.15691191
149	0x3e1366e1	0.14394714
150	0x3e61b7f1	0.22042824
151	0x3d976182	0.07391645
152	0x3db784a1	0.08960844
153	0x3e009f99	0.12560882
154	0x3e0f04b5	0.1396664
155	0xbdc4a18f	-0.09601127
156	0xbdef6378	-0.11688894
157	0x3de51e02	0.11187364
158	0xbe16bf19	-0.14721335
159	0xbe5ef16b	-0.21771781
160	0xbcd18a90	-0.025578767
161	0xbdd962da	-0.106145576
162	0x3e549e60	0.2076354
163	0x3d294a10	0.041330397
164	0xbd00dcbb	-0.031460505
165	0xbd03553a	-0.0320637
166	0xbdac1925	-0.084032334
167	0x3e40f75d	0.18844362
168	0xbcb517cf	-0.02210608
169	0xbdc2a688	-0.095044196
170	0xbe4ae6f2	-0.19814661
171	0x3e1d13a6	0.15339527
172	0xbc79998a	-0.0152343605
173	0xbdfefd6c	-0.1245068
174	0x3e6c711d	0.23090024
175	0x3b2a42a9	0.0025979674
176	0xbba84c80	-0.0051360726
177	0xbda74f44	-0.081694156
178	0xbe5eb913	-0.21750288
179	0x3d263356	0.0405763
180	0xbdd4799f	-0.1037476
181	0xbd84d0bc	-0.064851254
182	0x3dd0b151	0.101900704
183	0xbc382f79	-0.011241787
184	0x3e07c1f0	0.13257575
185	0x3de2abd9	0.110679336
186	0xbe418427	-0.18898068
187	0x3dae5938	0.08513111
188	0xbe6d5d4f	-0.23180126
189	0xbe4564ef	-0.19276784
190	0xbd36be6e	-0.0446152
191	0x3dacebf4	0.08443442
192	0xbbb544c0	-0.0055318773
193	0x3e1065f9	0.141014
194	0xbe606586	-0.21913728
195	0x3c586858	0.013208471
196	0xbca41b31	-0.020032497
197	0xbd49c502	-0.049260147
198	0xbdf14a42	-0.11781742
199	0xbe2b78f4	-0.16745359
200	0x3e0a1cc0	0.1348753
201	0x3e518ea0	0.20464563
202	0xbbba24f9	-0.005680677
203	0xbde1d504	-0.11026958
204	0xbe6e8a5b	-0.23294966
205	0x3e075db9	0.13219346
206	0xbdcf9d68	-0.10137445
207	0xbdc0d0e9	-0.094148465
208	0x3b4cd200	0.00312531
209	0xbd928045	-0.07153372
210	0xbe63b56a	-0.22237173
211	0x3dacd09a	0.08438225
212	0xbddc3182	-0.1075163
213	0x3df172f6	0.11789505
214	0x3e8abacf	0.2709565
215	0x3e519a49	0.20469011
216	0x3e3ec8b5	0.18631251
217	0x3e2dc58d	0.16969891
218	0x3dd99e10	0.10625851
219	0x3e4fc660	0.20290518
220	0xbd90ae5a	-0.07064505
221	0x3e5f7df9	0.21825399
222	0xbe02ade1	-0.12761642
223	0xbe45df44	-0.1932345
224	0xbdad6324	-0.08466175
225	0xbdd5bc59	-0.10436315
226	0x3e621e83	0.22081952
227	0xbd3842cb	-0.044985574
228	0xbd840481	-0.064461716
229	0xbe35ee44	-0.17766672
230	0x3e2769dc	0.16348976
231	0xbe8bbb13	-0.27291164
232	0xbb9bb9cd	-0.004752374
233	0x3e53eda5	0.20696123
234	0x3e1246ef	0.14284872
235	0x3d4535a8	0.048146874
236	0x3d6767d9	0.05649552
237	0xbc951ed2	-0.018203173
238	0xbe31b02e	-0.17352363
239	0x3ccfa78a	0.025348444
240	0xbc905aa0	-0.017621338
241	0xbe24ce44	-0.16094309
242	0xbde03fa5	-0.10949639
243	0x3df416f1	0.11918438
244	0xbe571c5c	-0.21006912
245	0x3d36b44b	0.044605535
246	0xbe024767	-0.1272255
247	0x3e4e1cab	0.20128123
248	0x3da4d44a	0.080483034
249	0x3e62edc5	0.22161014
250	0xbdcecd20	-0.10097718
251	0x3e1ddf47	0.15417205
252	0xbde906cb	-0.11378249
253	0xbe49d807	-0.19711314
254	0xbe3cbaa5	-0.18430574
255	0xbdcdbc1f	-0.10045647

layer.0.bias f4 [128]
0	0xbe5c5578	-0.21516979
1	0xbe143cb6	-0.14476284
2	0xbdb32ad8	-0.08748406
3	0xbe28afcc	-0.16473311
4	0x3e44fefe	0.19237897
5	0x3c063400	0.008191109
6	0xbe3d3a82	-0.1847935
7	0x3d5b56f0	0.053549707
8	0xbd8173c4	-0.06320909
9	0x3e04df86	0.12975892
10	0x3e02c3ee	0.12770054
11	0x3e58ed76	0.21184334
12	0xbdb2a1a4	-0.08722237
13	0xbd174a10	-0.036935866
14	0x3d203700	0.039114952
15	0x3b06f900	0.0020595193
16	0x3de7a704	0.113111526
17	0xbe2b0880	-0.16702461
18	0xbdf4a310	-0.11945164
19	0xbe162052	-0.14660767
20	0x3e5ffb38	0.21873176
21	0xbe499d90	-0.19689012
22	0x3e4159cc	0.18881911
23	0xbe282c4a	-0.16423145
24	0xbe6aa988	-0.22916234
25	0xbddfed10	-0.10933888
26	0x3d2cee90	0.0422197
27	0x3e6b66ea	0.22988477
28	0xbe265270	-0.16242385
29	0xbd9763fc	-0.073921174
30	0x3d5e20b8	0.05423042
31	0xbdc65e10	-0.0968591
32	0x3d6710c8	0.05641249
33	0x3e71fea0	0.23632288
34	0xbe4724fc	-0.19447702
35	0xbde7d114	-0.11319175
36	0x3ddf4668	0.10902101
37	0xbe0a953e	-0.13533494
38	0xbe3dfd90	-0.18553758
39	0xbe5a02d4	-0.21290141
40	0xbe6e1e40	-0.23253727
41	0x3c4872a0	0.01223436
42	0x3d046008	0.032318145
43	0x3d75bff8	0.05999753
44	0xbcb964b0	-0.02263102
45	0x3d240b10	0.040049613
46	0xbe4dacfa	-0.20085517
47	0xbc0a04a0	-0.008423954
48	0xbdb781c4	-0.08960298
49	0xbe5a3f00	-0.21313095
50	0x3e51f68a	0.20504203
51	0x3d859404	0.06522372
52	0x3d67d970	0.05660385
53	0xbe578264	-0.21045834
54	0xbaa84100	-0.0012836754
55	0x3df48ca8	0.119408906
56	0x3de4a330	0.11163938
57	0xbe60a804	-0.21939093
58	0x3e7a3568	0.24434435
59	0xbdad8d14	-0.08474174
60	0x3cd5b6e0	0.026088178
61	0xbd738e08	-0.059461623
62	0x3da4b8d8	0.08043069
63	0x3e60fa68	0.21970522
64	0xbe638e60	-0.2222228
65	0x3e0d7516	0.13814196
66	0xbb33f180	-0.0027457178
67	0xbc45c620	-0.012071162
68	0x3e566956	0.2093862
69	0x3c260b40	0.010134518
70	0x3e4606ba	0.19338503
71	0xbdccaafc	-0.0999355
72	0x3ccb0dc0	0.02478683
73	0xbe1a4df4	-0.150688
74	0x3cc89bc0	0.02448833
75	0x3be8ccc0	0.007104486
76	0xbe3715d6	-0.17879423
77	0xbca12390	-0.019670278
78	0x3e27785c	0.16354507
79	0x3e77d3b2	0.24201849
80	0x3e5d6e9a	0.21624222
81	0xbde16d30	-0.11007154
82	0x3e218712	0.15774181
83	0x3d00a7f0	0.031410158
84	0x3e7936da	0.2433733
85	0x3e0f56e2	0.13997987
86	0xbe723ac6	-0.23655233
87	0x3cc91b00	0.024549007
88	0x3e5377bc	0.20651144
89	0x3e3848a4	0.1799646
90	0xbdcbc710	-0.099500775
91	0xbdd46150	-0.103701234
92	0xbde941c0	-0.11389494
93	0x3d255228	0.040361553
94	0x3c399e40	0.011329234
95	0xbd808ff0	-0.06277454
96	0xbdb2b330	-0.087255836
97	0x3e7f01be	0.24903008
98	0xbd11ac38	-0.03556463
99	0xbd7ba148	-0.061433107
100	0x3cf15aa0	0.029462159
101	0x3dd37658	0.10325307
102	0xbe0b4d3a	-0.13603678
103	0x3e56bfba	0.20971575
104	0x3da913ec	0.08255753
105	0x3da75840	0.08171129
106	0x3e0af5f0	0.1357038
107	0xbe610d74	-0.21977788
108	0xbd10b278	-0.03532645
109	0xbd659a68	-0.056055456
110	0x3d993ea4	0.07482651
111	0x3e44c7c4	0.1921683
112	0x3e01902c	0.12652653
113	0x3d124978	0.035714597
114	0xbe21709a	-0.1576561
115	0xbe2546e2	-0.16140321
116	0x3e266152	0.16248062
117	0x3e4c8f32	0.199765
118	0xbdd905d4	-0.10596815
119	0x3e61ee5c	0.22063583
120	0x3e2d64c6	0.16932973
121	0xbe30e37e	-0.17274281
122	0x3d877244	0.06613591
123	0x3e3bccf8	0.18339908
124	0xbd751b80	-0.05984068
125	0xbdb37568	-0.08762628
126	0x3d5b7bd8	0.053584903
127	0xbd5bf410	-0.053699553

layer.1.weight f4 [64, 128]
0	0xbcf6a9c4	-0.030110247
1	0x3d5933b4	0.053027824
2	0xbd5cb850	-0.05388671
3	0x3c135520	0.008992463
4	0x3ba9631a	0.0051692845
5	0xbd9a6f72	-0.07540788
6	0xbc397eca	-0.011321733
7	0x3d9cfe8c	0.076657385
8	0x3db1a25d	0.086735465
9	0xbdab6691	-0.08369172
10	0x3d1d6f13	0.038436007
11	0xbd36df26	-0.044646405
12	0x3c7637b0	0.015027925
13	0x3d959562	0.07303883
14	0xbcfaccc6	-0.030615222
15	0xbcba30f3	-0.022728419
16	0xbd098675	-0.033575494
17	0x3d7a27df	0.06107318
18	0xbd972c13	-0.07381453
19	0xbc82a614	-0.015948333
20	0xbcc7da5c	-0.024396114
21	0xbd4a0068	-0.049316794
22	0x3c9692d0	0.018380553
23	0xbcec5107	-0.02884723
24	0xbd85e397	-0.0653755
25	0xbb0c1451	-0.0021374414
26	0x3d4de5c7	0.05026796
27	0xbd5e7fa3	-0.054320943
28	0x3d79e86e	0.061012678
29	0x3c14017a	0.009033555
30	0x3d9b2597	0.07575529
31	0x3d1e94f7	0.038716283
32	0x3d99e128	0.07513648
33	0x3cfd9331	0.030953975
34	0x3daf9e1e	0.0857508
35	0x3d1a4c21	0.03767026
36	0x3db6caca	0.08925398
37	0xbc87c739	-0.016574489
38	0x3d503fc4	0.05084206
39	0xbd69f22c	-0.05711572
40	0x3d4ccc65	0.049999613
41	0x3cc6b299	0.024255084
42	0xbc3a2426	-0.0113611575
43	0x3da51648	0.080608904
44	0x3d83d9cb	0.06438025
45	0xbd392a1b	-0.04520617
46	0x3db7df13	0.08978095
47	0xbd4683de	-0.048465602
48	0x3c29581b	0.010335947
49	0x3bf4da89	0.0074723405
50	0x3db7f236	0.08981745
51	0x3d4ea9ac	0.05045478
52	0xbd2d055f	-0.04224145
53	0xbdb30981	-0.08742047
54	0x3c0e92e0	0.00870201
55	0x3d9169d6	0.07100265
56	0xbdb4fc6e	-0.0883721
57	0x3d11c62f	0.035589393
58	0xbd9b1b8a	-0.07573612
59	0xbd1a265a	-0.03763423
60	0xbd28b08b	-0.04118399
61	0xbca84009	-0.020538347
62	0xbd857498	-0.06516379
63	0xbda19ddb	-0.07891437
64	0x3d383129	0.044968758
65	0xbd8da86d	-0.0691689
66	0x3c62587d	0.013815043
67	0x3dade628	0.084911644
68	0x3d590a14	0.052988127
69	0x3d579d42	0.052640207
70	0x3cb4814e	0.022034314
71	0xbce68912	-0.028141532
72	0x3d81b186	0.06332688
73	0x3d03a55d	0.032140125
74	0xbda7668d	-0.08173857
75	0x3d3c1369	0.04591695
76	0xbd78b1ad	-0.06071632
77	0xbca097d1	-0.019603642
78	0x3d95e30f	0.073186986
79	0x3da22382	0.07916929
80	0xbd09ff79	-0.033690903
81	0xbda8cd15	-0.08242241
82	0x3d2b9603	0.04189111
83	0xbd874d58	-0.06606549
84	0xbd17fcf3	-0.037106466
85	0x3be983f0	0.007126324
86	0x3c74f6cc	0.014951419
87	0xbd964977	-0.07338231
88	0xbdb4f4f1	-0.08835781
89	0xbd3e1107	-0.046402957
90	0xbd60ca7f	-0.054880615
91	0x3bb2768f	0.005446262
92	0x3d1ecda1	0.03877032
93	0xbd322c13	-0.043499064
94	0xbdaf1c2d	-0.08550296
95	0x3bb3136f	0.005464963
96	0xbbb169fd	-0.005414246
97	0x3da68b62	0.08132054
98	0xbd986222	-0.07440592
99	0x3d239a85	0.039942283
100	0xbd06a4aa	-0.03287188
101	0x3dabb901	0.08384896
102	0xbb1f2892	-0.0024285656
103	0x3dab7784	0.08372405
104	0x3d18d7cd	0.03731518
105	0xbc4b2d6a	-0.012400964
106	0x3d52b13d	0.05143856
107	0xbd351435	-0.044208724
108	0x3dae7836	0.08519022
109	0x3d1b3e57	0.03790125
110	0x3b8ae4cc	0.0042387005
111	0xbd0907fa	-0.033454873
112	0x3b439482	0.0029843156
113	0x3cdffeda	0.027343202
114	0xbd45c779	-0.048285935
115	0xbb08faec	-0.0020901514
116	0xbda4b989	-0.080432005
117	0xbd31e9ec	-0.043435976
118	0x3ab5f327	0.0013881669
119	0x3da75108	0.08169752
120	0x3d5d9c07	0.054103877
121	0x3d0d8801	0.03455353
122	0xbda03d52	-0.07824196
123	0xbd8ea1df	-0.06964468
124	0xbc895c18	-0.016767547
125	0x3d490eba	0.04908631
126	0x3b61d406	0.0034458651
127	0x3da6c1b9	0.081424184
128	0xbc3778b2	-0.01119821
129	0x3d5c7060	0.053818107
130	0xbc739d1e	-0.014869003
131	0xbd89291b	-0.06697293
132	0x3d554f4c	0.052077577
133	0xbc6b858e	-0.014375104
134	0xbca660a7	-0.02030976
135	0x3d942468	0.072335064
136	0xbcd0094f	-0.025395064
137	0xbd9a0f22	-0.075224176
138	0xbc94dca1	-0.01817161
139	0x3b9d6784	0.0048036
140	0x3d455e47	0.048185613
141	0xbc54ed54	-0.012996037
142	0xbca1c050	-0.019745022
143	0x3ba44f3d	0.0050143288
144	0xbd31d0b4	-0.043411925
145	0xbc797819	-0.015226387
146	0x3d3b34ed	0.04570477
147	0xbd22940c	-0.03969197
148	0x3d6cfb05	0.05785658
149	0x3da7528c	0.081700414
150	0xbc631eb7	-0.013862303
151	0xbcbfd1a6	-0.023415398
152	0x3cc19480	0.02363038
153	0xbb8d3947	-0.0043098065
154	0xbd32326a	-0.04350511
155	0x3dacd8c2	0.08439781
156	0xbda53314	-0.08066383
157	0xbda522a5	-0.080632485
158	0x3d441b70	0.04787773
159	0xbd834855	-0.064102806
160	0x3cf6bfe6	0.030120801
161	0x3c25ef71	0.010127888
162	0xbcde0dd7	-0.027106209
163	0xbd8d0c12	-0.06887068
164	0x3d993adb	0.07481929
165	0x3d5efa78	0.054438084
166	0xbd8eccab	-0.06972631
167	0x3d652ccb	0.05595092
168	0xbda4c917	-0.08046167
169	0x3cb85205	0.022500047
170	0xbcde7d61	-0.027159395
171	0x3cf8339f	0.030298052
172	0xbd8a1630	-0.06742513
173	0x3cfeeaa4	0.031117745
174	0x3d96a7ce	0.07356225
175	0xbda6c67f	-0.08143329
176	0xbda14e07	-0.07876211
177	0xbcc5cd11	-0.024145635
178	0xbd2caf53	-0.04215939
179	0xbd0cfc2d	-0.03442018
180	0xbd85758f	-0.06516563
181	0xbd4c6692	-0.049902506
182	0x3d5bf8c2	0.05370403
183	0xbd3247b8	-0.043525428
184	0xbd35da00	-0.044397354
185	0x3d00ccb4	0.03144522
186	0x3d9da1f2	0.07696904
187	0xbd5ad219	-0.05342302
188	0x3d828219	0.063724704
189	0x3d0db409	0.034595523
190	0xba8933f1	-0.001046775
191	0x3d4ac926	0.049508236
192	0x3d7d4ef5	0.061842877
193	0x3d5b3179	0.053513978
194	0xbc8809f1	-0.016606303
195	0xbd6a3d78	-0.057187527
196	0x3c70b8e5	0.01469252
197	0xbd05dd0f	-0.03268152
198	0x3d15bdeb	0.036558073
199	0x3cc95b39	0.024579631
200	0x3c6a152a	0.0142872725
201	0x3c72d7a7	0.014821923
202	0x3d8e924d	0.069614984
203	0xbc920db1	-0.017828794
204	0x3cc5bcae	0.024137821
205	0x3d781d9e	0.06057512
206	0x3bb17cb8	0.005416479
207	0x3ccebc25	0.025236199
208	0xbced1704	-0.028941639
209	0xbd2476b2	-0.04015226
210	0x3dac0f1d	0.0840132
211	0x3cff86ac	0.031192146
212	0x3d043b92	0.032283373
213	0xbd6c1617	-0.057638254
214	0x3cb6f978	0.022335753
215	0xbc20769c	-0.009793904
216	0xbd666d87	-0.056256797
217	0x3cf975da	0.030451704
218	0x3d5569d4	0.05210288
219	0x3da82ac0	0.08211279
220	0xbd3ba7fc	-0.0458145
221	0x3da29892	0.07939257
222	0x3d50be8e	0.050962977
223	0xbba17b98	-0.0049280636
224	0xbd114296	-0.035463892
225	0xbd6e521e	-0.05818378
226	0xbcdc73b5	-0.026910642
227	0xbd4e0528	-0.050297886
228	0xbcc77f01	-0.024352552
229	0xbc033e9c	-0.008010533
230	0xbd87bdae	-0.066279754
231	0xbbd2a664	-0.0064285267
232	0xbd7577f7	-0.05992886
233	0xbc2d2f7e	-0.010570405
234	0x3dac0e58	0.08401173
235	0xbcd25415	-0.025674859
236	0xbd297696	-0.041372858
237	0xbca8a91d	-0.020588452
238	0xbdab0c7f	-0.08351993
239	0xbd3921bf	-0.0451982
240	0x3d4a40de	0.04937827
241	0xbd48e0ea	-0.04904262
242	0xbd1ee70d	-0.038794566
243	0x3d933ba4	0.0718911
244	0xbdb23fae	-0.08703552
245	0xbc5fe2d8	-0.013664924
246	0xbd2a00e7	-0.041504767
247	0x3d4e3b6d	0.05034964
248	0xbca96c28	-0.020681456
249	0x3c26549f	0.010152011
250	0x3b3c0756	0.0028690896
251	0x3cb23096	0.021751683
252	0x3d082d68	0.033246428
253	0xbabf2b94	-0.0014585131
254	0xbdaa927c	-0.08328721
255	0xbd9c2720	-0.0762465

layer.1.bias f4 [64]
0	0xbd9ac07c	-0.07556245
1	0xbcebc2db	-0.028779438
2	0xbd473205	-0.048631687
3	0x3d6607b8	0.056159705
4	0xbd3b7334	-0.045764163
5	0xbd1b0f6d	-0.037856508
6	0xbc89b3bf	-0.016809342
7	0x3cf169cb	0.029469391
8	0x3d4bc295	0.049746115
9	0xbd06755c	-0.032826766
10	0x3db08129	0.08618385
11	0xbd8b6182	-0.068057075
12	0x3d8bd34d	0.06827412
13	0xbd35b52c	-0.044362232
14	0xbc07cdec	-0.008288842
15	0xbc40ce70	-0.011767969
16	0xbd1ebcb8	-0.038754195
17	0xbc7c57e8	-0.015401818
18	0xbd27a27a	-0.040926434
19	0xbcee795e	-0.029110607
20	0xbd91f492	-0.07126726
21	0x3d05d0a3	0.032669675
22	0x3d04acef	0.032391485
23	0xbc80ecfb	-0.015738001
24	0x3dab599b	0.083667
25	0x3db1ad38	0.08675617
26	0xbd01a6e2	-0.031653292
27	0xbbfc4a40	-0.007699281
28	0xbc91839f	-0.017762957
29	0xbaac3cb4	-0.001314065
30	0x3c9e0490	0.019289285
31	0x3cd50daa	0.026007492
32	0x3dad974d	0.08476124
33	0x3ccea0d8	0.02522318
34	0xbda9a057	-0.082825355
35	0x3da43ecd	0.08019791
36	0x3d5c2b2f	0.05375212
37	0x3d064fbb	0.03279088
38	0x3d653e78	0.055967778
39	0xbd43d05e	-0.047806136
40	0x3d1b2959	0.03788123
41	0xbcc143b0	-0.023591846
42	0x3c52784c	0.012846064
43	0x3ce433f8	0.027856812
44	0xbd23988e	-0.03994041
45	0x3c565908	0.01308275
46	0x3ab33bce	0.0013674439
47	0xbb0ec70e	-0.0021786126
48	0xbcf98dc0	-0.0304631
49	0x3d85d927	0.06535559
50	0xbd2803b7	-0.041019168
51	0xbc7d8023	-0.015472445
52	0xbda427ee	-0.080154285
53	0x3d854546	0.065073535
54	0x3d47efb9	0.0488126
55	0x3d6483e5	0.055789847
56	0x3d17614c	0.036958024
57	0xbd7e697f	-0.062112328
58	0xbce6aaff	-0.02815771
59	0xbc95c71c	-0.01828342
60	0x3cb29e8a	0.021804113
61	0x3cdf4b70	0.027257651
62	0x3cf46a39	0.029835807
63	0xbd1d9761	-0.038474444

layer.2.weight f4 [32, 64]
0	0xbde1e7f2	-0.11030568
1	0x3dcaab24	0.09895924
2	0xbdc84dc1	-0.097804554
3	0xbbb93e62	-0.0056531886
4	0xbae26fec	-0.0017275787
5	0xbdfd890a	-0.12379654
6	0xbdab5e2b	-0.083675705
7	0xbd9e66ae	-0.07734428
8	0x3ca4dad1	0.020123871
9	0xbdf73d23	-0.12072208
10	0xbdefd019	-0.11709613
11	0x3d444e1d	0.047926057
12	0xbde419ce	-0.11137734
13	0x3d82ced0	0.063871026
14	0x3b9a9998	0.004718017
15	0x3b72f48f	0.0037072038
16	0xbcdf8bba	-0.027288307
17	0xbd4e83a4	-0.05041851
18	0xbc5072e9	-0.012722709
19	0x3dd35219	0.10318393
20	0x3d498aa2	0.049204476
21	0x3d99157a	0.074747995
22	0x3d894d25	0.06704167
23	0x3dafb81b	0.08580037
24	0x3d7833d6	0.06059631
25	0x3de27cb3	0.11058941
26	0xbd97a106	-0.0740376
27	0xbda929f6	-0.082599565
28	0x3d865e6a	0.06560977
29	0x3dc903a6	0.09815149
30	0xbd10f4ed	-0.03538983
31	0xbdc358d5	-0.09538428
32	0x3cc4b3be	0.024011489
33	0x3dc1129d	0.09427378
34	0xbdb5c98f	-0.08876335
35	0x3deea450	0.11652434
36	0x3cca0829	0.024662094
37	0x3d0055b2	0.031331725
38	0xbd3b8cc3	-0.045788538
39	0x3dfcb9d9	0.12340135
40	0x3c0e0866	0.0086689945
41	0x3cc88369	0.024476724
42	0xbda1bb08	-0.078970015
43	0x3def62d2	0.1168877
44	0xbd473c5c	-0.048641548
45	0xbd3d8d48	-0.046277314
46	0x3d173fd9	0.036926124
47	0x3ce199e2	0.027539197
48	0xbde073c3	-0.1095958
49	0xbc27e056	-0.010246357
50	0xbdbc2df8	-0.09188455
51	0x3d5d55ea	0.054037012
52	0xbe05b98c	-0.13059062
53	0xbdc92649	-0.098217554
54	0xbdfa4a48	-0.12221199
55	0xbdbf2e1c	-0.093349665
56	0xbc37fa8e	-0.0112291705
57	0x3dc0001d	0.093750216
58	0xbdd112b8	-0.102086484
59	0xbbcf4cc9	-0.006326292
60	0x3cd6f60c	0.026240371
61	0xbd2060d8	-0.039154857
62	0x3cacb69f	0.021083174
63	0xbdff73d2	-0.12473263
64	0x3bb5315b	0.0055295653
65	0xbd3761aa	-0.044770874
66	0x3d27dc5d	0.04098164
67	0x3dc8731b	0.097875796
68	0xbdd256cb	-0.10270461
69	0x3dc6d8ee	0.09709345
70	0x3d7fbd09	0.062436137
71	0xbcf7341f	-0.03017622
72	0xbd8e4be4	-0.06948069
73	0xbca6eb5e	-0.020375904
74	0x3d7b0ac8	0.06128958
75	0xbd8ad53d	-0.06778953
76	0x3d6d0c4a	0.057873048
77	0x3cbdf6a5	0.023188898
78	0xbe014253	-0.12622957
79	0x3cc9296c	0.024555884
80	0x3d0e74be	0.034779303
81	0x3c226d55	0.009913762
82	0xbcab6092	-0.020920072
83	0xbdc28cdb	-0.09499522
84	0x3cbfb6f2	0.023402665
85	0xbc049c26	-0.008093869
86	0xbca8d54d	-0.020609522
87	0x3b98dc67	0.004664946
88	0x3c9c4a1d	0.019078309
89	0x3cbbe242	0.022935037
90	0xbc83eed6	-0.016105097
91	0xbd9c9e30	-0.07647359
92	0xbdb90742	-0.090345874
93	0x3d50c03a	0.05096457
94	0x3cb6d74d	0.02231946
95	0xbdf86693	-0.121289395
96	0x3d7b402a	0.06134049
97	0x3d414f8c	0.047195002
98	0xbddb40ae	-0.10705696
99	0x3d7d647e	0.061863415
100	0x3d0e9700	0.034811974
101	0xbdc696d4	-0.09696737
102	0xbd48edc3	-0.049054872
103	0xbd74c4af	-0.059757885
104	0xbd971832	-0.07377662
105	0x3d234fd1	0.03987104
106	0xbde5a771	-0.112135775
107	0xbdd41771	-0.103560336
108	0x3d5347d4	0.051582173
109	0xbd384762	-0.04498995
110	0xbd21c15d	-0.039491046
111	0xbdee6a8d	-0.11641417
112	0x3c3953d4	0.01131149
113	0xbd3a1b89	-0.045436416
114	0x3d88cfca	0.066802576
115	0xbb7e5ebe	-0.0038813795
116	0xbe009046	-0.12555036
117	0xbd284d23	-0.04108919
118	0x3da769fb	0.08174511
119	0xbd3b001e	-0.04565441
120	0xbb210607	-0.0024570243
121	0x3e06075f	0.1308875
122	0xbd642a5f	-0.05570447
123	0x3dff6d32	0.12471999
124	0xbde591e3	-0.11209466
125	0x3dbce8f1	0.092241175
126	0x3d8a6c11	0.06758893
127	0xbc511c28	-0.012763061
128	0xbbfb551a	-0.007670057
129	0x3ce2f350	0.027703911
130	0xbcdc2b3c	-0.026876085
131	0xbd83b0fe	-0.06430243
132	0xbd4d3d5a	-0.050107338
133	0x3c3abd05	0.011397605
134	0x3df2187b	0.118210755
135	0x3d443e1c	0.047910795
136	0xbd4141de	-0.047181956
137	0xbc75d344	-0.015003983
138	0x3db10c2f	0.08644902
139	0x3db01ca7	0.08599215
140	0xbdbe4eca	-0.092923716
141	0x3d6e5bb8	0.05819294
142	0xbdc70fb5	-0.09719793
143	0x3c411ce7	0.011786676
144	0xbda9c12e	-0.08288799
145	0x3d0e5b2e	0.034754924
146	0x3dc11952	0.094286576
147	0xbcbe9514	-0.023264445
148	0x3d07da41	0.033167128
149	0x3d96da8f	0.073659055
150	0xbd6e8211	-0.05822951
151	0x3b3f01ec	0.0029145433
152	0xbdb10c1e	-0.08644889
153	0xbda05fb1	-0.07830752
154	0x3de70a34	0.11281243
155	0x3d918bbe	0.07106732
156	0xbda7645b	-0.08173438
157	0xbd6b53cb	-0.057452958
158	0x3de72cbf	0.112878315
159	0x3d96bb65	0.073599614
160	0x3df97685	0.12180809
161	0xbd07f192	-0.033189364
162	0x3dd318f3	0.10307493
163	0x3dd000a5	0.10156373
164	0xbce6f82f	-0.028194515
165	0x3df780ce	0.120851144
166	0x3da82fab	0.08212217
167	0x3dbed478	0.09317869
168	0xbd6c8423	-0.057743203
169	0xbca49f69	-0.020095544
170	0x3c739acc	0.014868449
171	0xbde9b9e8	-0.11412412
172	0xbd5701cb	-0.052491944
173	0xbdc64520	-0.09681153
174	0x3dc28843	0.09498646
175	0x3da552cb	0.08072432
176	0xbd4e024a	-0.05029515
177	0xbdc3e25e	-0.095646605
178	0x3c312075	0.010810961
179	0xbdf1f7d6	-0.11814849
180	0xbdca97f8	-0.09892267
181	0xbdbe6287	-0.09296136
182	0xbd0a596a	-0.03377668
183	0xbdd26580	-0.10273266
184	0xbdf86de6	-0.121303365
185	0x3cf072e1	0.029351654
186	0x3de959f9	0.11394114
187	0xbd5adc85	-0.05343296
188	0xbdd63af7	-0.104604654
189	0x3d822764	0.063551694
190	0xbdd2f443	-0.103004955
191	0x3dfb6bc1	0.12276412
192	0x3d7cde50	0.06173545
193	0x3d7abd4a	0.061215676
194	0x3deb9b5f	0.11504244
195	0x3d549a4b	0.051904958
196	0x3d810f5f	0.0630176
197	0xbde2f0de	-0.11081098
198	0xbda54bb6	-0.08071081
199	0x3d8ef732	0.069807425
200	0x3d840ae2	0.06447388
201	0x3d6393b3	0.05556078
202	0xbd795fd6	-0.060882412
203	0xbd3a4038	-0.0454714
204	0xbd66932f	-0.05629271
205	0xbd4673d0	-0.04845029
206	0xbda6238d	-0.081122495
207	0x3dcd6b1b	0.10030194
208	0xbd06d096	-0.032913767
209	0x3d784f02	0.060622223
210	0xbd7023c7	-0.05862787
211	0x3dbce7a0	0.092238665
212	0xbcfcb4a1	-0.03084785
213	0xbd8eba66	-0.069691464
214	0x3cbdd01c	0.023170523
215	0x3d83a271	0.064274676
216	0xbdcdc087	-0.10046487
217	0x3da4ae10	0.08041012
218	0x3dc589b6	0.09645407
219	0xbc1efde5	-0.009704088
220	0x3dcbf694	0.099591404
221	0xbd1eb7c1	-0.03874946
222	0x3dd42771	0.10359085
223	0xbcdbf714	-0.026851214
224	0xbdd02de2	-0.101650015
225	0xbd967ae8	-0.07347661
226	0x3de2eef3	0.11080732
227	0x3d9a8254	0.07544389
228	0xbc299a4c	-0.010351729
229	0x3b3760f1	0.0027981366
230	0xbb9dc744	-0.004815014
231	0x3d534800	0.051582336
232	0xbd7e1a00	-0.062036514
233	0xbdbbb3fc	-0.09165189
234	0xbddc8e26	-0.107693
235	0xbc261401	-0.010136605
236	0xbd0534cd	-0.032521058
237	0x3d70e8ee	0.05881589
238	0xbd8cad3b	-0.068689786
239	0x3b254279	0.0025216623
240	0xbd9e5f62	-0.077330366
241	0xbceeaaf0	-0.029134244
242	0xbcb6e7aa	-0.022327263
243	0x3d3bf43b	0.045887213
244	0xbdab69a6	-0.0836976
245	0x3c551d9a	0.013007546
246	0xbd022cd6	-0.03178104
247	0xbb920174	-0.0044557396
248	0xbc738e70	-0.014865503
249	0xbd16bb8f	-0.036799964
250	0x3dcae72f	0.09907376
251	0xbdb0725b	-0.086155616
252	0xbdd0d91e	-0.10197662
253	0x3db84f19	0.08999462
254	0x3d91cc50	0.07119048
255	0xbcc3fb00	-0.023923397

layer.2.bias f4 [32]
0	0xb8cbb000	-9.712577e-05
1	0xbdf1a0c0	-0.11798239
2	0x3c077610	0.008267894
3	0x3d271d48	0.04079941
4	0x3dba4874	0.090958506
5	0xbd6057c8	-0.054771215
6	0xbdd8f74e	-0.105940446
7	0x3cc99fc0	0.024612308
8	0xbcb8eb98	-0.022573277
9	0xbd1c1484	-0.038105503
10	0x3d55cb8c	0.05219607
11	0xbde81288	-0.113316596
12	0x3da89be8	0.08232862
13	0xbdfda5a8	-0.12385112
14	0xbd418100	-0.047242165
15	0xbd40e814	-0.047096327
16	0x3d2877c0	0.041129827
17	0x3cb7cbe8	0.022436097
18	0xbdca7a74	-0.09886637
19	0xbd914eaa	-0.07095082
20	0xbd63756c	-0.055531904
21	0x3b496840	0.0030732304
22	0x3d7cbfec	0.06170647
23	0x3b97e740	0.0046357214
24	0xbd8aca28	-0.067768395
25	0xbda00086	-0.078126
26	0xbb45ee00	-0.0030201674
27	0xbd1fa634	-0.038976863
28	0xbc92da78	-0.01792644
29	0x3db75978	0.08952612
30	0xbc4187f0	-0.011812195
31	0x3de26fcc	0.1105648

layer.3.weight f4 [1, 32]
0	0x3d68f6ff	0.05687618
1	0x3d2b63c5	0.041843195
2	0xbe0dbaef	-0.13840841
3	0xbdb78d09	-0.08962447
4	0x3bcca500	0.0062452555
5	0x3db29c46	0.08721213
6	0x3da46f70	0.080290675
7	0x3d98babd	0.074574925
8	0xbdf495f2	-0.11942662
9	0x3b738fc5	0.003716455
10	0xbdc7b342	-0.097509876
11	0xbdccf060	-0.100067854
12	0x3dec0651	0.11524642
13	0x3e25b35b	0.161817
14	0xbdc5467a	-0.09632583
15	0x3de5f461	0.11228252
16	0x3d9fd394	0.07804027
17	0x3de5e409	0.11225135
18	0x3e0758a5	0.13217409
19	0xbb2c0bf7	-0.0026252249
20	0x3c884f36	0.016639333
21	0xbce1dc2b	-0.027570805
22	0xbc1904e4	-0.009339545
23	0xbbd124c4	-0.0063825566
24	0xbd5f48df	-0.054512855
25	0xbe28b3f6	-0.164749
26	0x3e099357	0.13435112
27	0x3dda4a10	0.106586576
28	0xbc0cdba5	-0.008597289
29	0x3e120c74	0.14262563
30	0xbdf7fb89	-0.121085234
31	0x3bfd57b9	0.0077314046
