src/models/v2/pretrained_models/monaco_model_v2.pt (torch, 54383 bytes, 7 tensors)

layer.0.weight f4 [128, 16]
0	0xbe478e0a	-0.19487777
1	0xbdaca862	-0.08430554
2	0xbe6198f7	-0.22031008
3	0xbe3ed0e9	-0.1863438
4	0x3b9db568	0.004812885
5	0x3ca15d5a	0.019697834
6	0x3dc527d5	0.09626738
7	0x3da10135	0.07861558
8	0x3d254bc5	0.040355463
9	0xbe468c75	-0.19389518
10	0xbdfae955	-0.12251536
11	0x3d546f4f	0.051863965
12	0x3e5d8cab	0.21635692
13	0x3e5a2696	0.21303782
14	0xbcab1d26	-0.020887922
15	0x3e1bf1d8	0.15228975
16	0xbe033070	-0.12811446
17	0xbda4296f	-0.08015715
18	0xbe7cecee	-0.24699757
19	0xbe69824f	-0.22803615
20	0x3d97999e	0.07402347
21	0xbe12838d	-0.14307995
22	0xbd2cf6f3	-0.042227697
23	0x3e4f97d2	0.20272759
24	0x3d3dda67	0.046350863
25	0x3e528da6	0.20561847
26	0x3e1d23fe	0.15345761
27	0xbd3507a4	-0.04419674
28	0x3da57635	0.08079187
29	0x3d8dee07	0.06930166
30	0x3ccc1ba2	0.02491552
31	0xbd67af93	-0.056563925
32	0x3d98fe28	0.074703515
33	0xbe1381d9	-0.14405002
34	0xbe438a53	-0.19095735
35	0x3d3c5953	0.045983624
36	0x3d9b0a6c	0.07570347
37	0xbe397b1f	-0.18113373
38	0x3de16890	0.11006272
39	0x3e2ff7e9	0.17184414
40	0x3c8fd15e	0.017555889
41	0x3e28264b	0.16420858
42	0x3d7fe7fa	0.06247709
43	0xbe0bf445	-0.136674
44	0x3e5148a4	0.20437866
45	0xbe479166	-0.19489059
46	0xbdd9b301	-0.106298454
47	0x3e54134b	0.20710485
48	0x3db43e60	0.088009596
49	0x3e140547	0.14455138
50	0xbd315be5	-0.043300528
51	0xbe551292	-0.20807865
52	0xbd355f26	-0.044280194
53	0xbe098463	-0.13429408
54	0xbda3b88e	-0.079941854
55	0x3d99b5e7	0.07505398
56	0x3d9b582f	0.07585179
57	0x3dc1e435	0.09467355
58	0x3b8d39a1	0.0043098484
59	0x3d5c9998	0.053857416
60	0x3e0d13a3	0.13777022
61	0x3d85f5aa	0.06540997
62	0xbe11f6f0	-0.14254355
63	0xb936089c	-0.0001736008
64	0x3e38e94c	0.18057746
65	0xbd10d306	-0.035357498
66	0x3e573c79	0.21019162
67	0x3bada229	0.005298872
68	0xbb88a5a5	-0.004170137
69	0x3de5c45e	0.11219095
70	0xbe121874	-0.1426714
71	0x3dd228f3	0.10261717
72	0xbe15f84e	-0.14645502
73	0x3e629fe5	0.22131307
74	0xbdcd407d	-0.10022066
75	0xbe1fb906	-0.15597925
76	0x3e06243a	0.13099757
77	0x3e582c5e	0.21110675
78	0x3d93ea88	0.07222468
79	0xbdb4c99d	-0.08827517
80	0x3d9c04e8	0.07618123
81	0x3e65759f	0.2240815
82	0xbe583fdd	-0.21118112
83	0x3da89a95	0.08232609
84	0x3e3aa4fe	0.18227002
85	0xbd8b7f99	-0.06811447
86	0x3dfbcf42	0.12295391
87	0x3c77ecf2	0.015132176
88	0xbe045181	-0.12921716
89	0x3e2d30b5	0.16913112
90	0x3d388c20	0.04505551
91	0x3e3e6611	0.18593623
92	0x3e29c7af	0.1658008
93	0x3e79ed9d	0.24407049
94	0xbd753afc	-0.059870705
95	0x3d667d0b	0.056271594
96	0xbdfca8c0	-0.12336874
97	0x3e3d4665	0.18483885
98	0xbe68911d	-0.22711606
99	0xbe76e7da	-0.24111882
100	0xbe4fe329	-0.20301498
101	0x3e30765f	0.17232655
102	0x3d8387f3	0.06422415
103	0xbdb0fd09	-0.086420126
104	0x3df1b642	0.11802341
105	0x3d2895f8	0.041158646
106	0x3e2f1a72	0.17099932
107	0xbe7f95b9	-0.24959458
108	0xbc17dc6e	-0.009268863
109	0x3dc9775a	0.09837218
110	0xbd13adfd	-0.0360546
111	0xbe187e4c	-0.14891928
112	0x3e5fce76	0.21856102
113	0x3e6f49ce	0.23367998
114	0x3e6c014e	0.23047373
115	0xbe755d7f	-0.23961447
116	0xbe328e14	-0.17437011
117	0xbe48d1ac	-0.19611233
118	0xbe3d1e76	-0.18468651
119	0x3d95194e	0.07280217
120	0x3e4abe34	0.19799119
121	0xbe3b811d	-0.18310972
122	0xbd05d560	-0.032674193
123	0x3db3a77f	0.08772182
124	0x3e3113e7	0.17292748
125	0x3e0aa60e	0.13539907
126	0xbda539bb	-0.08067652
127	0xbe688bd6	-0.22709593
128	0xbdf862cc	-0.12128219
129	0x3dd9e103	0.10638621
130	0x3e12f613	0.14351682
131	0x3dde4df6	0.108547136
132	0x3d925ac6	0.0714622
133	0x3e4d9281	0.20075418
134	0xbddb2563	-0.1070049
135	0x3d5e69a3	0.05429996
136	0x3e80ca24	0.2515422
137	0x3cb740ca	0.022369761
138	0x3e5563c2	0.20838836
139	0xbac9d181	-0.001539752
140	0xbe485252	-0.19562653
141	0x3e1aa42f	0.15101694
142	0x3e7077ac	0.23483151
143	0x3e251f0d	0.16125126
144	0x3deb0324	0.114752084
145	0xbdf398c7	-0.11894374
146	0x3e671073	0.22564869
147	0x3e634d28	0.22197402
148	0xbe26f906	-0.16305932
149	0x3e130cd2	0.1436036
150	0x3e64ad6b	0.22331779
151	0x3da3b6e1	0.07993866
152	0x3db34bca	0.0875469
153	0x3e00c8bb	0.12576573
154	0x3e0ffae2	0.14060548
155	0xbdc350e9	-0.09536917
156	0xbdf23421	-0.11826349
157	0x3de4b576	0.111674234
158	0xbe21096a	-0.15726247
159	0xbe5e8a21	-0.2173238
160	0xbcd18a90	-0.025578767
161	0xbdd5ceb2	-0.104398146
162	0x3e52d44b	0.20588796
163	0x3d238f2f	0.039931472
164	0xbd10c948	-0.035348207
165	0xbd07290b	-0.032998126
166	0xbdab18e2	-0.083543554
167	0x3e436bfa	0.19084159
168	0xbcb1aa47	-0.02168764
169	0xbdc12eef	-0.0943278
170	0xbe4b64c4	-0.19862658
171	0x3e1d3486	0.15352067
172	0xbc82f770	-0.015987128
173	0xbdffb67d	-0.12485979
174	0x3e669dc5	0.22521122
175	0x3afcbd13	0.0019282423
176	0xbba84c80	-0.0051360726
177	0xbdad7b3e	-0.08470772
178	0xbe5ba313	-0.21448927
179	0x3d26454d	0.040593434
180	0xbdca0dd8	-0.09865922
181	0xbd84eb9b	-0.06490251
182	0x3dcbc299	0.09949226
183	0xbc8fd4ca	-0.01755752
184	0x3e0997fe	0.13436887
185	0x3de2f7ad	0.11082397
186	0xbe4277ba	-0.18990985
187	0x3dac99f6	0.08427803
188	0xbe6c8840	-0.2309885
189	0xbe4582c6	-0.19288167
190	0xbd0edc04	-0.034877792
191	0x3dabcd8d	0.08388815
192	0xbbb544c0	-0.0055318773
193	0x3e134b2d	0.14384146
194	0xbe634aba	-0.22196475
195	0x3c523b38	0.012831502
196	0xbcd243e0	-0.025667131
197	0xbd4aec13	-0.049541544
198	0xbdebc621	-0.115123995
199	0xbe2544dc	-0.16139549
200	0x3e07bdd7	0.13256012
201	0x3e51a661	0.20473625
202	0xbb96134e	-0.004579938
203	0xbde05f6c	-0.109557
204	0xbe6ff665	-0.23433836
205	0x3e07388a	0.13205162
206	0xbde3b103	-0.11117747
207	0xbdbfc656	-0.093640015
208	0x3b4cd200	0.00312531
209	0xbd96cf14	-0.07363716
210	0xbe618e02	-0.22026828
211	0x3dadeb65	0.084921636
212	0xbdd10048	-0.10205132
213	0x3df25a43	0.11833622
214	0x3e8955d8	0.26823306
215	0x3e4c533c	0.19953626
216	0x3e40e8fa	0.18838874
217	0x3e2d8f4b	0.16949193
218	0x3dd7babb	0.10533663
219	0x3e4f5a3a	0.20249262
220	0xbd8de296	-0.069279835
221	0x3e5fc975	0.21854194
222	0xbdf35fdd	-0.11883519
223	0xbe464192	-0.1936095
224	0xbdad6324	-0.08466175
225	0xbdd17394	-0.10227123
226	0x3e5ffa20	0.21872759
227	0xbd3ce439	-0.046116088
228	0xbd8edc6a	-0.069756344
229	0xbe36c1d3	-0.17847376
230	0x3e2a65d0	0.16640401
231	0xbe892228	-0.26783872
232	0xbbd0ec51	-0.0063758274
233	0x3e545790	0.20736527
234	0x3e12e723	0.14345984
235	0x3d46ea32	0.04856319
236	0x3d625176	0.05525347
237	0xbc973f49	-0.018462794
238	0xbe3ac21b	-0.18238108
239	0x3cd0cc8f	0.025488166
240	0xbc905aa0	-0.017621338
241	0xbe27355a	-0.16328946
242	0xbddb717f	-0.10715007
243	0x3df3f27a	0.11911483
244	0xbe520387	-0.20509158
245	0x3d365d04	0.0445223
246	0xbe04b229	-0.12958588
247	0x3e48a4fa	0.19594184
248	0x3da81376	0.08206837
249	0x3e631485	0.22175796
250	0xbdd07cf0	-0.1018008
251	0x3e1d3af5	0.15354522
252	0xbde78fba	-0.113067105
253	0xbe49e305	-0.19715507
254	0xbe33b5bd	-0.17549796
255	0xbdcec4fc	-0.100961655

layer.0.bias f4 [128]
0	0xbe5c5578	-0.21516979
1	0xbe143cb6	-0.14476284
2	0xbdb32ad8	-0.08748406
3	0xbe28afcc	-0.16473311
4	0x3e44fefe	0.19237897
5	0x3c063400	0.008191109
6	0xbe3d3a82	-0.1847935
7	0x3d5b56f0	0.053549707
8	0xbd8173c4	-0.06320909
9	0x3e04df86	0.12975892
10	0x3e02c3ee	0.12770054
11	0x3e58ed76	0.21184334
12	0xbdb2a1a4	-0.08722237
13	0xbd174a10	-0.036935866
14	0x3d203700	0.039114952
15	0x3b06f900	0.0020595193
16	0x3de7a704	0.113111526
17	0xbe2b0880	-0.16702461
18	0xbdf4a310	-0.11945164
19	0xbe162052	-0.14660767
20	0x3e5ffb38	0.21873176
21	0xbe499d90	-0.19689012
22	0x3e4159cc	0.18881911
23	0xbe282c4a	-0.16423145
24	0xbe6aa988	-0.22916234
25	0xbddfed10	-0.10933888
26	0x3d2cee90	0.0422197
27	0x3e6b66ea	0.22988477
28	0xbe265270	-0.16242385
29	0xbd9763fc	-0.073921174
30	0x3d5e20b8	0.05423042
31	0xbdc65e10	-0.0968591
32	0x3d6710c8	0.05641249
33	0x3e71fea0	0.23632288
34	0xbe4724fc	-0.19447702
35	0xbde7d114	-0.11319175
36	0x3ddf4668	0.10902101
37	0xbe0a953e	-0.13533494
38	0xbe3dfd90	-0.18553758
39	0xbe5a02d4	-0.21290141
40	0xbe6e1e40	-0.23253727
41	0x3c4872a0	0.01223436
42	0x3d046008	0.032318145
43	0x3d75bff8	0.05999753
44	0xbcb964b0	-0.02263102
45	0x3d240b10	0.040049613
46	0xbe4dacfa	-0.20085517
47	0xbc0a04a0	-0.008423954
48	0xbdb781c4	-0.08960298
49	0xbe5a3f00	-0.21313095
50	0x3e51f68a	0.20504203
51	0x3d859404	0.06522372
52	0x3d67d970	0.05660385
53	0xbe578264	-0.21045834
54	0xbaa84100	-0.0012836754
55	0x3df48ca8	0.119408906
56	0x3de4a330	0.11163938
57	0xbe60a804	-0.21939093
58	0x3e7a3568	0.24434435
59	0xbdad8d14	-0.08474174
60	0x3cd5b6e0	0.026088178
61	0xbd738e08	-0.059461623
62	0x3da4b8d8	0.08043069
63	0x3e60fa68	0.21970522
64	0xbe638e60	-0.2222228
65	0x3e0d7516	0.13814196
66	0xbb33f180	-0.0027457178
67	0xbc45c620	-0.012071162
68	0x3e566956	0.2093862
69	0x3c260b40	0.010134518
70	0x3e4606ba	0.19338503
71	0xbdccaafc	-0.0999355
72	0x3ccb0dc0	0.02478683
73	0xbe1a4df4	-0.150688
74	0x3cc89bc0	0.02448833
75	0x3be8ccc0	0.007104486
76	0xbe3715d6	-0.17879423
77	0xbca12390	-0.019670278
78	0x3e27785c	0.16354507
79	0x3e77d3b2	0.24201849
80	0x3e5d6e9a	0.21624222
81	0xbde16d30	-0.11007154
82	0x3e218712	0.15774181
83	0x3d00a7f0	0.031410158
84	0x3e7936da	0.2433733
85	0x3e0f56e2	0.13997987
86	0xbe723ac6	-0.23655233
87	0x3cc91b00	0.024549007
88	0x3e5377bc	0.20651144
89	0x3e3848a4	0.1799646
90	0xbdcbc710	-0.099500775
91	0xbdd46150	-0.103701234
92	0xbde941c0	-0.11389494
93	0x3d255228	0.040361553
94	0x3c399e40	0.011329234
95	0xbd808ff0	-0.06277454
96	0xbdb2b330	-0.087255836
97	0x3e7f01be	0.24903008
98	0xbd11ac38	-0.03556463
99	0xbd7ba148	-0.061433107
100	0x3cf15aa0	0.029462159
101	0x3dd37658	0.10325307
102	0xbe0b4d3a	-0.13603678
103	0x3e56bfba	0.20971575
104	0x3da913ec	0.08255753
105	0x3da75840	0.08171129
106	0x3e0af5f0	0.1357038
107	0xbe610d74	-0.21977788
108	0xbd10b278	-0.03532645
109	0xbd659a68	-0.056055456
110	0x3d993ea4	0.07482651
111	0x3e44c7c4	0.1921683
112	0x3e01902c	0.12652653
113	0x3d124978	0.035714597
114	0xbe21709a	-0.1576561
115	0xbe2546e2	-0.16140321
116	0x3e266152	0.16248062
117	0x3e4c8f32	0.199765
118	0xbdd905d4	-0.10596815
119	0x3e61ee5c	0.22063583
120	0x3e2d64c6	0.16932973
121	0xbe30e37e	-0.17274281
122	0x3d877244	0.06613591
123	0x3e3bccf8	0.18339908
124	0xbd751b80	-0.05984068
125	0xbdb37568	-0.08762628
126	0x3d5b7bd8	0.053584903
127	0xbd5bf410	-0.053699553

layer.1.weight f4 [64, 128]
0	0xbcf69ac6	-0.030103099
1	0x3d5c22c7	0.053744104
2	0xbd5c31a4	-0.05375828
3	0x3c1e2d0e	0.009654297
4	0x3b997eda	0.0046843113
5	0xbd99e5a3	-0.07514503
6	0xbc322db3	-0.010875153
7	0x3d9cd72b	0.076582275
8	0x3db11d45	0.08648161
9	0xbdad242e	-0.08454166
10	0x3d1c1954	0.038110092
11	0xbd35d0e5	-0.04438867
12	0x3c7d7452	0.015469627
13	0x3d95a129	0.073061295
14	0xbcfff941	-0.031246783
15	0xbcb99026	-0.022651743
16	0xbd0adfe1	-0.033904914
17	0x3d7a1b6a	0.0610613
18	0xbd96c09c	-0.07360956
19	0xbc815259	-0.015786337
20	0xbcc95a09	-0.024579065
21	0xbd4c2104	-0.049836174
22	0x3c9c1552	0.019053135
23	0xbcf11e2d	-0.029433334
24	0xbd84ed0f	-0.06490528
25	0xbb1fdf18	-0.002439445
26	0x3d4bc9fb	0.04975317
27	0xbd5c28cc	-0.053749844
28	0x3d79d47f	0.060993668
29	0x3c13eb96	0.009028336
30	0x3d9b94f6	0.075967714
31	0x3d1dd399	0.038531873
32	0x3d99bdd5	0.07506911
33	0x3cf2864a	0.02960505
34	0x3daf3029	0.08554108
35	0x3d18177d	0.037131775
36	0x3db79386	0.08963685
37	0xbc8f6190	-0.017502576
38	0x3d5dfc10	0.054195464
39	0xbd6b68e4	-0.05747308
40	0x3d4e10e8	0.05030909
41	0x3cc2eab6	0.02379356
42	0xbc38fb91	-0.011290447
43	0x3da5c336	0.08093874
44	0x3d843ecb	0.06457289
45	0xbd339119	-0.043839548
46	0x3dba361f	0.09092354
47	0xbd477534	-0.048695758
48	0x3c29d42c	0.010365527
49	0x3c0ee928	0.008722581
50	0x3db8634d	0.09003315
51	0x3d4f1bf0	0.050563753
52	0xbd2f313b	-0.04277156
53	0xbdb3d9cf	-0.08781778
54	0x3c0e609f	0.008690028
55	0x3d9251a9	0.07144482
56	0xbdb5e0a9	-0.08880741
57	0x3d10af29	0.035323296
58	0xbd9b44d4	-0.07581487
59	0xbd19fa2d	-0.0375921
60	0xbd272675	-0.04080816
61	0xbca61e60	-0.020278156
62	0xbd850819	-0.06495685
63	0xbd989ce1	-0.07451797
64	0x3d3850f7	0.04499909
65	0xbd8c3274	-0.06845561
66	0x3c621a07	0.013800151
67	0x3dae6511	0.08515371
68	0x3d58c74f	0.05292445
69	0x3d5b46b8	0.05353424
70	0x3caf7a83	0.021420723
71	0xbce4815c	-0.027893715
72	0x3d806579	0.062693544
73	0x3d031264	0.03199996
74	0xbda7d5a3	-0.08195045
75	0x3d3d431d	0.046206582
76	0xbd793c8d	-0.06084876
77	0xbcb780d3	-0.022400295
78	0x3d9643c7	0.07337146
79	0x3da11c98	0.07866782
80	0xbd0d03dd	-0.034427512
81	0xbda81dbf	-0.082087986
82	0x3d2cf4bf	0.042225596
83	0xbd8847fe	-0.066543564
84	0xbd1699d2	-0.03676779
85	0x3bdec4da	0.006798369
86	0x3c62297b	0.013803835
87	0xbd95eebd	-0.07320926
88	0xbdb391e1	-0.087680586
89	0xbd3e2e64	-0.04643096
90	0xbd5de402	-0.054172523
91	0x3bc0ffd8	0.005889874
92	0x3d1aaabe	0.03776049
93	0xbd31b21c	-0.04338275
94	0xbdb077c5	-0.08616594
95	0x3bad0fa3	0.005281405
96	0xbb8d043f	-0.0043034847
97	0x3da69baa	0.08135159
98	0xbd963294	-0.07333866
99	0x3d23ed3f	0.040021177
100	0xbd05759f	-0.032582875
101	0x3da923f7	0.08258813
102	0xbb15be81	-0.0022849145
103	0x3dab27ac	0.08357176
104	0x3d18b9e3	0.03728665
105	0xbc4c818a	-0.012482056
106	0x3d5519ef	0.052026685
107	0xbd35d81c	-0.04439555
108	0x3db052c4	0.08609536
109	0x3d1aa69a	0.03775654
110	0x3b8ca6d4	0.0042923484
111	0xbd073012	-0.033004828
112	0x3b19f4d3	0.0023491874
113	0x3cf2afe7	0.029624892
114	0xbd34990f	-0.04409128
115	0xbb4ceb90	-0.0031268336
116	0xbda41a2f	-0.080128066
117	0xbd31ee10	-0.043439925
118	0x3a0c7919	0.0005358621
119	0x3daaf3a8	0.08347255
120	0x3d5cc63c	0.05389999
121	0x3d0d4b2c	0.034495518
122	0xbda0470c	-0.07826051
123	0xbd8ec353	-0.06970849
124	0xbc893b66	-0.016751956
125	0x3d4a1cf9	0.049344037
126	0x3b336ecc	0.0027379273
127	0x3da74638	0.0816769
128	0xbc390369	-0.011292317
129	0x3d5f557c	0.054524884
130	0xbc6f7903	-0.014616254
131	0xbd87da9c	-0.06633493
132	0x3d52949c	0.051411256
133	0xbc686a35	-0.014185478
134	0xbca32577	-0.019915326
135	0x3d93cb52	0.07216515
136	0xbcd35130	-0.02579555
137	0xbd9c54e4	-0.07633379
138	0xbc9707c1	-0.018436315
139	0x3baa913f	0.005205303
140	0x3d46f4fc	0.04857348
141	0xbc564816	-0.01307871
142	0xbca68017	-0.02032475
143	0x3baa7d63	0.0052029355
144	0xbd33cc9b	-0.0438963
145	0xbc7802bb	-0.01513737
146	0x3d3c92c5	0.046038408
147	0xbd217bef	-0.039424833
148	0x3d6c8fe8	0.057754427
149	0x3da5dbc8	0.080985606
150	0xbc5886b3	-0.013215709
151	0xbcc63fdb	-0.02420037
152	0x3cc6e939	0.024281131
153	0xbb9bd067	-0.004755068
154	0xbd351f26	-0.04421916
155	0x3dadf04d	0.08493099
156	0xbda57444	-0.080788165
157	0xbda55984	-0.080737144
158	0x3d44a025	0.04800429
159	0xbd83eb39	-0.064413495
160	0x3cf53aed	0.029935325
161	0x3c0a952d	0.008458418
162	0xbcdf2bf0	-0.02724263
163	0xbd8e8c8b	-0.069604
164	0x3d9a5c13	0.07537093
165	0x3d5a17e4	0.05324544
166	0xbd87f1f2	-0.06637944
167	0x3d63f6f3	0.05565543
168	0xbda442dd	-0.08020566
169	0x3cb30920	0.021854937
170	0xbcdeb427	-0.027185513
171	0x3cfc1721	0.030772747
172	0xbd89d8f4	-0.06730834
173	0x3d061daa	0.032743134
174	0x3d98e78b	0.07466038
175	0xbda71a7a	-0.08159347
176	0xbda10a53	-0.07863297
177	0xbcbb5da0	-0.022871792
178	0xbd2b3286	-0.04179623
179	0xbd0ce7a4	-0.034400597
180	0xbd86763f	-0.065655224
181	0xbd4eb701	-0.050467495
182	0x3d5c5dde	0.053800456
183	0xbd2fbe2b	-0.042905968
184	0xbd3861cf	-0.045015153
185	0x3cfe511d	0.031044537
186	0x3d9dabf2	0.076988116
187	0xbd5a2f5f	-0.053267833
188	0x3d839668	0.06425172
189	0x3d0f5cec	0.035000727
190	0xba3a50f4	-0.00071074
191	0x3d5d41d8	0.05401787
192	0x3d7d048b	0.06177191
193	0x3d5f1152	0.054459877
194	0xbc874b6f	-0.016515462
195	0xbd68b38a	-0.056811847
196	0x3c6de48f	0.014519825
197	0xbd024d2c	-0.031811878
198	0x3d126219	0.035738084
199	0x3ccacea1	0.024756731
200	0x3c5c7f12	0.01345803
201	0x3c71fab4	0.014769245
202	0x3d8de028	0.0692752
203	0xbc8e6d2f	-0.017386047
204	0x3cc39c61	0.023878278
205	0x3d6c47c6	0.057685636
206	0x3bbb6de5	0.0057198876
207	0x3ccb04fc	0.02478265
208	0xbcf4bc8d	-0.029875064
209	0xbd227b5a	-0.03966842
210	0x3dac9ab6	0.08427946
211	0x3cfa4264	0.030549236
212	0x3d063314	0.032763556
213	0xbd6e0847	-0.058113363
214	0x3cab5eec	0.020919286
215	0xbc1bb39b	-0.0095032705
216	0xbd63d104	-0.055619255
217	0x3cf8523b	0.030312648
218	0x3d5879ff	0.05285072
219	0x3da8f6ec	0.082502216
220	0xbd40ef83	-0.047103416
221	0x3da2aea2	0.07943465
222	0x3d4d4017	0.05010995
223	0xbbab5514	-0.005228648
224	0xbd0b7bd2	-0.03405363
225	0xbd6dc8a6	-0.05805268
226	0xbcd15280	-0.025552034
227	0xbd4e19df	-0.05031764
228	0xbcc411a0	-0.023934186
229	0xbc1cb4d8	-0.009564601
230	0xbd879ab2	-0.06621303
231	0xbbdbb6a9	-0.0067051244
232	0xbd752b44	-0.059855714
233	0xbc2d06b4	-0.01056068
234	0x3dada434	0.08478585
235	0xbcd4e685	-0.025988827
236	0xbd24e7e5	-0.040260214
237	0xbcaad91f	-0.020855485
238	0xbdab22dd	-0.08356259
239	0xbd3783a5	-0.04480328
240	0x3d47b8d0	0.048760235
241	0xbd3d70af	-0.04625004
242	0xbd0e4b8c	-0.034740016
243	0x3d9090ef	0.07058894
244	0xbdb1c22f	-0.08679616
245	0xbc61a333	-0.01377182
246	0xbd2e34e0	-0.042530894
247	0x3d55c00e	0.05218511
248	0xbcac301a	-0.02101903
249	0x3c2387b4	0.009981085
250	0x3b33abe0	0.0027415678
251	0x3cb0b0c1	0.021568658
252	0x3d07d7cf	0.033164795
253	0xba8cd9b8	-0.0010746038
254	0xbdac5de4	-0.08416346
255	0xbd9b57dc	-0.07585117

layer.1.bias f4 [64]
0	0xbd9ac07c	-0.07556245
1	0xbcebc2db	-0.028779438
2	0xbd473205	-0.048631687
3	0x3d6607b8	0.056159705
4	0xbd3b7334	-0.045764163
5	0xbd1b0f6d	-0.037856508
6	0xbc89b3bf	-0.016809342
7	0x3cf169cb	0.029469391
8	0x3d4bc295	0.049746115
9	0xbd06755c	-0.032826766
10	0x3db08129	0.08618385
11	0xbd8b6182	-0.068057075
12	0x3d8bd34d	0.06827412
13	0xbd35b52c	-0.044362232
14	0xbc07cdec	-0.008288842
15	0xbc40ce70	-0.011767969
16	0xbd1ebcb8	-0.038754195
17	0xbc7c57e8	-0.015401818
18	0xbd27a27a	-0.040926434
19	0xbcee795e	-0.029110607
20	0xbd91f492	-0.07126726
21	0x3d05d0a3	0.032669675
22	0x3d04acef	0.032391485
23	0xbc80ecfb	-0.015738001
24	0x3dab599b	0.083667
25	0x3db1ad38	0.08675617
26	0xbd01a6e2	-0.031653292
27	0xbbfc4a40	-0.007699281
28	0xbc91839f	-0.017762957
29	0xbaac3cb4	-0.001314065
30	0x3c9e0490	0.019289285
31	0x3cd50daa	0.026007492
32	0x3dad974d	0.08476124
33	0x3ccea0d8	0.02522318
34	0xbda9a057	-0.082825355
35	0x3da43ecd	0.08019791
36	0x3d5c2b2f	0.05375212
37	0x3d064fbb	0.03279088
38	0x3d653e78	0.055967778
39	0xbd43d05e	-0.047806136
40	0x3d1b2959	0.03788123
41	0xbcc143b0	-0.023591846
42	0x3c52784c	0.012846064
43	0x3ce433f8	0.027856812
44	0xbd23988e	-0.03994041
45	0x3c565908	0.01308275
46	0x3ab33bce	0.0013674439
47	0xbb0ec70e	-0.0021786126
48	0xbcf98dc0	-0.0304631
49	0x3d85d927	0.06535559
50	0xbd2803b7	-0.041019168
51	0xbc7d8023	-0.015472445
52	0xbda427ee	-0.080154285
53	0x3d854546	0.065073535
54	0x3d47efb9	0.0488126
55	0x3d6483e5	0.055789847
56	0x3d17614c	0.036958024
57	0xbd7e697f	-0.062112328
58	0xbce6aaff	-0.02815771
59	0xbc95c71c	-0.01828342
60	0x3cb29e8a	0.021804113
61	0x3cdf4b70	0.027257651
62	0x3cf46a39	0.029835807
63	0xbd1d9761	-0.038474444

layer.2.weight f4 [32, 64]
0	0xbde2e657	-0.1107909
1	0x3dc9eb5d	0.09859345
2	0xbdc7c3c5	-0.09754137
3	0xbb981b85	-0.0046419525
4	0xbac29c4d	-0.0014847607
5	0xbdfa7c61	-0.12230755
6	0xbdabdb9d	-0.08391497
7	0xbd9f813b	-0.07788321
8	0x3c9a4208	0.018830314
9	0xbdf388b8	-0.118913114
10	0xbdee4d99	-0.11635894
11	0x3d41ea5f	0.047342654
12	0xbde486cb	-0.11158522
13	0x3d82ef90	0.06393349
14	0x3baae128	0.005214829
15	0x3aad2ea8	0.0013212757
16	0xbce4d570	-0.027933806
17	0xbd5023ab	-0.050815266
18	0xbc661d68	-0.014045097
19	0x3dd3d09b	0.10342523
20	0x3d4d2ee6	0.050093554
21	0x3d988f2b	0.07449182
22	0x3d8a447e	0.06751345
23	0x3dafe6f5	0.085889734
24	0x3d85fd2f	0.065424316
25	0x3de32c6e	0.11092459
26	0xbd97531d	-0.073888995
27	0xbdaae05a	-0.08343573
28	0x3d85e1bf	0.06537198
29	0x3dcb776e	0.09934889
30	0xbd16d424	-0.036823407
31	0xbdc79f4a	-0.09747179
32	0x3ccd3a5f	0.025052248
33	0x3dc0e16c	0.09417996
34	0xbdb977ed	-0.09056077
35	0x3df066a9	0.11738331
36	0x3ccbaff1	0.024864169
37	0x3cf2bec0	0.029631972
38	0xbd40dc00	-0.04708481
39	0x3dfcfba0	0.12352681
40	0x3c315de4	0.010825608
41	0x3cc001f8	0.023438439
42	0xbd9d3024	-0.07675198
43	0x3dee9b51	0.11650718
44	0xbd471247	-0.048601415
45	0xbd3ca464	-0.046055213
46	0x3d1735e5	0.036916632
47	0x3cda72c4	0.026666053
48	0xbdd8d7b8	-0.1058802
49	0xbbbc9653	-0.0057552247
50	0xbdbd21cc	-0.09234962
51	0x3d61d66b	0.055136126
52	0xbdfe835e	-0.124274
53	0xbdcbf652	-0.09959091
54	0xbdfab055	-0.12240664
55	0xbdbd48ff	-0.092424385
56	0xbc65a535	-0.014016439
57	0x3dc30a32	0.09523429
58	0xbdd3c065	-0.10339431
59	0xbc04cd59	-0.008105599
60	0x3cd60b02	0.026128296
61	0xbd1fc93e	-0.03901028
62	0x3cb8f62a	0.022578318
63	0xbdfbd617	-0.12296694
64	0x3ba50a33	0.005036616
65	0xbd390319	-0.04516897
66	0x3d29031a	0.041262724
67	0x3dca9879	0.09892363
68	0xbdd1dbc4	-0.10246995
69	0x3dc9faa3	0.09862258
70	0x3d7e9f98	0.06216392
71	0xbcfb9f75	-0.030715683
72	0xbd91165e	-0.07084344
73	0xbc972fb4	-0.018455364
74	0x3d7e3a35	0.06206723
75	0xbd8c21aa	-0.068423584
76	0x3d6c1a35	0.05764218
77	0x3cbea93b	0.023274055
78	0xbe00b6d6	-0.12569746
79	0x3cb510d7	0.022102756
80	0x3d0b9a61	0.034082774
81	0x3c1befb3	0.009517598
82	0xbcb6ec7e	-0.022329565
83	0xbdc205be	-0.094737515
84	0x3cc748d7	0.024326725
85	0xbc093804	-0.008375172
86	0xbca50082	-0.020141844
87	0x3b9ca681	0.004780591
88	0x3cc3d924	0.023907252
89	0x3cbe9337	0.023263557
90	0xbc82e569	-0.015978532
91	0xbd9e5c61	-0.07732464
92	0xbdb97d02	-0.090570465
93	0x3d55e689	0.05222181
94	0x3caac46d	0.020845616
95	0xbdfca1df	-0.12335562
96	0x3d7fc65b	0.062445026
97	0x3d40d142	0.047074564
98	0xbddf0ba9	-0.10890896
99	0x3d808d8c	0.06276998
100	0x3d0f89d1	0.03504354
101	0xbdca3867	-0.09874039
102	0xbd4e8039	-0.05041525
103	0xbd7422c7	-0.05960348
104	0xbd92807d	-0.071534134
105	0x3d1ef56d	0.038808275
106	0xbde0f53d	-0.109842755
107	0xbdd4f351	-0.103979714
108	0x3d53894c	0.05164461
109	0xbd374151	-0.044740025
110	0xbd21e0b7	-0.039520945
111	0xbdf04ca5	-0.11733369
112	0x3c7770bd	0.0151025625
113	0xbd271220	-0.04078877
114	0x3d87cf77	0.06631368
115	0xbb352024	-0.0027637566
116	0xbdf4066b	-0.11915287
117	0xbd2debdb	-0.042461257
118	0x3da70bd8	0.08156556
119	0xbd3730de	-0.044724338
120	0xbbb06f8f	-0.0053843926
121	0x3e07a420	0.13246202
122	0xbd69c4c4	-0.057072416
123	0x3dfbbbd2	0.12291683
124	0xbde5d971	-0.11223114
125	0x3dbd426a	0.09241183
126	0x3d8d8f77	0.06912129
127	0xbc32bd8c	-0.010909449
128	0xbbeb6174	-0.007183248
129	0x3ce609d6	0.028080862
130	0xbcde7602	-0.02715588
131	0xbd85c824	-0.065323144
132	0xbd4e379b	-0.050346
133	0x3c2217ce	0.009893371
134	0x3df29c82	0.11846258
135	0x3d466e40	0.048444986
136	0xbd3bde28	-0.04586616
137	0xbc8a0837	-0.01684962
138	0x3daf84c2	0.085702434
139	0x3db15864	0.08659437
140	0xbdbdde59	-0.09270925
141	0x3d6e1243	0.058122884
142	0xbdc81999	-0.09770507
143	0x3c687415	0.014187832
144	0xbda8669d	-0.08222697
145	0x3d0ff8bb	0.035149317
146	0x3dc3de74	0.09563914
147	0xbcc097d0	-0.02350989
148	0x3d042cc3	0.03226925
149	0x3d97640e	0.07392131
150	0xbd706ca7	-0.05869737
151	0x3b389a9f	0.0028168333
152	0xbdbaf34b	-0.09128436
153	0xbda10cf7	-0.07863801
154	0x3de6c0b0	0.11267221
155	0x3d934399	0.071906276
156	0xbda6ea48	-0.08150154
157	0xbd705012	-0.05867011
158	0x3dea20d5	0.114320435
159	0x3d9af7c0	0.07566786
160	0x3df74519	0.12073726
161	0xbd07859c	-0.033086404
162	0x3dd6d421	0.10489679
163	0x3dce3643	0.10068943
164	0xbce8b3d8	-0.028406069
165	0x3dfb05a6	0.12256937
166	0x3daadf70	0.083433986
167	0x3dbe8d03	0.093042396
168	0xbd757b0d	-0.059931803
169	0xbc9c145f	-0.019052682
170	0x3c4f019d	0.012634662
171	0xbde8ebfd	-0.11373136
172	0xbd5742a9	-0.052553806
173	0xbdc6beb4	-0.097043425
174	0x3dc28fab	0.09500059
175	0x3da72567	0.08161431
176	0xbd5d5184	-0.054032817
177	0xbdcd2e39	-0.10018582
178	0x3c38dc3a	0.011282975
179	0xbdf438cb	-0.11924895
180	0xbdd7962e	-0.105266914
181	0xbdbb9623	-0.09159496
182	0xbd099387	-0.03358796
183	0xbdd44c79	-0.103661485
184	0xbdf2a3f9	-0.118476816
185	0x3ce41e7e	0.027846571
186	0x3dec0e2e	0.11526142
187	0xbd538dd0	-0.051648915
188	0xbdd5fc73	-0.104485415
189	0x3d81d77d	0.06339929
190	0xbdd60984	-0.10451034
191	0x3df7c131	0.12097395
192	0x3d7ee72b	0.062232178
193	0x3d7c4221	0.061586503
194	0x3deb0420	0.11475396
195	0x3d506c22	0.050884373
196	0x3d808f0a	0.062772825
197	0xbde60cf0	-0.112329364
198	0xbda4cabb	-0.0804648
199	0x3d901448	0.07035118
200	0x3d86c383	0.0658026
201	0x3d5be708	0.053687125
202	0xbd7c7022	-0.061630376
203	0xbd37c35c	-0.044864044
204	0xbd65b342	-0.056079157
205	0xbd46b717	-0.04851445
206	0xbda72d51	-0.0816294
207	0x3dd2687f	0.10273837
208	0xbd0414a8	-0.03224626
209	0x3d79f48c	0.061024234
210	0xbd6a852f	-0.05725592
211	0x3dbc6b94	0.092002064
212	0xbd0213f4	-0.03175731
213	0xbd8e35b2	-0.06943835
214	0x3cb9e2f8	0.022691235
215	0x3d837479	0.064187
216	0xbdd7c030	-0.10534704
217	0x3da3fc3c	0.08007094
218	0x3dc53a6a	0.09630282
219	0xbc10fb16	-0.008848926
220	0x3dcc758e	0.09983359
221	0xbd23bceb	-0.039975088
222	0x3dd71d8e	0.10503684
223	0xbccad4e7	-0.024759723
224	0xbdd267e4	-0.10273722
225	0xbd96475c	-0.073378295
226	0x3de6b80d	0.11265574
227	0x3d98b5b1	0.0745653
228	0xbc2cf6c4	-0.01055688
229	0x3b948a90	0.0045331195
230	0xbb6470ba	-0.003485723
231	0x3d52ba76	0.051447354
232	0xbd839808	-0.06425482
233	0xbdb98715	-0.09058968
234	0xbde12a0b	-0.10994347
235	0xbc1f947e	-0.009739993
236	0xbd057d00	-0.032589912
237	0x3d6fee14	0.05857666
238	0xbd8cabfb	-0.0686874
239	0x3b5fcae1	0.0034148025
240	0xbda627f9	-0.08113093
241	0xbd0a2db7	-0.033735003
242	0xbcb2fd96	-0.021849435
243	0x3d375ff7	0.044769254
244	0xbdb89127	-0.090120606
245	0x3c6be882	0.014398696
246	0xbd015e5c	-0.03158413
247	0xbbb12965	-0.005406546
248	0xbc44a49e	-0.012002138
249	0xbd1d041f	-0.03833401
250	0x3dcda11b	0.10040494
251	0xbdacc792	-0.084365025
252	0xbdd09cfd	-0.10186193
253	0x3db8017e	0.089846596
254	0x3d8eb357	0.069678
255	0xbcd2cb5d	-0.025731737

layer.2.bias f4 [32]
0	0xb8cbb000	-9.712577e-05
1	0xbdf1a0c0	-0.11798239
2	0x3c077610	0.008267894
3	0x3d271d48	0.04079941
4	0x3dba4874	0.090958506
5	0xbd6057c8	-0.054771215
6	0xbdd8f74e	-0.105940446
7	0x3cc99fc0	0.024612308
8	0xbcb8eb98	-0.022573277
9	0xbd1c1484	-0.038105503
10	0x3d55cb8c	0.05219607
11	0xbde81288	-0.113316596
12	0x3da89be8	0.08232862
13	0xbdfda5a8	-0.12385112
14	0xbd418100	-0.047242165
15	0xbd40e814	-0.047096327
16	0x3d2877c0	0.041129827
17	0x3cb7cbe8	0.022436097
18	0xbdca7a74	-0.09886637
19	0xbd914eaa	-0.07095082
20	0xbd63756c	-0.055531904
21	0x3b496840	0.0030732304
22	0x3d7cbfec	0.06170647
23	0x3b97e740	0.0046357214
24	0xbd8aca28	-0.067768395
25	0xbda00086	-0.078126
26	0xbb45ee00	-0.0030201674
27	0xbd1fa634	-0.038976863
28	0xbc92da78	-0.01792644
29	0x3db75978	0.08952612
30	0xbc4187f0	-0.011812195
31	0x3de26fcc	0.1105648

layer.3.weight f4 [1, 32]
0	0x3d6a5d38	0.057217807
1	0x3d2ed5b8	0.042684287
2	0xbe0f800d	-0.14013691
3	0xbdb905f0	-0.090343356
4	0x3bd12286	0.0063822893
5	0x3db205d0	0.08692515
6	0x3da69b88	0.08135134
7	0x3d981b2f	0.0742706
8	0xbdfa00a2	-0.12207152
9	0x3b5d5107	0.003377022
10	0xbdc9084a	-0.09816034
11	0xbdcd2649	-0.10017068
12	0x3ded1840	0.11576891
13	0x3e262ec4	0.16228777
14	0xbdc663e8	-0.09687024
15	0x3de8ca57	0.11366718
16	0x3d9f2eb0	0.07772577
17	0x3de8c1b6	0.113650724
18	0x3e078b98	0.13236845
19	0xbb7525d5	-0.0037406583
20	0x3c2a6d55	0.010402043
21	0xbcd91262	-0.026498023
22	0xbc17e072	-0.0092698205
23	0xbbc4d9a2	-0.006007389
24	0xbd69134c	-0.05690317
25	0xbe2999ca	-0.16562572
26	0x3e04d873	0.12973194
27	0x3de3377e	0.11094569
28	0xbc4ba660	-0.012429804
29	0x3e12abef	0.143234
30	0xbdf9bd87	-0.121943526
31	0x3c06eaa1	0.008234651
