src/models/v2/pretrained_models/silverstone_model_v2.pt (torch, 54383 bytes, 7 tensors)

layer.0.weight f4 [128, 16]
0	0xbd4e5370	-0.05037254
1	0xbe6b6f45	-0.22991665
2	0xbd4a6262	-0.04941023
3	0xbe313e94	-0.17309028
4	0x3e0493b4	0.1294697
5	0x3df9aa80	0.121907234
6	0x3e2f9134	0.17145234
7	0x3d76f1da	0.06028924
8	0xbe4bc962	-0.1990104
9	0xbcd98204	-0.026551254
10	0xbc0ceb7f	-0.0086010685
11	0x3e7218a4	0.23642212
12	0xbc4556f8	-0.012044661
13	0x3e4c92de	0.199779
14	0x3e7b806b	0.24560706
15	0xbe4b4de0	-0.19853926
16	0x3bcec840	0.0063104928
17	0xbc043667	-0.008069611
18	0xbc834ceb	-0.016027888
19	0x3c9af075	0.018913487
20	0xbe3982b5	-0.18116267
21	0xbe2c585b	-0.1683058
22	0xbd20cf4b	-0.03926019
23	0xbe87aa85	-0.26497284
24	0xbd53cb7b	-0.051707726
25	0x3e08f577	0.13374887
26	0x3cfb239a	0.030656625
27	0xbd1a8528	-0.037724644
28	0x3e283a31	0.16428448
29	0xbd077c08	-0.03307727
30	0x3dff496d	0.12465177
31	0xbdb8a2ca	-0.090154245
32	0x3e7fe858	0.24990976
33	0x3d7054be	0.058674566
34	0xbe701622	-0.23445943
35	0x3dc3a3d4	0.09552732
36	0xbe5d48c5	-0.2160979
37	0xbe117e09	-0.14208235
38	0xbce2f18c	-0.02770307
39	0x3c2e003c	0.010620173
40	0x3e4edb7f	0.20200919
41	0xbe61b79c	-0.22042698
42	0x3d86e8b7	0.065873556
43	0xbde80a21	-0.11330057
44	0xbda21f5b	-0.07916137
45	0xbe1780a0	-0.1479516
46	0x3e761e9f	0.24035119
47	0x3e1e638e	0.15467665
48	0xbba87180	-0.0051404834
49	0xbe7b80ae	-0.24560806
50	0xbe5914ce	-0.21199343
51	0xbd24b67a	-0.040213086
52	0xbdfc6dfe	-0.12325667
53	0x3ae77469	0.0017658594
54	0x3e112edd	0.14178033
55	0xbdff5f07	-0.12469297
56	0xbe0601ab	-0.13086574
57	0x3d07e684	0.03317882
58	0x3ddc3937	0.107531
59	0x3e5d3c73	0.21605091
60	0xbdb8f160	-0.09030414
61	0x3d29ff5f	0.041503306
62	0xbe3229f4	-0.17398816
63	0x3e01aee1	0.12664367
64	0x3dde4390	0.1085273
65	0xbe213b75	-0.15745337
66	0xbe345231	-0.17609479
67	0xbe0fed5c	-0.14055389
68	0x3d930a1b	0.07179662
69	0xbe62e9ef	-0.22159551
70	0x3d5696db	0.05238996
71	0x3e6ed8f4	0.23324949
72	0xbe1fd530	-0.15608668
73	0xbd87d32c	-0.06632075
74	0x3e1f5443	0.15559487
75	0x3da50eae	0.080594406
76	0x3dd242a7	0.10266619
77	0x3b4f8698	0.0031665917
78	0xbe86f38f	-0.26357695
79	0xbe6dbe8f	-0.23217224
80	0xbcd7ea60	-0.026356876
81	0x3e4909fc	0.19632715
82	0x3d9decda	0.077111915
83	0x3c1f50d8	0.0097238645
84	0x3d6f7c30	0.058468044
85	0x3c135801	0.00899315
86	0x3e34102d	0.17584296
87	0x3e28c9cf	0.16483234
88	0x3ddf5067	0.109040074
89	0x3e5a3993	0.21311025
90	0xbe241b45	-0.16026028
91	0x3e4ada40	0.19809818
92	0xbd56b130	-0.052415073
93	0xbe6bd724	-0.23031288
94	0xbd23195c	-0.039819106
95	0x3db5b1de	0.08871816
96	0x3dff3804	0.12461856
97	0xbe0c09fd	-0.13675685
98	0xbcfb23d0	-0.030656725
99	0x3d8f4b04	0.0699673
100	0xbdf52b3f	-0.11971139
101	0xbe2cbee2	-0.16869691
102	0xbda641bf	-0.08118009
103	0xbe09572c	-0.1341216
104	0xbe2f9c73	-0.17149524
105	0x3dfb42a7	0.12268572
106	0x3e3974a1	0.18110897
107	0xbe082a71	-0.1329744
108	0xbdf81b24	-0.12114552
109	0xbe5e76f7	-0.21725069
110	0xbdb48b64	-0.08815649
111	0x3e1b2514	0.15150863
112	0x3de8f680	0.11375141
113	0xbde44712	-0.11146368
114	0xbe1f2b93	-0.15543966
115	0xbd428181	-0.047486786
116	0xbdcd7151	-0.10031379
117	0x3e0975ff	0.13423918
118	0xbd23b453	-0.039966892
119	0xbe416a6d	-0.18888254
120	0x3e08fad4	0.13376933
121	0x3e06b2c4	0.13154131
122	0xbe42c5e7	-0.19020806
123	0x3dd2eb52	0.1029879
124	0xbe65826d	-0.22413035
125	0x3dccdf6d	0.100035526
126	0x3a47853a	0.00076111
127	0x3e4b3452	0.19844177
128	0x3e7b87a4	0.24563462
129	0x3db0d91c	0.0863516
130	0xbdb29ec6	-0.0872169
131	0xbdd11c96	-0.102105305
132	0x3d3dd79d	0.046348203
133	0x3e760d0b	0.24028413
134	0x3e5ac8ce	0.21365663
135	0x3dd1eeef	0.10250651
136	0xbe58408f	-0.21118377
137	0x3e3409c7	0.17581855
138	0xbe174ebf	-0.14776133
139	0xbdf417cc	-0.119186014
140	0x3e5749bb	0.2102422
141	0xbe621e2c	-0.22081822
142	0x3d8c4c4e	0.068504915
143	0xbd0a86c7	-0.03381994
144	0xbe077e36	-0.1323174
145	0xbd15a0e1	-0.03653038
146	0xbe0c84e3	-0.13722567
147	0xbd3a30a9	-0.045456562
148	0xbe32fab1	-0.17478444
149	0xbd300138	-0.042969912
150	0xbdd56777	-0.10420125
151	0x3c899185	0.016793022
152	0xbde850d5	-0.113435425
153	0xbe3348d9	-0.17508258
154	0x3ddae505	0.10688213
155	0xbd0979a2	-0.033563264
156	0x3d478f05	0.04872038
157	0xbdbd9cad	-0.09258399
158	0xbb8c0b9f	-0.0042738463
159	0xbb9cdae4	-0.004786836
160	0x3ddccca0	0.107812166
161	0xbd93c10e	-0.07214557
162	0x3e211748	0.15731537
163	0xbe6192f4	-0.22028714
164	0x3e51633a	0.20448008
165	0xbe0ba90a	-0.13638702
166	0xbe617a76	-0.22019371
167	0xbe35d47f	-0.17756842
168	0x3e32308e	0.17401335
169	0x3d3bfe1c	0.045896634
170	0x3da3ace8	0.079919636
171	0x3dde3278	0.1084947
172	0xbe5a98cb	-0.21347348
173	0x3d837b2f	0.0641998
174	0xbd8b8228	-0.06811935
175	0x3e33f270	0.17572951
176	0xbe1589a0	-0.14603281
177	0x3d4fdd80	0.05074835
178	0xbe2c19ff	-0.16806792
179	0xbdf6177e	-0.120161995
180	0x3cbb104e	0.022834923
181	0xbc8b5018	-0.017005965
182	0xbcf13d08	-0.029448047
183	0xbe5bb2b3	-0.21454887
184	0xbd548b57	-0.051890697
185	0xbe701be1	-0.23448135
186	0x3de1527c	0.11002061
187	0xbdc33db3	-0.095332526
188	0x3db6438c	0.08899602
189	0xbdf764cf	-0.120797746
190	0x3e4e6678	0.20156276
191	0x3de9c82b	0.11415132
192	0x3e160156	0.14648947
193	0xbc2aaf8b	-0.010417829
194	0x3e307037	0.17230307
195	0xbe21433b	-0.15748303
196	0x3e25835d	0.16163392
197	0x3d5a2967	0.05326214
198	0xbe1ea31b	-0.15491907
199	0x3d37e8b1	0.044899646
200	0xbe852785	-0.26006714
201	0xbc55d44e	-0.013051106
202	0xbd1e8e22	-0.038709767
203	0x3b9137f3	0.0044317185
204	0xbdf4672b	-0.1193374
205	0xbe641fc5	-0.22277744
206	0x3e45a2d8	0.19300401
207	0xbc902989	-0.01759793
208	0xbd8ea17c	-0.069643945
209	0x3ce8b7a1	0.028407874
210	0x3e40a263	0.18811946
211	0xbe4f4ff4	-0.20245343
212	0xbe36f9b5	-0.17868693
213	0x3e0298f7	0.12753664
214	0xbe076aab	-0.13224284
215	0xbe04ac30	-0.1295631
216	0xbddbf54c	-0.10740146
217	0x3e4d459c	0.20046085
218	0xbdc30310	-0.095220685
219	0x3e1dc9b1	0.1540897
220	0x3e529461	0.20564415
221	0x3d26e3da	0.04074464
222	0x3e024540	0.1272173
223	0xbcb522ec	-0.022111379
224	0x3e5896d0	0.2115128
225	0xbdde30fd	-0.108491875
226	0x3e101be9	0.14073147
227	0x3c6b39f9	0.0143570835
228	0x3e183849	0.14865221
229	0xbe4adb7d	-0.1981029
230	0x3e45f6cc	0.19332427
231	0x3e505ffa	0.20349112
232	0x3e7d322b	0.24726169
233	0xbcbcaec1	-0.023032548
234	0xbe8106a0	-0.25200367
235	0x3d9e720e	0.07736598
236	0xbd83f874	-0.06443873
237	0x3e26ca29	0.16288055
238	0x3ccf585e	0.025310691
239	0x3d28262f	0.04105204
240	0xbda12688	-0.078686774
241	0xbd80d540	-0.06290674
242	0xbd1574b7	-0.03648826
243	0xbe3497da	-0.17636052
244	0x3e2ce7e6	0.16885337
245	0x3d691dc2	0.056913145
246	0xbe0afc6a	-0.13572851
247	0x3e222d3b	0.15837567
248	0xbe2f832b	-0.1713988
249	0xbdfbda38	-0.12297481
250	0xbda01779	-0.07816977
251	0x3c701dc5	0.014655535
252	0x3e505705	0.20345695
253	0xbe5a0897	-0.2129234
254	0xbe677618	-0.22603643
255	0xbd687ade	-0.0567578

layer.0.bias f4 [128]
0	0xbdb85004	-0.08999637
1	0xbe1c0a62	-0.15238336
2	0xbc854e60	-0.016272724
3	0xbe24f266	-0.16108093
4	0xbe7d8f36	-0.24761662
5	0x3e3f6cd2	0.18693855
6	0x3cab48b0	0.020908684
7	0xbe0f6cd0	-0.14006352
8	0x3daf2afc	0.085531205
9	0x3e372970	0.17886901
10	0xbe46d01e	-0.19415328
11	0xbdd10f54	-0.10208002
12	0x3df00bcc	0.11721
13	0x3e263312	0.1623042
14	0x3d57f0d8	0.05271992
15	0xbd762110	-0.060090125
16	0xbd8cf340	-0.06882334
17	0xbcc4f580	-0.024042845
18	0xbe0156a6	-0.1263071
19	0xbe1e0340	-0.15430927
20	0xbe03bbe6	-0.12864646
21	0xbe24eb74	-0.16105443
22	0xbc7830a0	-0.015148312
23	0x3cec8490	0.028871804
24	0xbd7584f0	-0.059941232
25	0xbe5cea64	-0.21573788
26	0xbbd4db40	-0.006495863
27	0xbc86ff60	-0.016479194
28	0xbd4cdec0	-0.05001712
29	0x3b40c100	0.0029411912
30	0x3dea87ac	0.114516586
31	0x3da781ac	0.0817903
32	0xbdda977c	-0.106734246
33	0xbcd8a520	-0.026445925
34	0x3e22fa5e	0.1591582
35	0xbca2b3f0	-0.019861192
36	0xbdce2050	-0.10064757
37	0x3c8eecf0	0.017446965
38	0xbe74adf0	-0.23894477
39	0xbe3e9a26	-0.1861349
40	0xbe5e9cda	-0.21739522
41	0x3df8587c	0.12126252
42	0x3e691760	0.22762823
43	0xbdace428	-0.08441955
44	0x3e5f4ac6	0.21805868
45	0xbe7b28ac	-0.24527234
46	0xbc7952c0	-0.015217483
47	0xbd183c58	-0.037166923
48	0x3cd188a0	0.025577843
49	0x3e2eae7a	0.17058745
50	0x3e4c8982	0.1997433
51	0x3e08c404	0.13356024
52	0x3de9d1dc	0.114169806
53	0x3d87fa0c	0.066394895
54	0xbe76985c	-0.24081558
55	0x3e4ea6ca	0.20180812
56	0xbd1c6370	-0.03818077
57	0x3dc01dc8	0.0938068
58	0xbe090b26	-0.13383159
59	0x3ceb9970	0.028759688
60	0x3e304a70	0.17215896
61	0xbe2d40e0	-0.16919279
62	0xbe5606ae	-0.20900986
63	0xbc10d060	-0.008838743
64	0xbd81c6b4	-0.06336728
65	0x3e237d50	0.15965772
66	0x3e752c3e	0.23942658
67	0x3e0e5f4e	0.13903543
68	0x3e1fd6f8	0.15609348
69	0x3d2929b0	0.041299522
70	0x3d90d40c	0.07071695
71	0x3e02c16c	0.12769097
72	0xbe263d68	-0.16234362
73	0x3dde845c	0.10865089
74	0xbe4208b2	-0.1894863
75	0x3e5e12ce	0.21686861
76	0xbcc4d160	-0.024025619
77	0xbd1a3e58	-0.037657112
78	0x3d037db0	0.032102287
79	0x3dc9aef8	0.09847826
80	0xbcb7e000	-0.022445679
81	0xbe60d5f0	-0.2195661
82	0xbcbfc450	-0.023409039
83	0xbe512476	-0.20424065
84	0x3d3fcd78	0.04682681
85	0xbd88ed4c	-0.06685886
86	0xbd741d18	-0.05959806
87	0xbcafb9e0	-0.021450937
88	0x3e7b86ea	0.24563184
89	0xbe25c730	-0.16189265
90	0x3e242dc4	0.16033083
91	0xbcbc13b0	-0.022958606
92	0xbe3b05f2	-0.18263987
93	0x3deb94cc	0.1150299
94	0x3e3ec9a6	0.1863161
95	0xbb4d1380	-0.003129214
96	0x3e75c1c2	0.23999694
97	0xbe7f1d78	-0.24913585
98	0x3e654a76	0.22391686
99	0xbd9c3b6c	-0.07628521
100	0x3da6a46c	0.0813683
101	0x3ce03a90	0.027371675
102	0xbe0e17fc	-0.13876337
103	0x3e37a55a	0.1793417
104	0x3d7f9cc0	0.062405348
105	0xbe3b5bce	-0.1829674
106	0xbdb427d4	-0.08796659
107	0x3e0f5d12	0.14000347
108	0x3de8abc0	0.11360884
109	0xbe37fba2	-0.17967084
110	0x3d72f3a0	0.05931437
111	0xbe327bf8	-0.17430103
112	0x3dd94b88	0.106101096
113	0x3dfc52c8	0.12320477
114	0x3e4856ec	0.19564408
115	0x3bc68f00	0.0060595274
116	0xbe1df542	-0.1542559
117	0x3d8c72e8	0.06857854
118	0xbe758fc8	-0.2398063
119	0x3c7649a0	0.015032202
120	0xbe789bca	-0.24278179
121	0x3da2c170	0.079470515
122	0x3e4cf200	0.2001419
123	0x3e5a73b4	0.213332
124	0x3e5cac86	0.21550187
125	0x3d319848	0.043358117
126	0x3dfe72e4	0.124242574
127	0xbe35cd8a	-0.17754188

layer.1.weight f4 [64, 128]
0	0xbc9d590e	-0.019207504
1	0x3d5432a6	0.051806115
2	0x3b4ca1b3	0.003122431
3	0x3c92f91d	0.017941052
4	0x3d82e201	0.06390763
5	0xbcf4efad	-0.029899443
6	0x3d0abde3	0.033872496
7	0x3cca2337	0.024674995
8	0x3c1cfb32	0.009581374
9	0x3cd2a47b	0.025713196
10	0x3d37446c	0.044742987
11	0x3d12a4e8	0.035801798
12	0xbd4ee74e	-0.050513558
13	0x3c146c05	0.009058957
14	0xbd6b5d62	-0.057462104
15	0xbd8f872f	-0.07008206
16	0x3c22dce8	0.0099403635
17	0xbce10f71	-0.027473183
18	0xbd1b5609	-0.037923846
19	0xbdb40a3b	-0.08791014
20	0xbcd14893	-0.025547301
21	0x3d5159a3	0.051110875
22	0xbd5584af	-0.05212849
23	0xbcd699f3	-0.026196456
24	0xbd01d3ca	-0.03169612
25	0xbd273043	-0.04081751
26	0xbc60ca43	-0.013720098
27	0xbc3c6eea	-0.011501053
28	0xbc98e78f	-0.018665103
29	0x3d42692e	0.04746359
30	0xbd3f0457	-0.046635
31	0x3d205ad7	0.03914913
32	0xbdb0dbfa	-0.08635707
33	0xbd54a45f	-0.05191457
34	0x3d2e3938	0.042535037
35	0xbce2a630	-0.027667135
36	0xbd27f0d4	-0.041001156
37	0xbb1fbdcc	-0.0024374602
38	0x3d317128	0.043320805
39	0xbb24d59a	-0.002515173
40	0xbd7b28ba	-0.061318137
41	0xbd073130	-0.033005893
42	0xbcbded3a	-0.023184408
43	0xbd8453bb	-0.06461283
44	0x3d115f32	0.035491176
45	0x3d996e53	0.07491746
46	0x3d1ce461	0.038303737
47	0x3d253691	0.04033524
48	0x3d10ffd5	0.03540023
49	0xbc88d9b1	-0.016705366
50	0xbd0c990b	-0.03432564
51	0x3ce13d13	0.027494943
52	0x3d6c80ab	0.057739895
53	0xbce321ef	-0.027726142
54	0xbd86b41a	-0.065773204
55	0x3cfe38e8	0.031032994
56	0xbcb1b644	-0.021693356
57	0x3d979db6	0.07403128
58	0x3ca7c4fe	0.020479675
59	0xbdc0c21f	-0.09412026
60	0x3af92797	0.0019008991
61	0xbd4b9257	-0.049700107
62	0x3d829cac	0.06377539
63	0xba2c7408	-0.00065785693
64	0x3d93c030	0.07214391
65	0x3cce3ad3	0.025174534
66	0x3cf64a43	0.030064708
67	0xbd548727	-0.051886704
68	0x3d1261cc	0.035737798
69	0xbd6f468e	-0.058416896
70	0xbd2c8527	-0.04211917
71	0x3d1fa693	0.038977217
72	0x3daf8124	0.085695535
73	0x3d47c9ce	0.04877644
74	0x3d8b7624	0.06809643
75	0xbd10f999	-0.035394285
76	0xbc9cde3a	-0.019148935
77	0x3d3a0146	0.04541137
78	0x3c428844	0.011873309
79	0x3dc8da64	0.0980728
80	0xbda0852a	-0.07837899
81	0x3c78f385	0.015194778
82	0xbc9f904b	-0.019477984
83	0x3d8aef91	0.06783975
84	0xbd4b268c	-0.049597308
85	0xbd2b97b2	-0.041892715
86	0xbcc9ba27	-0.024624897
87	0x3d82aebc	0.06380984
88	0xbda4582e	-0.080246314
89	0xbd8066c3	-0.062696
90	0x3c5afcd8	0.013365947
91	0xbd9a9a6e	-0.075489864
92	0x3d2652e6	0.0406064
93	0xbdca8553	-0.09888711
94	0x3d804db3	0.0626482
95	0x3d4d633a	0.050143458
96	0xbd295017	-0.041336145
97	0xbd8edbd0	-0.0697552
98	0x3d8ed1f0	0.06973636
99	0x3d99e8c6	0.07515101
100	0x3db6bf9d	0.08923266
101	0xbc03da23	-0.008047613
102	0xbcd4a364	-0.025956817
103	0xbd91d4df	-0.0712068
104	0xbc36fe34	-0.011169005
105	0xbd208c7b	-0.039196473
106	0x392ab25e	0.0001627891
107	0x3d4bc570	0.049748838
108	0x3dc5132c	0.09622797
109	0x3cf37690	0.029719621
110	0xbd8e9b08	-0.069631636
111	0x3cd964a7	0.026537253
112	0x3d7efadc	0.062250957
113	0xbdb605c7	-0.08887821
114	0x3dc77c82	0.09740545
115	0x3b6cabf1	0.0036113227
116	0x3c4241a0	0.0118564665
117	0x3d84d610	0.06486142
118	0x3d5d46bf	0.054022547
119	0xbcfac6a9	-0.030612307
120	0x3cd0de1e	0.025496539
121	0x3daefc8f	0.085442655
122	0xbd9c2f66	-0.07626228
123	0xbbb53bb9	-0.005530801
124	0x3dac11e0	0.08401847
125	0x3d50892e	0.050912075
126	0x3d62e698	0.055395693
127	0xbd8f7420	-0.07004571
128	0xbd20d1c4	-0.039262548
129	0x3dabb8a7	0.08384829
130	0xbda2bc6a	-0.079460934
131	0x3c2ffd45	0.0107415365
132	0x3cabc020	0.020965636
133	0x3c29635e	0.010338632
134	0x3d396198	0.04525909
135	0x3d6882c1	0.05676532
136	0x3d1a4e07	0.03767207
137	0xbcdbe165	-0.026840875
138	0x3d308e81	0.043104652
139	0xbd07023e	-0.032961123
140	0xbd2d9549	-0.042378698
141	0x3d6f9c46	0.058498643
142	0x39ac01e4	0.00032807805
143	0x3d05fa98	0.032709688
144	0x3cc79b3a	0.02436601
145	0xbd9461ea	-0.07245238
146	0xbd80569d	-0.0626652
147	0xbdb69ff3	-0.08917227
148	0x3db02d93	0.086024426
149	0xbd8f2819	-0.0699007
150	0xbd40f1c9	-0.047105584
151	0xbcbaab02	-0.022786621
152	0x3c9cc96c	0.019139014
153	0xbd9da73f	-0.07697915
154	0xbd343675	-0.043997247
155	0x3cb3feb3	0.021972036
156	0xbd24d053	-0.040237736
157	0x3da17831	0.07884253
158	0xbd1f36eb	-0.038870733
159	0xbd41c6e1	-0.047308806
160	0xbd1d5936	-0.038415156
161	0x3d803609	0.062603064
162	0x3d21312b	0.03935353
163	0x3a99e783	0.001174197
164	0x3d51ceb6	0.051222526
165	0x3d5301c6	0.051515363
166	0xbd80b946	-0.06285338
167	0xbd643edc	-0.05572401
168	0xbda43fd3	-0.08019986
169	0x3d4d3232	0.050096698
170	0x3d2cf8f3	0.042229604
171	0xbd02e00c	-0.03195195
172	0x3d3a3a56	0.04546579
173	0x3d039308	0.03212264
174	0x3b04a3f6	0.002023933
175	0x3c72b596	0.014813801
176	0xbdb1f275	-0.08688823
177	0x3d9edd08	0.07757002
178	0x3c91b0bc	0.017784469
179	0xbdb0f99f	-0.086413614
180	0xbd2b3df9	-0.04180715
181	0xbdb2ba44	-0.087269336
182	0x3d5041f2	0.05084414
183	0x3dab919f	0.083773844
184	0xbd162627	-0.03665748
185	0x3d3bf66c	0.045889303
186	0x3d2b5a93	0.041834425
187	0xbb873852	-0.004126587
188	0xbd8b7a5f	-0.0681045
189	0xbd9717a2	-0.073775545
190	0xbd9cb742	-0.07652141
191	0x3d2e99a5	0.042626996
192	0xbd06b83c	-0.032890543
193	0x3d8fa31d	0.07013533
194	0x3dadced9	0.08486719
195	0xbce48f51	-0.02790037
196	0x3d8be465	0.06830672
197	0xbc8200b7	-0.015869481
198	0x3d421015	0.04737862
199	0xbd080782	-0.033210285
200	0xbd97fe5f	-0.07421564
201	0xbd989ad3	-0.074514054
202	0x3d84efb9	0.06491036
203	0x3d571b07	0.05251601
204	0x3d9077dd	0.07054112
205	0xbd2fc342	-0.04291082
206	0xbcfa793c	-0.030575387
207	0xbd645744	-0.055747285
208	0x3d30b613	0.04314239
209	0x3cdb6245	0.026780257
210	0xbc9072d6	-0.017632883
211	0x3d62171f	0.05519783
212	0x3d879a24	0.06621197
213	0xbd68bb4f	-0.056819256
214	0x3da5eec4	0.081021816
215	0xbd8a2185	-0.067446746
216	0x3d2deb4a	0.042460717
217	0xbd1ff7c6	-0.039054655
218	0xbd89d7ee	-0.067306384
219	0xbd809d82	-0.06280042
220	0xba83ec4a	-0.0010064926
221	0xbcc72f5e	-0.024314579
222	0x3d1842ae	0.037172966
223	0xbdafbe2f	-0.085811965
224	0x3d71f2f5	0.059069593
225	0xbc975fe9	-0.01847835
226	0xbd06b03e	-0.03288292
227	0x3bfd1cff	0.007724404
228	0x3d64b6cc	0.05583839
229	0x3d9a8b1f	0.075460665
230	0xbd90d1fd	-0.07071302
231	0xbd5184b3	-0.051151942
232	0x3d8d2f42	0.06893779
233	0x3d2dd9d9	0.042444084
234	0x3cadfb98	0.021238133
235	0x3dae8b1a	0.08522625
236	0x3c925b63	0.017865842
237	0xbd483776	-0.048881017
238	0x3d00d9c6	0.031457685
239	0xbd490c97	-0.049084272
240	0x3cf29b29	0.029615002
241	0xbd0b98a7	-0.034081127
242	0xbd39c50a	-0.045353927
243	0xbc9e5335	-0.019326786
244	0xbc2bf84e	-0.010496212
245	0x3c4d75ad	0.012540263
246	0xbc8486e9	-0.016177611
247	0xbd80a6ba	-0.062818006
248	0x3cda9531	0.026682468
249	0x3d77cb8e	0.06049686
250	0xbd8b05c0	-0.06788206
251	0x3c1eaa94	0.009684224
252	0x3b6870cd	0.0035467625
253	0x3d99ac28	0.07503539
254	0xba7309da	-0.00092711824
255	0xbd9fecea	-0.0780886

layer.1.bias f4 [64]
0	0x3da319b2	0.07963885
1	0x3d7e806c	0.06213419
2	0xbc5adfe4	-0.013359044
3	0xbd9eb296	-0.07748906
4	0xbc814e30	-0.015784353
5	0xbd514c19	-0.051097963
6	0x3d218116	0.039429747
7	0xbda4bbeb	-0.08043655
8	0x3d1588f0	0.036507547
9	0x3d2d67ad	0.0423352
10	0xbd5a25db	-0.053258758
11	0x3dabff0c	0.08398256
12	0x3d4b46b5	0.04962798
13	0x3d8127c3	0.06306412
14	0x3da9a9dd	0.08284352
15	0x3da17133	0.07882919
16	0xbc295d2e	-0.010337157
17	0xbda771ec	-0.08176026
18	0x3c74858e	0.01492442
19	0x3c6edb1a	0.014578605
20	0xbd8ed16b	-0.06973537
21	0x3d2ba9ec	0.041910097
22	0x3da657b3	0.08122196
23	0xbce9dcc9	-0.028547661
24	0xbd5e4c8f	-0.05427223
25	0xbd2474a9	-0.04015032
26	0x3d20d6ba	0.03926728
27	0x3cac5415	0.021036187
28	0xbbcef016	-0.0063152416
29	0xbd94f6d5	-0.07273642
30	0x3da855e5	0.08219508
31	0x3d7d9dd9	0.061918113
32	0xbd19325a	-0.037401535
33	0xbbda8c0e	-0.006669528
34	0x3c9f9e7c	0.01948475
35	0xbdaa959b	-0.08329316
36	0xbd5eb084	-0.054367557
37	0xbd1e0329	-0.038577233
38	0xbcc0341d	-0.02346235
39	0xbda43b14	-0.08019081
40	0xbcc7e195	-0.024399558
41	0xbbfde9ac	-0.007748803
42	0x3d7b4745	0.061347265
43	0xbd6e8744	-0.058234468
44	0xbc9d41c7	-0.019196404
45	0x3d385870	0.045006216
46	0xbd9b3cce	-0.07579957
47	0xbd58292c	-0.05277364
48	0x3cb0fa2a	0.021603663
49	0xbd146917	-0.036233034
50	0xbda65a01	-0.08122636
51	0xbd75c0c5	-0.059998292
52	0xbc250278	-0.010071389
53	0x3d1ae698	0.037817568
54	0xbc9356cc	-0.017985724
55	0xbd006f0a	-0.031355895
56	0x3d3f56b6	0.046713553
57	0x3d91f4e0	0.07126784
58	0xbc4e683c	-0.012598094
59	0x3d1efdf6	0.038816415
60	0x3d765442	0.06013895
61	0xbd94e88a	-0.07270916
62	0x3bf05cdf	0.00733529
63	0xbbb4ec1d	-0.005521311

layer.2.weight f4 [32, 64]
0	0xbd570f47	-0.052504804
1	0xbd430787	-0.0476146
2	0xbdd6fd2a	-0.10497506
3	0xbc150771	-0.009096012
4	0x3d9f9695	0.07792393
5	0x3d9fd967	0.07805138
6	0x3cb641ea	0.022248227
7	0xbd867f5a	-0.06567259
8	0xbc607751	-0.013700322
9	0x3d2b2cbb	0.041790705
10	0x3dd18e3e	0.10232209
11	0xbc6d20d3	-0.014473158
12	0xbdea3624	-0.11436108
13	0xbd593397	-0.053027716
14	0xbd0e5801	-0.034751896
15	0xbd3c4b69	-0.045970354
16	0x3dcac1df	0.09900259
17	0x3daa43fe	0.0831375
18	0x3ccb1d08	0.024794117
19	0x3c05f726	0.008176601
20	0xbd124410	-0.03570944
21	0xbce40b47	-0.027837409
22	0xbd84c04d	-0.06481991
23	0x3d23319e	0.03984224
24	0xbdc7187b	-0.09721466
25	0x3cd09493	0.02546147
26	0xbc13e6dd	-0.00902721
27	0xbd954b27	-0.07289725
28	0x3c75f09f	0.015010982
29	0x3bf7ceb8	0.0075624846
30	0x3dd9fbad	0.106437065
31	0x3d9ec638	0.07752651
32	0xbd77f861	-0.060539607
33	0xbde2caf2	-0.11073865
34	0x3dc31321	0.09525133
35	0xbc348fa6	-0.011020577
36	0xbce8e601	-0.028429987
37	0xbdff574e	-0.12467824
38	0x3cd7c1d8	0.02633755
39	0x3dcba46d	0.09943471
40	0x3de6c5ac	0.11268172
41	0xbdd5d030	-0.10440099
42	0xbdc4f217	-0.096164875
43	0x3b62c596	0.0034602634
44	0xbdcdec47	-0.10054832
45	0x3c41e921	0.011835367
46	0xbc1a8521	-0.0094311545
47	0xbd80478c	-0.062636465
48	0x3d2033aa	0.03911177
49	0xbda2605d	-0.07928536
50	0x3d941cba	0.07232042
51	0xbd7b1e92	-0.06130845
52	0xbd4f90d0	-0.050675213
53	0xbc912343	-0.01771701
54	0x3d31e79c	0.04343377
55	0x3dd4815f	0.10376238
56	0x3cd9e8cd	0.026600266
57	0xbd81e6f7	-0.06342881
58	0x3dd18253	0.102299355
59	0xbdc2320e	-0.094822034
60	0xbc736d67	-0.0148576265
61	0xbd8d7dca	-0.06908758
62	0xbc5345e5	-0.012895082
63	0x3de057a5	0.10954217
64	0x3d5599d2	0.052148648
65	0x3d0fdecc	0.035124585
66	0xbd9b5967	-0.075854115
67	0xbc9f8f5d	-0.01947754
68	0xbd65b071	-0.05607647
69	0x3d50b42d	0.05095308
70	0xbbc54099	-0.0060196635
71	0x3d99ae95	0.07504002
72	0xbd6035c1	-0.054738764
73	0xbd96211b	-0.07330533
74	0xbdf96be8	-0.121787846
75	0xbc058c9d	-0.008151201
76	0x3d7050f3	0.05867095
77	0xbdf3af39	-0.118986554
78	0xbdcc7bb2	-0.099845305
79	0xbd9c29c6	-0.07625155
80	0xbe036f18	-0.12835348
81	0x3d3c1edd	0.04592787
82	0x3d8b7a5f	0.0681045
83	0x3d10a969	0.035317812
84	0xbd1f4f2e	-0.03889387
85	0xbda1b967	-0.07896691
86	0xbd91f042	-0.07125904
87	0x3de8f606	0.1137505
88	0x3d55d433	0.052204322
89	0x3d0c6d2a	0.034283794
90	0x3d85963b	0.06522795
91	0xbdcf834f	-0.10132467
92	0x3de9dd6e	0.114191875
93	0xbd8f28e7	-0.069902234
94	0x3d84bcca	0.06481321
95	0x3d389056	0.045059524
96	0xbdbcd080	-0.09219456
97	0xbcb35ff8	-0.021896347
98	0xbded38c7	-0.11583095
99	0xbcfd0b98	-0.030889317
100	0x3dbc9c56	0.09209506
101	0x3d867165	0.06564597
102	0x3da086f5	0.07838241
103	0xbdc5f18e	-0.096652135
104	0x3d9b1369	0.075720616
105	0xbd61e602	-0.055150993
106	0x3df08f18	0.11746043
107	0x3d80ac01	0.06282807
108	0xbb162339	-0.0022909178
109	0x3dfba185	0.12286667
110	0x3d97c218	0.07410067
111	0x3b8d189a	0.0043059113
112	0xbd1ffb34	-0.039057925
113	0x3d98d5ee	0.07462679
114	0xbde5ea3c	-0.11226317
115	0xbbe59cc4	-0.0070072133
116	0xbd249115	-0.040177424
117	0x3d855327	0.06510001
118	0xbd4b8e7b	-0.049696427
119	0xbcef79a8	-0.029232815
120	0x3db15e4f	0.08660566
121	0x3c2bae80	0.010478616
122	0xbdbc8851	-0.09205688
123	0xbca16cbc	-0.019705169
124	0x3db3285f	0.087479346
125	0xbd84d16e	-0.06485258
126	0x3dacac1d	0.084312655
127	0xbde63175	-0.11239902
128	0xbdf12d9c	-0.117762774
129	0xbcd08cb9	-0.025457727
130	0xbdffbb45	-0.12486891
131	0xbd3da05b	-0.046295505
132	0x3cbbfd31	0.02294788
133	0xbde30125	-0.11084203
134	0x3d99d938	0.07512134
135	0x3dda7a15	0.106678165
136	0x3cbc52a3	0.022988623
137	0x3de0d2eb	0.109777294
138	0x3bf3b963	0.0074378713
139	0xbd5239db	-0.051324707
140	0xbdaba9cb	-0.08381995
141	0xbdbeaa87	-0.09309869
142	0xba0e1931	-0.0005420624
143	0xbcab153e	-0.020884153
144	0x3ce6ec1e	0.028188761
145	0xb9fc57a2	-0.00048130477
146	0xbdee05c9	-0.11622197
147	0x3ddb8b7d	0.10719965
148	0x3cfd5c43	0.030927783
149	0x3ce5c230	0.028046697
150	0x3cba0308	0.022706524
151	0xbcc28fb7	-0.02375017
152	0x3da127e9	0.078689404
153	0x3dc190b1	0.09451426
154	0xbd2afdc2	-0.04174591
155	0xbd4616d9	-0.048361633
156	0xbdfe2481	-0.12409306
157	0xbdc01097	-0.09378164
158	0x3d529b4a	0.051417626
159	0xbb26b549	-0.0025437644
160	0x3d7aee18	0.06126222
161	0x3d807a19	0.06273288
162	0x3daf0e55	0.085476555
163	0x3dbde279	0.09271712
164	0xbca38867	-0.019962503
165	0x3da34e67	0.079739384
166	0x3aefe172	0.0018301441
167	0x3dce749c	0.10080835
168	0xbdbbe2c1	-0.09174109
169	0xbd0c4352	-0.03424389
170	0x3df56b4e	0.11983357
171	0x3d9b0d01	0.0757084
172	0x3dadba62	0.08482815
173	0x3dabdd59	0.08391828
174	0xbd128790	-0.035773814
175	0x3cf40619	0.029788064
176	0xbdbd15be	-0.092326626
177	0x3c9841dc	0.018586092
178	0xbbf9571a	-0.0076092603
179	0xbdc18dfd	-0.0945091
180	0xbd22f253	-0.03978188
181	0x3dd82496	0.10553853
182	0xbda33b21	-0.07970262
183	0x3ddc591e	0.10759185
184	0x3dc1a0e6	0.09454517
185	0x3d3551af	0.044267353
186	0xbd60e0b8	-0.05490181
187	0xbdb2c30c	-0.087286085
188	0xbd51eef3	-0.05125327
189	0x3db41469	0.087929554
190	0x3cb73078	0.022361979
191	0x3dbe3f1e	0.092893824
192	0xbdc1ccda	-0.094629005
193	0xbdf0d6c3	-0.117597125
194	0xbddce972	-0.10786714
195	0x3d9ca983	0.07649519
196	0xbd95d8dd	-0.07316754
197	0xbd55db45	-0.052211065
198	0xbd2e3177	-0.042527642
199	0x3dadcb99	0.08486099
200	0x3c9eb1dd	0.019371921
201	0xbd301402	-0.04298783
202	0x3b96b3e7	0.0045990827
203	0xbdd98e4f	-0.10622846
204	0xbd8cda09	-0.068775244
205	0xbdc7729e	-0.09738658
206	0xbde335b0	-0.110942245
207	0x3a4e642f	0.0007873205
208	0x3dea9ccc	0.11455688
209	0xbda5dc69	-0.080986805
210	0x3af0a766	0.0018360435
211	0xbc2b7cb3	-0.010466742
212	0xbde78b06	-0.113058135
213	0x3d229bab	0.039699238
214	0x3db61de3	0.08892419
215	0xbcb1965f	-0.021678148
216	0xbdee23ff	-0.116279595
217	0x3baa1797	0.0051908004
218	0x3d517cd5	0.05114444
219	0xbd8413a1	-0.064490564
220	0x3d3b35e0	0.045705676
221	0x3ceb018c	0.028687261
222	0x3c156e3d	0.009120521
223	0xbc89e276	-0.016831618
224	0xbd888cab	-0.06667455
225	0xbd76eb73	-0.060283136
226	0xbddee9d4	-0.10884443
227	0x3d30676b	0.043067377
228	0xbb807fb8	-0.0039214753
229	0xbb69ce90	-0.00356761
230	0x3deb43e6	0.1148756
231	0xbcad93e1	-0.021188678
232	0xbce290f4	-0.02765701
233	0x3dceee17	0.10104006
234	0x3ddaa89d	0.10676692
235	0xbd3eed63	-0.04661311
236	0xbd1b65bb	-0.037938815
237	0x3dbe6c03	0.09297945
238	0x3db5b909	0.08873183
239	0xbd68b4eb	-0.05681316
240	0xbd2f5041	-0.042801145
241	0x3d1886a2	0.03723777
242	0xbd714780	-0.05890608
243	0xbdc754ed	-0.09732995
244	0xbd3668a9	-0.044533405
245	0x3da34492	0.07972063
246	0x3d5254f6	0.051350556
247	0xbd93be74	-0.072140604
248	0xbdbf546d	-0.09342275
249	0x3ddb71a1	0.10715032
250	0x3d8508b7	0.06495803
251	0xbc4660ac	-0.012108009
252	0x3da1fe6b	0.079098545
253	0x3d27cd4d	0.040967274
254	0xbda38ddd	-0.07986043
255	0xbb96e765	-0.004605221

layer.2.bias f4 [32]
0	0x3c478e70	0.012179956
1	0x3db9bfa6	0.09069757
2	0x3bfc9120	0.00770773
3	0xbdd9b57e	-0.1063032
4	0x3de4dda2	0.111750856
5	0x3c890658	0.016726658
6	0xbc072560	-0.008248657
7	0x3dead94a	0.11467226
8	0xbdf43d28	-0.11925727
9	0x3deb72c6	0.11496501
10	0x3dd75ede	0.10516141
11	0xbdad6194	-0.08465877
12	0x3dd2811e	0.102785334
13	0xbd816aea	-0.0631922
14	0xbb38e980	-0.0028215349
15	0xbcda1030	-0.026619047
16	0xbddcb8f6	-0.10777466
17	0x3db64660	0.08900142
18	0xbc0fcc80	-0.008776784
19	0x3d82fe84	0.06396201
20	0x3d8f8c78	0.07009214
21	0x3a7ea700	0.0009714216
22	0x3dc00948	0.0937677
23	0x3d77846c	0.06042902
24	0xbb5d6e80	-0.0033787787
25	0xbde3c1c6	-0.11120944
26	0x3d19e2f4	0.037569955
27	0xbd3da428	-0.04629913
28	0xbc671170	-0.0141032785
29	0x3dbd4176	0.09241001
30	0x3d4a14d0	0.049336255
31	0xbdcaeb74	-0.0990819

layer.3.weight f4 [1, 32]
0	0xbdedd7a4	-0.11613396
1	0xbe1a67d1	-0.15078665
2	0x3e2efc61	0.17088462
3	0xbe184a74	-0.14872152
4	0x3ce4b12b	0.027916512
5	0xbe0242ac	-0.12720746
6	0xbd223324	-0.039599553
7	0xbd371e5a	-0.04470668
8	0x3e0396b3	0.12850456
9	0xbe0eccf8	-0.13945377
10	0x3d847379	0.06467337
11	0xbd423c60	-0.04742086
12	0x3dbbf580	0.09177685
13	0x3e2ede8b	0.17077081
14	0xbdd95eb3	-0.106137656
15	0xbde617d1	-0.11235011
16	0x3e2927ad	0.16519041
17	0x3d8d4021	0.06896997
18	0x3c08933e	0.0083358865
19	0xbd2c6a6c	-0.04209368
20	0xbdd03174	-0.101656824
21	0x3d620c16	0.055187307
22	0x3d79957d	0.06093358
23	0xbd429271	-0.04750294
24	0x3e309bb1	0.17246892
25	0x3d8951c8	0.06705052
26	0x3c569e06	0.013099199
27	0x3d324e2e	0.04353159
28	0x3dbc5a25	0.09196881
29	0xbd1a6693	-0.03769548
30	0xbe0e406b	-0.13891761
31	0xbcbc7f84	-0.023010023
