src/models/v2/pretrained_models/spa-francorchamps_model_v2.pt (torch, 54383 bytes, 7 tensors)

layer.0.weight f4 [128, 16]
0	0x3c664080	0.014053464
1	0xbdb09fed	-0.086242534
2	0x3e65d579	0.22444715
3	0xbd716f61	-0.05894411
4	0x3ddda3c9	0.10822255
5	0x3e23b69f	0.15987633
6	0xbe105abb	-0.14097111
7	0x3d8a9382	0.06766416
8	0x3d2d66ed	0.042334486
9	0x3e43e905	0.19131859
10	0x3e437aa8	0.19089758
11	0x3e55c074	0.20874196
12	0x3d965ae6	0.07341556
13	0xbe2d3426	-0.16914424
14	0xbad8a674	-0.0016529099
15	0xbe76af16	-0.24090227
16	0xbd8acbdc	-0.06777164
17	0x3d8a88ca	0.06764372
18	0xbe3905bb	-0.18068592
19	0xbd24b4a5	-0.04021134
20	0x3c560f9d	0.013065246
21	0xbdf3837d	-0.11890314
22	0xbd121301	-0.035662655
23	0xbdaff9d8	-0.08592576
24	0x3e714968	0.23563159
25	0x3d4e355f	0.050343867
26	0x3e3112e2	0.1729236
27	0xbe7de97a	-0.24796095
28	0x3e1a2d44	0.1505633
29	0x3e4bdae1	0.19907714
30	0x3e4ec4e9	0.20192303
31	0xbdba3890	-0.0909282
32	0xbd27d1b0	-0.040971458
33	0xbe7974b5	-0.24360926
34	0xbdc80469	-0.09766466
35	0x3e48ff35	0.19628604
36	0x3d63ba98	0.05559787
37	0x3e50757e	0.2035732
38	0xbe04f7e9	-0.12985195
39	0xbd507397	-0.050891485
40	0x3e3f18b1	0.18661763
41	0xbdb50173	-0.08838167
42	0x3e2c0040	0.1679697
43	0x3d8cd737	0.068769865
44	0x3c2a41b1	0.010391639
45	0xbda2770c	-0.07932863
46	0x3dee9be1	0.11650825
47	0xbe723c8c	-0.2365591
48	0xbe6228dc	-0.22085899
49	0x3dd132e1	0.102147825
50	0x3e36fc39	0.17869653
51	0xbd707dce	-0.058713727
52	0xbe6545f1	-0.22389962
53	0xbe3c5bd0	-0.18394399
54	0x3c829331	0.015939327
55	0xbd89d324	-0.06729725
56	0x3e16fcb2	0.14744833
57	0x3e788a6a	0.24271551
58	0x3d92386d	0.071396686
59	0x3e05a550	0.13051343
60	0xbe515bfc	-0.20445246
61	0xbe6c01ea	-0.23047605
62	0xbe5a7bf8	-0.21336353
63	0xbdd02233	-0.10162773
64	0xbd6b87b0	-0.05750245
65	0xbdcc2f51	-0.099699624
66	0xbe0027cb	-0.1251518
67	0x3de238ca	0.11045988
68	0x3afa454c	0.0019094138
69	0xbd0a1697	-0.03371295
70	0xbda4b684	-0.080426246
71	0xbe54d772	-0.20785311
72	0x3d5f1690	0.054464877
73	0x3e158150	0.1460011
74	0x3e2826b7	0.16421019
75	0xbe3bff2f	-0.18359064
76	0xbe22623c	-0.15857786
77	0xbe792b20	-0.24332857
78	0xbdb005f5	-0.08594886
79	0x3e750210	0.23926568
80	0x3d6030e0	0.05473411
81	0x3e215fb3	0.15759163
82	0x3d5d222d	0.05398767
83	0x3cab6983	0.020924335
84	0x3dec1269	0.11526949
85	0x3e5dd065	0.21661527
86	0xbe817f7f	-0.25292584
87	0xbe37cbb2	-0.17948797
88	0x3dcd640d	0.10028849
89	0xbe5dfc63	-0.21678309
90	0xbe0c067b	-0.13674347
91	0xbe71cc2b	-0.2361304
92	0xbe0d8bca	-0.13822857
93	0x3e6dd1b2	0.23224524
94	0x3c8a01ab	0.016846498
95	0x3d08e9fc	0.03342627
96	0x3e7327b6	0.23745617
97	0x3e3f02f9	0.18653478
98	0xbe22d69e	-0.15902182
99	0x3db21368	0.08695108
100	0x3ce31fe4	0.027725168
101	0x3bf21534	0.0073877815
102	0xbc9346a8	-0.017978027
103	0x3dd52e9d	0.104092814
104	0xbe2f3ca4	-0.17112976
105	0x3deb57d5	0.11491362
106	0x3e77c1a2	0.24194959
107	0xbdb4c898	-0.08827323
108	0xbe36d3ea	-0.17854276
109	0x3e3d98d0	0.18515325
110	0xbe06a912	-0.13150433
111	0xbdc1bfee	-0.09460436
112	0x3b38d100	0.0028200746
113	0x3d654647	0.055975225
114	0x3e471a02	0.19443515
115	0x3cd1635e	0.025560077
116	0xbe2107a3	-0.1572557
117	0x3e66000e	0.22460958
118	0x3e4a8242	0.19776252
119	0xbdfe0041	-0.12402392
120	0xbdc785a7	-0.09742289
121	0xbe4a98a6	-0.19784793
122	0xbd874328	-0.06604606
123	0x3e385343	0.18000512
124	0x3db6b7a8	0.089217484
125	0x3dd7ab5a	0.105307296
126	0xbd541186	-0.051774524
127	0xbe190c37	-0.14946066
128	0xbe55720e	-0.2084429
129	0xbe0b9844	-0.13632303
130	0xbe733491	-0.23750521
131	0xbdd93a8c	-0.1060687
132	0x3e487253	0.19574861
133	0x3db8c82a	0.09022553
134	0x3df611c0	0.12015104
135	0x3d8c192f	0.06840741
136	0xbe67fece	-0.22655794
137	0xbcd43c5c	-0.025907688
138	0xbe43dbf7	-0.19126879
139	0x3c92d30c	0.0179229
140	0x3dd3a8ed	0.103349544
141	0xbe788910	-0.24271035
142	0x3e4b776d	0.19869776
143	0x3daa08a6	0.08302431
144	0x3e728d5e	0.2368674
145	0xbe602990	-0.21890855
146	0xbe4ecf02	-0.20196155
147	0x3e5c388b	0.21505944
148	0x3d1853ca	0.037189282
149	0xbe0b4730	-0.13601375
150	0x3e2acf1d	0.1668057
151	0xbe087847	-0.13327132
152	0xbe2516c1	-0.16121961
153	0x3e015bb4	0.12632638
154	0xbe0c85b6	-0.13722882
155	0x3ab06b18	0.0013459651
156	0xb9222ea2	-0.00015466896
157	0xbd883ccb	-0.0665222
158	0xbd63385a	-0.055473663
159	0x3d872f43	0.06600811
160	0x3d296d90	0.041364253
161	0x3e4aa29e	0.19788596
162	0xbe24e40c	-0.16102618
163	0x3ddad0c1	0.10684348
164	0x3c89ba31	0.016812416
165	0x3e5e868d	0.21731015
166	0x3e2fe8cd	0.1717865
167	0xbd8b9a68	-0.0681656
168	0x3e3b65d0	0.18300557
169	0x3d988038	0.07446331
170	0xbe432239	-0.19056024
171	0xbe19c859	-0.15017833
172	0xbe1ff714	-0.15621597
173	0xbe4a9cce	-0.19786379
174	0xbcdd1c45	-0.026991019
175	0x3e312306	0.17298517
176	0x3e14701a	0.14495888
177	0x3cec3392	0.028833184
178	0xbe094e5b	-0.13408796
179	0xbe2f57ac	-0.17123288
180	0xbe1dc11f	-0.15405701
181	0x3ca7f2b5	0.020501474
182	0xbdb9f7d7	-0.09080475
183	0xbdbc073f	-0.091810696
184	0x3de89282	0.11356069
185	0x3e5effb3	0.21777229
186	0xbdc13c38	-0.09435314
187	0xbe1455f2	-0.1448591
188	0x3debccbf	0.115136616
189	0x3e3daa83	0.18522076
190	0xbe151d6b	-0.14562003
191	0x3e678d2e	0.2261245
192	0x3e2c72ca	0.16840664
193	0x3d9d435a	0.07678862
194	0xbd247438	-0.040149897
195	0x3d09ca6b	0.033640306
196	0x3d8ecad0	0.06972277
197	0xbe7818f2	-0.24228266
198	0x3e0b7475	0.13618644
199	0xbe0cf4c7	-0.1376525
200	0xbe573ae8	-0.21018565
201	0x3e6d483b	0.23172085
202	0x3d8102dc	0.062993735
203	0xbe5a5d15	-0.2132457
204	0xbde10553	-0.10987344
205	0xbdb3fc0f	-0.08788311
206	0x3da74483	0.081673644
207	0xbe4b7940	-0.19870472
208	0x3e214408	0.15748608
209	0x3d9a9559	0.07548017
210	0xbdf331e2	-0.11874749
211	0x3e0590f3	0.13043575
212	0x3e1f912e	0.15582725
213	0xbce5aee8	-0.028037503
214	0x3d4eaa7a	0.050455548
215	0xbdee0494	-0.11621967
216	0xbdf93d15	-0.121698536
217	0x3d855180	0.065096855
218	0x3e29d430	0.1658485
219	0x3e1f45a7	0.15553914
220	0xbd358b88	-0.04432252
221	0xbc781e70	-0.015143976
222	0xbe48d0ab	-0.1961085
223	0xbdc53841	-0.0962987
224	0xbdd37e60	-0.103268385
225	0x3e0ef5e0	0.13960981
226	0xbe565998	-0.20932615
227	0xbdf74ef4	-0.12075606
228	0x3e5f8fe1	0.21832229
229	0x3e1d06ef	0.15334676
230	0x3db46eec	0.08810219
231	0xbddd567c	-0.10807511
232	0xbe08214c	-0.13293952
233	0xbd0cc904	-0.03437139
234	0xbe574d1c	-0.21025509
235	0x3e309f94	0.17248374
236	0xbe5e2dbf	-0.21697138
237	0x3e1586b6	0.1460217
238	0x3d6a9bee	0.057277612
239	0x3e1165c3	0.14198975
240	0x3e618d4c	0.22026557
241	0xbdd1ab8a	-0.102377966
242	0xbe42889d	-0.18997426
243	0xbe1a6cc4	-0.15080553
244	0xbe18bd02	-0.14915851
245	0x3cd03c66	0.025419425
246	0xbd88a709	-0.066724844
247	0xbda970a3	-0.08273437
248	0xbd176def	-0.036970075
249	0x3e022a5f	0.12711476
250	0x3d8e68a0	0.069535494
251	0x3e1b61a5	0.15173967
252	0xb9bc92dd	-0.00035967576
253	0xbe344189	-0.17603125
254	0x3e2c6d6b	0.16838615
255	0x3d458618	0.048223585

layer.0.bias f4 [128]
0	0x3d4b0cb8	0.049572676
1	0x3d848580	0.064707756
2	0x3e619e86	0.22033128
3	0xbddd1e54	-0.107968
4	0x3da8466c	0.08216557
5	0x3e4ebc8c	0.20189112
6	0xbe7a804c	-0.24463004
7	0xbe04ba24	-0.12961632
8	0x3e60c4d0	0.21950078
9	0x3cbd3f20	0.02310139
10	0x3e43eece	0.19134066
11	0xbe75914a	-0.23981205
12	0x3de4bb1c	0.11168501
13	0xbe5a23d2	-0.21302727
14	0xbbb62ac0	-0.0055592954
15	0x3b9ec780	0.0048455596
16	0x3e70e060	0.23523092
17	0x3e1d4620	0.15358782
18	0xbdf7be24	-0.12096813
19	0xbe527ae4	-0.20554692
20	0xbda4a8b0	-0.08039987
21	0xbd81ac40	-0.06331682
22	0xbe6272b6	-0.22114071
23	0xbe2b6346	-0.16737089
24	0x3bb71ac0	0.0055879056
25	0xbe32cb78	-0.1746043
26	0xbe033c98	-0.12816083
27	0x3e34e50e	0.17665502
28	0x3e70ac54	0.23503238
29	0x3e7c975c	0.24667114
30	0x3c9778f0	0.018490285
31	0xbdb66920	-0.0890677
32	0x3da48050	0.08032286
33	0x3d0c5248	0.034258157
34	0x3e516cee	0.2045171
35	0xbd0609b8	-0.032724112
36	0x3d215120	0.039384007
37	0x3e5d19b2	0.21591833
38	0xbe492936	-0.19644627
39	0xbe76d068	-0.24102938
40	0x3e0e59ca	0.1390144
41	0x3e740a8a	0.23832145
42	0x3e2841a4	0.1643129
43	0xbde2f99c	-0.110827655
44	0xba323000	-0.00067973137
45	0xbdeb2ad4	-0.11482778
46	0xbd64cfa8	-0.0558621
47	0xbe39e418	-0.18153417
48	0xbe6bf100	-0.23041153
49	0x3d217a30	0.039423168
50	0x3e27bde6	0.16381034
51	0xbd6bfa00	-0.057611465
52	0x3e410a0e	0.18851492
53	0xbd6cfe28	-0.05785957
54	0x3e63234a	0.2218143
55	0xbe1279c6	-0.14304265
56	0x3dc3fb80	0.09569454
57	0x3de8031c	0.11328718
58	0xbd2399d8	-0.03994164
59	0xbdcbc3a0	-0.09949422
60	0xbdc10750	-0.09425223
61	0xbe1b69b2	-0.15177038
62	0xbde19834	-0.110153586
63	0x3d0706f0	0.0329656
64	0xbd63b3c0	-0.055591345
65	0xbce9dbc0	-0.028547168
66	0x3e393dbe	0.18089959
67	0xbe4d7b10	-0.20066476
68	0xbd557d30	-0.05212134
69	0xbe1a5554	-0.15071613
70	0x3df17170	0.117892146
71	0x3c6e2a20	0.014536411
72	0xbdbc61ac	-0.09198317
73	0xbd5719d8	-0.05251488
74	0xbdb777c4	-0.0895839
75	0x3e5a2f18	0.21307027
76	0xbe5b5de2	-0.21422532
77	0x3df03744	0.11729291
78	0xbb987800	-0.004652977
79	0xbe5ffac4	-0.21873003
80	0x3d4679e8	0.048456103
81	0xbe78c6fc	-0.24294657
82	0x3c98d880	0.018657923
83	0x3c0fd780	0.008779407
84	0x3d729af0	0.05922979
85	0x3dc82a54	0.097736984
86	0x3d7fff50	0.062499344
87	0xbd671a00	-0.05642128
88	0x3e04715c	0.12933868
89	0x3cf214c0	0.02955091
90	0xbe023154	-0.1271413
91	0xbe3d6ff4	-0.18499738
92	0xbde3da68	-0.11125642
93	0x3dc5a244	0.0965009
94	0x3e41ea44	0.18937021
95	0x3e557e2a	0.20848909
96	0xbd74c820	-0.059761167
97	0xbd914bd4	-0.07094541
98	0x3ddd7680	0.10813618
99	0x3c8f7d10	0.01751569
100	0xbc933a40	-0.017972112
101	0xbd91493c	-0.070940465
102	0x3e271c2e	0.16319343
103	0xbc4224c0	-0.011849582
104	0xbc19f440	-0.009396613
105	0xbdd3dd3c	-0.103449315
106	0x3cc8d4d0	0.02451554
107	0xbdce1344	-0.100622684
108	0x3d63c1a8	0.055604607
109	0x3e59eea0	0.21282434
110	0xbc4da140	-0.012550652
111	0x3e0aaa4c	0.13541526
112	0xbdd15e5c	-0.10223076
113	0xbe1704fa	-0.14747992
114	0x3d1c1170	0.038102567
115	0x3cb5e180	0.022202253
116	0xbe67ddde	-0.2264323
117	0xbd26d918	-0.04073438
118	0x3c4b5d00	0.01241231
119	0x3d1d7858	0.038444847
120	0x3e010f00	0.12603378
121	0xbd35c438	-0.044376582
122	0x3e6a6870	0.22891402
123	0xbda5fec4	-0.08105233
124	0xbe2896dc	-0.16463798
125	0xbe0fa7fe	-0.14028928
126	0xbd1381d8	-0.0360125
127	0xbe4e6a9e	-0.20157859

layer.1.weight f4 [64, 128]
0	0x3b0fc24e	0.0021935883
1	0x3ce049b8	0.027378902
2	0xbd91f571	-0.07126892
3	0xbdae4e0f	-0.08510982
4	0x3bdb754e	0.0066973334
5	0xbda66d31	-0.08126295
6	0xbd53b27b	-0.051683884
7	0x3d8b371b	0.0679762
8	0xbc8b82da	-0.017030168
9	0x3d162344	0.036654726
10	0xbd4630f1	-0.048386518
11	0xbd46a2a1	-0.04849494
12	0xbab6b795	-0.001394021
13	0xbcaa6655	-0.020800749
14	0xbccbfaeb	-0.02489992
15	0x3d662590	0.056188166
16	0x3d5dc093	0.05413873
17	0x3da68d16	0.08132379
18	0x3cdea12f	0.027176468
19	0x3daf4488	0.08557993
20	0xbc19cad9	-0.009386742
21	0xbbfcd3e8	-0.007715691
22	0xbd25d58c	-0.040486857
23	0xbcb63f39	-0.022246944
24	0x3ce5a686	0.028033506
25	0xbbcda4f8	-0.0062757693
26	0xbd7ecb0b	-0.062205356
27	0xbd9b7f3a	-0.07592626
28	0x3d5d1af3	0.05398078
29	0xbc09c8f0	-0.008409724
30	0xbd89ac8f	-0.06722366
31	0xbca4b49e	-0.020105656
32	0x3da6cab3	0.081441306
33	0xbc84d8be	-0.016216632
34	0xbd1cf7ce	-0.038322262
35	0x3d7c48f5	0.061593015
36	0xbd205707	-0.039145496
37	0x3dae7de9	0.08520109
38	0xbda0d8d8	-0.0785386
39	0x3d2d46aa	0.04230372
40	0xbd93665b	-0.07197257
41	0x3d0ec693	0.034857344
42	0x3dacd567	0.08439141
43	0xbb3bb099	-0.0028639196
44	0xbda74079	-0.08166594
45	0xbd9e15c9	-0.07718999
46	0x3c621ab6	0.013800314
47	0xbd9eea96	-0.077595875
48	0x3c49b1c8	0.012310453
49	0x3d8c1075	0.068390764
50	0xbd81c26d	-0.06335912
51	0xbc2b102c	-0.010440867
52	0x3c06778f	0.008207216
53	0xbd83dde1	-0.064388044
54	0xbcf27691	-0.029597552
55	0x3d14a78b	0.036292594
56	0x3cc7dd73	0.024397587
57	0x3ccfd2c3	0.025369054
58	0x3d0f3a3f	0.034967657
59	0x3d76d63a	0.060262896
60	0xbcafcb81	-0.021459343
61	0xbd51b4aa	-0.051197685
62	0xbbfa2f71	-0.00763505
63	0xbd5f0eba	-0.054457404
64	0x3d57d3fc	0.0526924
65	0xbcedee1f	-0.029044209
66	0xbd7c2d58	-0.06156668
67	0x3cc21a84	0.023694284
68	0x3b976a47	0.0046208235
69	0x3b9fc275	0.004875476
70	0xbd1574e1	-0.036488418
71	0x3d7302a7	0.0593287
72	0x3da79aab	0.081837974
73	0xbcd3b7e9	-0.025844531
74	0xbd73a59b	-0.059484106
75	0x3d5820d5	0.052765686
76	0x3cdb3847	0.026760234
77	0x3d86adba	0.065761045
78	0x3d94358d	0.072367765
79	0xbd7cfde2	-0.06176556
80	0xbd76631e	-0.06015312
81	0xbbef1dff	-0.007297277
82	0x3db4e114	0.08831993
83	0x3d329448	0.043598443
84	0x3ca1e221	0.019761147
85	0x3dab7f5c	0.08373901
86	0xbd8cb6d6	-0.06870811
87	0xbd876ba6	-0.06612329
88	0x3cbd0eb8	0.023078308
89	0x3d5245e4	0.051336184
90	0xbcdf06c8	-0.027224913
91	0x3d86e89d	0.06587336
92	0xbd4e2a90	-0.05033356
93	0x3d43e880	0.04782915
94	0xbd83e49f	-0.064400904
95	0x3cdc84f0	0.026918858
96	0xbd3a985f	-0.04555547
97	0xbd4cd5c6	-0.050008558
98	0xbd0e2911	-0.034707133
99	0x3d978406	0.07398228
100	0xbae1bca0	-0.0017222352
101	0xbcd66d8a	-0.02617528
102	0x3ab76f4c	0.0013994961
103	0xbdab0cf3	-0.08352079
104	0xbcc2a29b	-0.023759177
105	0xbc829530	-0.015940279
106	0x3d807bad	0.06273589
107	0x3d748103	0.059693348
108	0xbda7ddf1	-0.08196629
109	0x3d254fba	0.040359236
110	0x3d9feece	0.0780922
111	0x3d278618	0.040899366
112	0xbc8af709	-0.016963499
113	0x3d97ed26	0.07418279
114	0xbd756f03	-0.059920322
115	0x3d3e2ac0	0.04642749
116	0xbd8304ba	-0.06397386
117	0x3a7ce2b0	0.0009646816
118	0xbd64a68a	-0.055822887
119	0x3ca0521f	0.019570408
120	0xbc672933	-0.014108944
121	0x3dae3769	0.085066624
122	0x3b832daa	0.0040032463
123	0xbc5f7597	-0.013638875
124	0xbcfca383	-0.030839687
125	0x3d18b93b	0.037286025
126	0x3d30d8cf	0.043175515
127	0xbca6fb77	-0.02038358
128	0xbd2e41da	-0.04254327
129	0x3d109977	0.035302605
130	0xbdaa4d32	-0.08315505
131	0xbd653f39	-0.055968497
132	0x3cea4712	0.028598342
133	0x3c17fd25	0.009276663
134	0x3c5824d3	0.013192373
135	0x3d18d19f	0.037309285
136	0xbd91cbdb	-0.071189605
137	0x3d20085d	0.039070476
138	0x3db67430	0.0890888
139	0xbd024dc9	-0.031812463
140	0xbd6000c3	-0.054688226
141	0xbdb790d0	-0.08963168
142	0x3d42400f	0.047424372
143	0x3d9449e8	0.07240659
144	0xbd62ebf3	-0.0554008
145	0x3d558188	0.052125484
146	0xbd2b118c	-0.04176478
147	0xbc79e9be	-0.015253482
148	0x3cf40394	0.029786862
149	0xbd3c5b8c	-0.045985743
150	0x3cff0ef3	0.031135058
151	0x3d8a2491	0.06745256
152	0xbd872d2f	-0.06600415
153	0xbd285515	-0.041096766
154	0xbdc70014	-0.09716812
155	0x3d87e877	0.06636136
156	0xbd692de0	-0.056928515
157	0x3c16ac3c	0.009196337
158	0xbce2c8b3	-0.027683591
159	0xbd464d17	-0.048413362
160	0xbd9fc674	-0.07801524
161	0xbd10d84c	-0.035362527
162	0x3cc6a7a9	0.024249868
163	0xbd74636b	-0.059665125
164	0x3d9802b1	0.07422388
165	0x3db977e2	0.09056069
166	0xbda3b6f9	-0.07993884
167	0x3d0d6a10	0.034524977
168	0x3d757744	0.059928194
169	0x3d04f7d3	0.032462906
170	0xbd1c7ef4	-0.03820701
171	0xbd9ee938	-0.07759327
172	0xbd20556c	-0.039143965
173	0x3d7c572b	0.061606567
174	0x3b856baf	0.004071675
175	0x3cd350df	0.025795398
176	0x3da351d6	0.07974593
177	0xbc8661de	-0.016404089
178	0xbd029c79	-0.031887505
179	0xbd8e5002	-0.06948854
180	0x3d6e7b9a	0.058223344
181	0x3d3886b9	0.045050357
182	0x3cfc4509	0.030794637
183	0x3cddabd2	0.02705947
184	0xbc67b932	-0.014143275
185	0x3d32099d	0.0434662
186	0x3d451a07	0.048120525
187	0x3d5a8f73	0.05335946
188	0x3d00ba42	0.03142763
189	0x3d84a8e3	0.06477525
190	0x3b87db9f	0.004146054
191	0x3ccbfa69	0.024899678
192	0x3d73beeb	0.059508245
193	0xbd4e832c	-0.050418064
194	0x3d437f92	0.047729082
195	0xbd0f2c00	-0.03495407
196	0xbb907d8c	-0.0044094976
197	0x3c222fac	0.009899061
198	0x3c9f8e90	0.019477159
199	0xbba78a42	-0.005112917
200	0xbb83a02a	-0.004016896
201	0xbb0c5bfe	-0.0021417136
202	0xbd82e3bf	-0.06391095
203	0x3d1e85bf	0.03870177
204	0x3d431eeb	0.047636908
205	0x3c3cb6d1	0.011518196
206	0x3d3409cb	0.04395465
207	0x3cc0fcdb	0.02355807
208	0x3d9c6210	0.076358914
209	0x3d55b7bb	0.052177172
210	0xbcd72ab8	-0.026265487
211	0x3c34d202	0.011036398
212	0xbd974698	-0.073865116
213	0x3d8be8d2	0.06831516
214	0x3d468eac	0.048475906
215	0xbcd08415	-0.025453607
216	0x3cf4203f	0.029800532
217	0xbd79b894	-0.060967043
218	0x3b8f6659	0.0043762145
219	0xbda7e9fe	-0.08198927
220	0x3d9ab650	0.075543046
221	0x3c3df2de	0.011593549
222	0xbd50a8f0	-0.05094236
223	0x3d0a1dd7	0.033719864
224	0xbda86301	-0.082220085
225	0x3d961353	0.073279046
226	0xbd3b4d71	-0.04572815
227	0x3ccc85ff	0.024966238
228	0x3d687b1a	0.056758024
229	0xbcda05d4	-0.026614107
230	0xba85c7bf	-0.0010206624
231	0x3d9a4173	0.07532015
232	0xbc82f029	-0.015983658
233	0x3dae9fce	0.08526574
234	0x3d7d8794	0.061896876
235	0x3c8fdc4e	0.017561104
236	0xbd0e4149	-0.03473023
237	0xbd89e827	-0.06733733
238	0xbd1fc4d2	-0.03900606
239	0xbd396ddb	-0.045270782
240	0xbbf0be21	-0.007346884
241	0x3d96f8bb	0.0737166
242	0x3da15578	0.0787763
243	0x3a672748	0.0008817804
244	0xbd9d4ddd	-0.07680867
245	0xbc2e9e4a	-0.010657856
246	0xbd0ee88d	-0.034889746
247	0xbd1689ee	-0.036752634
248	0xbda49248	-0.080357134
249	0xbd37ea6c	-0.044901296
250	0xbd8800a4	-0.06640747
251	0x3c729d54	0.014808018
252	0xbcd0f335	-0.025506595
253	0xbc46e289	-0.012138971
254	0xbd0a55c3	-0.033773195
255	0xbd79c872	-0.060982175

layer.1.bias f4 [64]
0	0x3d106db5	0.035260875
1	0xbc99ec30	-0.01878938
2	0x3d8e1c24	0.06938961
3	0xbd97c2ba	-0.07410188
4	0xbcb8a7e1	-0.022540988
5	0x3cb2e924	0.021839686
6	0xbd5444d3	-0.05182345
7	0x3c836cdf	0.016043125
8	0x3da58781	0.08082486
9	0x3cafa81a	0.021442462
10	0x3b6c647f	0.0036070643
11	0xbc7379b2	-0.014860557
12	0xbc514b34	-0.0127742775
13	0x3b450c1d	0.0030067035
14	0xbd930f0e	-0.07180606
15	0x3d1822bf	0.03714251
16	0x3daca998	0.08430785
17	0x3be1f42a	0.0068955617
18	0x3d1ed88d	0.038780738
19	0xbd690d98	-0.05689773
20	0xbd3b1479	-0.04567382
21	0x3c4cebf1	0.012507425
22	0x3c60b6ce	0.013715459
23	0x3d429f43	0.047515165
24	0x3d674fc9	0.056472573
25	0x3d898499	0.06714744
26	0x3d3fdada	0.046839572
27	0xbda0d82e	-0.07853733
28	0x3db3ef78	0.087859094
29	0xbcad2996	-0.021137994
30	0xbd6b3b8b	-0.05742983
31	0x3d5e0f16	0.054213606
32	0xbd874f60	-0.066069365
33	0x3d7de4ca	0.06198577
34	0x3d60823c	0.0548117
35	0x3d42751d	0.04747497
36	0x3d9ca4ea	0.07648642
37	0xbd224c5e	-0.03962361
38	0x3d05618e	0.03256374
39	0x3bfdea34	0.0077488665
40	0x3cdcbf5b	0.026946714
41	0xbc27abe6	-0.010233855
42	0x3d4481e5	0.04797544
43	0x3c4b5d93	0.012412447
44	0x3d21c11d	0.039490808
45	0xbd477634	-0.04869671
46	0x3d9f1a22	0.07768656
47	0x3daee1f8	0.08539194
48	0x3d1f25e9	0.038854513
49	0xbbcb36bb	-0.0062015927
50	0xbd8b69c6	-0.06807284
51	0x3d5db55f	0.054128047
52	0x3c9742de	0.018464502
53	0x3cd72667	0.026263429
54	0x3d661220	0.05616963
55	0xbd9739b5	-0.073840536
56	0x3ca50f2d	0.020148838
57	0x3ce44ef3	0.027869677
58	0xbd6f8cee	-0.05848401
59	0x3d1ff003	0.039047252
60	0x3d9575f9	0.07297892
61	0xbc8c35c2	-0.017115477
62	0x3d45f80b	0.048332255
63	0x3daf928a	0.08572872

layer.2.weight f4 [32, 64]
0	0x3d4ace13	0.049512934
1	0xbc5cb305	-0.013470416
2	0x3dd69992	0.1047851
3	0x3ddd8b39	0.1081757
4	0xbdac3489	-0.08408458
5	0x3db6b647	0.089214854
6	0xbbd84b93	-0.006600806
7	0xbda4124e	-0.08011304
8	0xbd17992a	-0.037011303
9	0xbdc47945	-0.09593443
10	0xbd024eba	-0.03181336
11	0x3d4873d4	0.048938587
12	0x3d537519	0.051625345
13	0x3df55c01	0.11980439
14	0xbd423a49	-0.047418866
15	0x3cca0d62	0.024664585
16	0xbb3ea0c6	-0.0029087528
17	0xbd82b6d8	-0.06382531
18	0xbdb5aca5	-0.0887082
19	0xbda2b841	-0.079453
20	0x3df30b61	0.11867405
21	0x3dbc75e1	0.09202171
22	0xbdb9fc17	-0.090812854
23	0xbdb32ad6	-0.08748405
24	0x3cf900f5	0.030395964
25	0xbdbf05a5	-0.093272485
26	0x3dbce63a	0.092236
27	0xbdbce837	-0.09223979
28	0xbd6e1331	-0.05812377
29	0x3df00d66	0.117213055
30	0x3de4a865	0.11164931
31	0xbcdfc00a	-0.027313251
32	0x3c357001	0.011074067
33	0x3dd5c48a	0.104378775
34	0x3d398e35	0.045301635
35	0x3dcb86c6	0.09937815
36	0xbd201ee8	-0.039091974
37	0xba08097f	-0.00051894033
38	0xbc176231	-0.009239719
39	0xbd11ac96	-0.03556498
40	0x3ba54509	0.00504363
41	0x3d8f9035	0.07009927
42	0xbd53a767	-0.05167332
43	0xbdefcf0c	-0.11709413
44	0x3d8959e3	0.06706598
45	0x3d567279	0.052355263
46	0xbd360b72	-0.04444451
47	0xbd707b03	-0.058711063
48	0x3ae31532	0.0017325042
49	0x3c3493af	0.011021539
50	0xbd076272	-0.03305287
51	0x3d15a831	0.036537353
52	0x3d9bc13a	0.076052144
53	0x3ca34dfb	0.019934645
54	0xbdb1015e	-0.08642839
55	0x3dea1a22	0.11430766
56	0x3d4121bd	0.047151316
57	0xbd2335e3	-0.039846312
58	0xbadc386b	-0.0016801482
59	0x3cace3cb	0.021104714
60	0xbdd1a13e	-0.10235833
61	0xbdb0eeb7	-0.08639281
62	0xbbc01482	-0.0058618197
63	0xbdc3c4b7	-0.09559005
64	0x3db7644a	0.089546755
65	0xbdb570c4	-0.08859399
66	0x3d121ae3	0.035670172
67	0xbd48063d	-0.048834074
68	0x3dd636fb	0.104597054
69	0x3c22a70e	0.009927524
70	0x3dc76bc8	0.097373545
71	0xbc859198	-0.016304776
72	0x3c7f2f65	0.015575265
73	0x3d9ce191	0.07660211
74	0xbd2c7b52	-0.042109795
75	0xbd8fdc70	-0.07024467
76	0xbdf1553f	-0.117838375
77	0x3d5a7402	0.05333329
78	0xbdba9a16	-0.09111421
79	0x3da8a08f	0.08233749
80	0xbd85370c	-0.0650464
81	0x3db63fe3	0.08898904
82	0xbd260a1e	-0.040536992
83	0x3d84ff34	0.06493989
84	0xbd80cf1a	-0.062895015
85	0xbccda1db	-0.025101593
86	0xbbcc1e60	-0.006229207
87	0x3de5134f	0.111853234
88	0x3deac0d8	0.11462563
89	0xbdaa3257	-0.08310383
90	0x3df27ac9	0.11839826
91	0xbcf0c0e5	-0.029388854
92	0x3c3ba4b2	0.011452841
93	0xbacb620f	-0.0015516895
94	0x3cdf0ed6	0.027228754
95	0xbdb47c4c	-0.0881277
96	0xbd530101	-0.05151463
97	0x3dfc2b44	0.1231294
98	0x3d912b48	0.07088333
99	0x3da77cb9	0.08178086
100	0xbdb49df2	-0.08819188
101	0xbd6c2622	-0.057653554
102	0xbdb8e564	-0.09028128
103	0xbd4d6869	-0.0501484
104	0xbd3e00ee	-0.046387605
105	0xbc7ab93a	-0.0153029505
106	0xbc4eb661	-0.012616725
107	0x3c480e17	0.0122103905
108	0x3de5dfc2	0.11224319
109	0xbd3ffaf7	-0.046870198
110	0xbdce30c5	-0.10067896
111	0xbc235f30	-0.009971425
112	0xbcd1f5b3	-0.025629854
113	0xbd02d852	-0.03194458
114	0xbae354de	-0.0017344018
115	0xbd1daad0	-0.038492978
116	0x3dcf9225	0.10135297
117	0x3cc41a37	0.023938281
118	0xbc80c218	-0.015717551
119	0xbd683d61	-0.05669916
120	0xbd5b31d3	-0.053514313
121	0x3d1e42cc	0.03863792
122	0x3c1175c0	0.008878171
123	0x3da9e98c	0.08296499
124	0xbd4398a2	-0.047752984
125	0x3d9aff0e	0.07568179
126	0xbd37033c	-0.04468082
127	0xbdaf9049	-0.08572442
128	0xbdabf452	-0.0839621
129	0xbd12e152	-0.035859413
130	0x3d9eda0f	0.07756435
131	0xbb85df62	-0.004085467
132	0xbdc8dc5f	-0.098076575
133	0xbd1a27a6	-0.037635468
134	0x3da1e32a	0.07904656
135	0xbd31cb6f	-0.0434069
136	0x3d12730a	0.03575424
137	0x3dfb5c3b	0.12273451
138	0xbd4da20d	-0.05020337
139	0x3e011a69	0.12607731
140	0xbddfa843	-0.10920765
141	0xbd052efc	-0.03251551
142	0xbd354b51	-0.04426128
143	0xbd88790e	-0.06663714
144	0xbdff9e13	-0.12481322
145	0xbddb32cf	-0.1070305
146	0xbd2b702e	-0.04185503
147	0xbdd7003c	-0.104980916
148	0xbc326091	-0.010887281
149	0x3d011de5	0.03152265
150	0xbda583a6	-0.080817506
151	0xbdc1c611	-0.09461606
152	0x3df4ba66	0.11949615
153	0xbafc98c0	-0.0019271597
154	0xbd84110e	-0.064485654
155	0x3d9ff46c	0.07810292
156	0x3d3194b0	0.04335469
157	0x3d7a23b6	0.061069213
158	0x3d2f222b	0.042757194
159	0xbdb28b3d	-0.08717964
160	0x3d6530ae	0.055954628
161	0xbd41b7d2	-0.047294445
162	0x3de7d02d	0.11319003
163	0xbdbea3ea	-0.09308608
164	0x3db23dbc	0.08703181
165	0xbd0089b5	-0.031381328
166	0xbcbfcf17	-0.023414178
167	0xbde47e65	-0.1115692
168	0x3d76a0c2	0.060211904
169	0x3ce5b30e	0.028039481
170	0xbd6adddc	-0.057340488
171	0xbd84b3da	-0.064796165
172	0xbd15d5b4	-0.036580756
173	0xbcec1ee6	-0.028823327
174	0x3d7fda02	0.062463768
175	0xbdadc73c	-0.084852666
176	0xbdeb7e72	-0.11498727
177	0xbddd4358	-0.108038604
178	0x3ce1cf51	0.027564676
179	0xb93768ae	-0.00017491236
180	0xbdd2805e	-0.1027839
181	0x3d16399d	0.036676038
182	0xbc49a8ca	-0.012308309
183	0x3c0a0f70	0.008426532
184	0x3d8153c4	0.06314805
185	0xbc3d2315	-0.011544009
186	0xbca8f1c0	-0.020623088
187	0x3d6be78f	0.05759388
188	0x3c5a1036	0.013309529
189	0xbe076d8f	-0.13225387
190	0xbd3a4721	-0.04547799
191	0xbd82399b	-0.063586436
192	0xbd8b140f	-0.06790935
193	0xbd1e509f	-0.038651105
194	0x3dc35a91	0.095387585
195	0xbdcedb92	-0.101004735
196	0xbc16ae7d	-0.009196875
197	0xbd7c08a4	-0.061531678
198	0xbdbc73d9	-0.09201784
199	0xbd864916	-0.06556909
200	0xbc6df827	-0.014524496
201	0xbd56a5f7	-0.05240437
202	0xbd852729	-0.0650161
203	0x3d8f1fcc	0.06988487
204	0xbdd82489	-0.105538435
205	0xbdfd6a7d	-0.12373827
206	0x3dbfe062	0.093689695
207	0xbe01a03a	-0.12658778
208	0x3dc84b66	0.09780006
209	0xbd8aaa49	-0.067707606
210	0x3ce7d8cb	0.028301617
211	0xbdecd60b	-0.11564263
212	0xbda83c34	-0.08214608
213	0x3b942fe4	0.0045223106
214	0x3db203f2	0.08692159
215	0x3d68c76e	0.056830816
216	0xbd75ab7f	-0.059978005
217	0x3cb68ee2	0.022284929
218	0xbd99446c	-0.074837536
219	0x3c722f75	0.014781822
220	0x3d30aaff	0.043131825
221	0xbde79005	-0.113067664
222	0x3d588256	0.052858673
223	0x3de42a31	0.1114086
224	0xbd8984d2	-0.067147866
225	0xbd4c094f	-0.049813565
226	0x3c29e27a	0.010368938
227	0x3dade0ef	0.08490168
228	0xba5c1de0	-0.00083967857
229	0xbd26d26d	-0.04072802
230	0xbd0e0d19	-0.03468046
231	0x3dcf47c7	0.10121112
232	0x3dd73f8a	0.10510166
233	0x3e00ba96	0.12571177
234	0x3d4ddf29	0.05026165
235	0xbdb0fe39	-0.08642239
236	0x3dbe10cd	0.09280548
237	0x3cb08369	0.021547036
238	0xbd6804e2	-0.05664528
239	0xba8ad493	-0.0010591917
240	0x3cb50d35	0.022101024
241	0xbdcf6ab8	-0.10127777
242	0x3d2d564d	0.04231863
243	0x3c087d30	0.008330628
244	0xbd75c54c	-0.06000261
245	0xbb7e6779	-0.0038818999
246	0x3a824ce3	0.0009941127
247	0x3d630d51	0.05543262
248	0xbdf86176	-0.12127964
249	0x3d13de63	0.036100756
250	0xbdcec5f3	-0.100963496
251	0xbdc4bb61	-0.09606052
252	0xbded6f53	-0.11593499
253	0xbdc339f3	-0.09532537
254	0x3d988ecf	0.074491136
255	0xbcd57cee	-0.026060548

layer.2.bias f4 [32]
0	0x3da4b890	0.08043015
1	0x3da145dc	0.07874653
2	0x3b32e640	0.0027297884
3	0xbdfba8fa	-0.12288089
4	0xbceb3988	-0.028713956
5	0x3db960e0	0.090516806
6	0xbdb84aec	-0.08998665
7	0xbdfe1606	-0.124065444
8	0xbd03c8b4	-0.032173827
9	0xbda17758	-0.07884091
10	0xbcf48d28	-0.029852465
11	0xbaa25f80	-0.001238808
12	0xbcb051a0	-0.021523297
13	0x3dd279a8	0.1027711
14	0x3dbf5b9e	0.093436465
15	0x3dbf3fe2	0.093383566
16	0x3c234170	0.009964332
17	0x3de01fa4	0.10943535
18	0xbcc56c98	-0.024099633
19	0x3db689a6	0.08912973
20	0x3ce11888	0.027477518
21	0x3dbc4376	0.09192555
22	0x3c28d420	0.010304481
23	0x3de8e0ae	0.11370979
24	0xbd55c1f4	-0.05218692
25	0x3cb3f618	0.021967933
26	0xbdc6d992	-0.09709467
27	0xbd1f3390	-0.038867533
28	0xbd87d56a	-0.066325024
29	0xbc8a4018	-0.016876265
30	0xbdd2b438	-0.1028828
31	0xbdf77e24	-0.12084606

layer.3.weight f4 [1, 32]
0	0x3e07e42e	0.13270637
1	0x3e1ff002	0.156189
2	0xbdf19f04	-0.11797908
3	0x3d835fc8	0.06414753
4	0xbd965879	-0.073410936
5	0xbe336321	-0.17518283
6	0x3e110538	0.14162147
7	0xbd4942a1	-0.049135808
8	0xbdfe9ab6	-0.124318525
9	0xbe147200	-0.14496613
10	0x3daa3f7c	0.0831289
11	0x3e254729	0.16140427
12	0x3e2230f9	0.15838994
13	0xbcac8739	-0.021060573
14	0xbdaf646b	-0.08564075
15	0x3dabd4f9	0.08390231
16	0x3ce798eb	0.02827116
17	0xbc79fa35	-0.015257408
18	0xbd233324	-0.039843693
19	0x3e01e7f4	0.1268614
20	0xbe102f69	-0.14080586
21	0xbda94793	-0.08265605
22	0xbe2a51e7	-0.16632806
23	0x3df8e77c	0.12153527
24	0x3d5accbe	0.053417914
25	0xbe2d4b21	-0.1692319
26	0xbd5be2f1	-0.053683225
27	0xbc286500	-0.0102779865
28	0xbe2bb5f5	-0.1676863
29	0xbe10ed69	-0.14153065
30	0x3d5319b8	0.0515382
31	0xbd7f84f5	-0.062382657
