src/models/v2/pretrained_models/suzuka_model_v2.pt (torch, 54383 bytes, 7 tensors)

layer.0.weight f4 [128, 16]
00000000: 8040 663c 235b a9bd 1733 623e f4a6 7bbd
00000010: a5e7 e13d dd2e 213e 0223 0bbe 6e54 963d
00000020: 7028 203d faf0 433e 1ddd 443e 534a 583e
00000030: 51fd 933d a4e5 2abe 88ce f7bb d413 74be
00000040: dccb 8abd 1ebe 893d 65a0 38be 1089 21bd
00000050: fce1 873c 2c9a f1bd e7b6 2cbd 6c5c c5bd
00000060: db7f 773e afdd 523d 6c60 2d3e 1a74 80be
00000070: 09e4 1b3e 3015 483e f92b 5a3e 6ce8 c5bd
00000080: b0d1 27bd f600 78be e0eb cabd 2a7c 463e
00000090: e909 583d 47d1 4d3e 1e18 fcbd 370a 27bd
000000a0: d048 353e a1af b8bd 6d89 343e 7431 983d
000000b0: 2732 c33b 7165 93bd da3c d83d 5ce9 67be
000000c0: dc28 62be 3b6b d03d 0d60 373e 9867 6dbd
000000d0: 0860 61be 826a 3bbe 7398 183c 7eb6 9fbd
000000e0: edc1 1d3e 6edd 793e 33ee 893d 1c62 023e
000000f0: f274 4fbe 972c 70be 70c9 4ebe 6900 ddbd
00000100: b087 6bbd 4304 ccbd 523d 00be b679 e13d
00000110: 0775 083c a503 0bbd a7db b1bd ceef 61be
00000120: 05b8 6f3d e610 163e e3d5 253e 8ff3 3cbe
00000130: 28b4 20be fe0a 7bbe b963 96bd 3cf5 703e
00000140: e030 603d 9382 213e b496 5c3d 4ace a73c
00000150: 250f f73d ef87 5d3e 6e10 85be cb7e 44be
00000160: f22a d83d aea0 5cbe 5546 0fbe 281c 74be
00000170: 0b8d 0cbe ceb2 6a3e fa26 f13c b0dd e83c
00000180: b627 733e fb1d 3e3e a0f1 21be 3071 b13d
00000190: e691 b63c df43 dd3b 16f5 3bbc f64d ed3d
000001a0: cbf5 38be 0895 e63d e011 7f3e 93a1 adbd
000001b0: de92 3abe 3564 433e 86b2 13be c024 aebd
000001c0: 00d1 383b 04fd 6b3d 526c 453e dedc bf3c
000001d0: 14a1 25be 7ba2 633e 8c39 523e 4a12 e6bd
000001e0: 1a51 ddbd cc89 4cbe a6d8 6bbd 4ed4 3d3e
000001f0: 1b94 ac3d addd e63d 0674 83bd 76c1 0dbe
00000200: 0e72 55be ec63 0dbe ea68 71be 2d08 dbbd
00000210: 2100 453e cd47 b63d 4a3c 003e 339f 9e3d
00000220: e079 6ebe 8224 dcbc 698d 3fbe b6bc a03c
00000230: c1ff cd3d 1054 75be 8426 413e 7cd1 b63d
00000240: 5e8d 723e ea27 60be a8d0 4ebe dec2 5c3e
00000250: 0ae9 253d 6295 0abe 6383 243e e3a6 12be
00000260: 422a 1fbe 859d 023e 0c23 10be ca7c bfba
00000270: bf15 a83a e588 8fbd 7b73 37bd 3e05 783d
00000280: 906d 293d 797d 4b3e e7be 25be a2ed d63d
00000290: 39be ca3c abac 5c3e b06c 2c3e 098f 9fbd
000002a0: 8c06 403e 9651 9b3d 495c 46be 2d48 1bbe
000002b0: e3bb 1ebe b348 4dbe ed57 86bc bf45 2c3e
000002c0: 1a70 143e 8237 e83c d9ce 08be be4c 2ebe
000002d0: 147d 19be 8df5 b13c dcf8 c7bd 28b7 d2bd
000002e0: 3024 f83d 5b70 603e 9322 cbbd b8fb 17be
000002f0: afe3 f03d 49de 383e 29f8 08be 9306 603e
00000300: ca72 2c3e 6fb7 9d3d 665c 25bd 23bd 103d
00000310: 7c77 7c3d a188 76be 9ead 133e ed14 fcbd
00000320: f70d 60be 2976 6a3e 91d7 8c3d f5db 56be
00000330: 8d46 e4bd 2e7b a9bd 21fb 883d dee4 42be
00000340: 0844 213e 0523 9a3d 8ebf f2bd 4489 053e
00000350: 7cbf 193e 7a0b e8bc ec85 6b3d 77ac d4bd
00000360: 28f1 04be 1b7d 813d 2044 2f3e c98b 223e
00000370: b96d 3fbd df56 2bbc 6f3d 56be 6207 b5bd
00000380: 607e d3bd 3363 0e3e eac6 55be ab09 f9bd
00000390: c24f 5c3e 8ff4 1b3e aa32 c03d 2502 cabd
000003a0: e51c 0fbe 3377 12bd 8c9e 52be 12b6 333e
000003b0: 7679 60be 54d4 193e fb27 403d e536 183e
000003c0: 4c8d 613e 1d6e e2bd 5227 3abe e5ab 17be
000003d0: 2a3b 1fbe 043c e43c 134d 91bd ed2f a9bd
000003e0: 28a4 19bd 0b18 013e b290 903d 3656 1a3e
000003f0: ad04 0339 1b6d 34be 9b42 2b3e 870f 4a3d
0.014053464 -0.08269336 0.22089802 -0.061438516 0.11030511 0.15740533 -0.13587573 0.073403224
0.039101064 0.19134894 0.19224973 0.21122102 0.07226051 -0.16689163 -0.0075624622 -0.23835689
-0.06777164 0.06725715 -0.18029936 -0.039437354 0.01658725 -0.11796984 -0.042166617 -0.09636769
0.24169867 0.051480945 0.16931313 -0.25088578 0.15223707 0.19539332 0.21305837 -0.096634716
-0.040971458 -0.24219117 -0.09908271 0.19383302 0.052743826 0.20099364 -0.123092875 -0.040781226
0.17703557 -0.090178736 0.17630549 0.074313074 0.0059569064 -0.07197083 0.105584815 -0.22647613
-0.22085899 0.101767026 0.17907734 -0.057960123 -0.2200929 -0.18302348 0.0093136905 -0.077984795
0.15406008 0.24400875 0.06734886 0.12732738 -0.20259455 -0.2345451 -0.2019403 -0.10791094
-0.05750245 -0.0996175 -0.12523392 0.11009543 0.008328683 -0.033939023 -0.086844735 -0.22064134
0.058525104 0.14654884 0.16194873 -0.18452285 -0.15693724 -0.24515912 -0.07343239 0.2353105
0.05473411 0.15772466 0.05385466 0.020484108 0.120634355 0.21633886 -0.25989097 -0.19188993
0.10555066 -0.2154567 -0.13991673 -0.23838866 -0.13725679 0.22919771 0.02943753 0.028426021
0.23745617 0.18566124 -0.15814829 0.08664167 0.022286367 0.0067524756 -0.011472007 0.115871355
-0.18062513 0.11258894 0.24909163 -0.084780835 -0.18220088 0.19081195 -0.1442357 -0.08503103
0.0028200746 0.05761434 0.19279602 0.023420747 -0.16174728 0.2222995 0.20529765 -0.11233957
-0.108064845 -0.1997444 -0.05757966 0.18538019 0.084266864 0.1127275 -0.06418614 -0.1384333
-0.2084429 -0.13807648 -0.23575178 -0.10694919 0.1923833 0.08900414 0.12522998 0.077452086
-0.23288679 -0.026872877 -0.18706287 0.019621234 0.10058547 -0.23957849 0.18862349 0.08926675
0.2368674 -0.21890226 -0.20196784 0.21558711 0.040505446 -0.13533548 0.16065745 -0.14321475
-0.15543464 0.12755401 -0.1407587 -0.0014609334 0.0012823864 -0.070085324 -0.044787865 0.060551874
0.041364253 0.19872083 -0.16186105 0.104945436 0.024748908 0.21550243 0.16838336 -0.07790954
0.18752497 0.07583921 -0.19371141 -0.15164252 -0.1550136 -0.20047264 -0.016399348 0.16823481
0.14495888 0.02834678 -0.13360156 -0.17021462 -0.1498912 0.021723533 -0.09764263 -0.102888405
0.12116277 0.2191786 -0.09918704 -0.14842117 0.11762177 0.18053545 -0.13375916 0.21877508
0.16840664 0.07701003 -0.04037132 0.035336625 0.061637387 -0.24075557 0.14421698 -0.12308679
-0.21880327 0.22896637 0.068770535 -0.20982344 -0.11146269 -0.08275448 0.06688524 -0.19032618
0.15748608 0.07526211 -0.118529424 0.13040644 0.15014452 -0.028325785 0.057500765 -0.103844576
-0.12982619 0.0632269 0.17115831 0.15873636 -0.0467355 -0.010457723 -0.20921873 -0.08839299
-0.103268385 0.13905029 -0.20876661 -0.12160047 0.215148 0.1523001 0.093846634 -0.0986369
-0.13975866 -0.03575821 -0.20568293 0.17549923 -0.21921334 0.15022403 0.04691313 0.1486469
0.22026557 -0.11056159 -0.18179062 -0.14811666 -0.15549913 0.027860649 -0.07094779 -0.08261094
-0.037510067 0.12606828 0.070588484 0.1507195 0.00012494875 -0.17619745 0.16724627 0.049331214

layer.0.bias f4 [128]
00000000: b80c 4b3d 8085 843d 869e 613e 541e ddbd
00000010: 6c46 a83d 8cbc 4e3e 4c80 7abe 24ba 04be
00000020: d0c4 603e 203f bd3c ceee 433e 4a91 75be
00000030: 1cbb e43d d223 5abe c02a b6bb 80c7 9e3b
00000040: 60e0 703e 2046 1d3e 24be f7bd e47a 52be
00000050: b0a8 a4bd 40ac 81bd b672 62be 4663 2bbe
00000060: c01a b73b 78cb 32be 983c 03be 0ee5 343e
00000070: 54ac 703e 5c97 7c3e f078 973c 2069 b6bd
00000080: 5080 a43d 4852 0c3d ee6c 513e b809 06bd
00000090: 2051 213d b219 5d3e 3629 49be 68d0 76be
000000a0: ca59 0e3e 8a0a 743e a441 283e 9cf9 e2bd
000000b0: 0030 32ba d42a ebbd a8cf 64bd 18e4 39be
000000c0: 00f1 6bbe 307a 213d e6bd 273e 00fa 6bbd
000000d0: 0e0a 413e 28fe 6cbd 4a23 633e c679 12be
000000e0: 80fb c33d 1c03 e83d d899 23bd a0c3 cbbd
000000f0: 5007 c1bd b269 1bbe 3498 e1bd f006 073d
00000100: c0b3 63bd c0db e9bc be3d 393e 107b 4dbe
00000110: 307d 55bd 5455 1abe 7071 f13d 202a 6e3c
00000120: ac61 bcbd d819 57bd c477 b7bd 182f 5a3e
00000130: e25d 5bbe 4437 f03d 0078 98bb c4fa 5fbe
00000140: e879 463d fcc6 78be 80d8 983c 80d7 0f3c
00000150: f09a 723d 542a c83d 50ff 7f3d 001a 67bd
00000160: 5c71 043e c014 f23c 5431 02be f46f 3dbe
00000170: 68da e3bd 44a2 c53d 44ea 413e 2a7e 553e
00000180: 20c8 74bd d44b 91bd 8076 dd3d 107d 8f3c
00000190: 403a 93bc 3c49 91bd 2e1c 273e c024 42bc
000001a0: 40f4 19bc 3cdd d3bd d0d4 c83c 4413 cebd
000001b0: a8c1 633d a0ee 593e 40a1 4dbc 4caa 0a3e
000001c0: 5c5e d1bd fa04 17be 7011 1c3d 80e1 b53c
000001d0: dedd 67be 18d9 26bd 005d 4b3c 5878 1d3d
000001e0: 000f 013e 38c4 35bd 7068 6a3e c4fe a5bd
000001f0: dc96 28be fea7 0fbe d881 13bd 9e6a 4ebe
0.049572676 0.064707756 0.22033128 -0.107968 0.08216557 0.20189112 -0.24463004 -0.12961632
0.21950078 0.02310139 0.19134066 -0.23981205 0.11168501 -0.21302727 -0.0055592954 0.0048455596
0.23523092 0.15358782 -0.12096813 -0.20554692 -0.08039987 -0.06331682 -0.22114071 -0.16737089
0.0055879056 -0.1746043 -0.12816083 0.17665502 0.23503238 0.24667114 0.018490285 -0.0890677
0.08032286 0.034258157 0.2045171 -0.032724112 0.039384007 0.21591833 -0.19644627 -0.24102938
0.1390144 0.23832145 0.1643129 -0.110827655 -0.00067973137 -0.11482778 -0.0558621 -0.18153417
-0.23041153 0.039423168 0.16381034 -0.057611465 0.18851492 -0.05785957 0.2218143 -0.14304265
0.09569454 0.11328718 -0.03994164 -0.09949422 -0.09425223 -0.15177038 -0.110153586 0.0329656
-0.055591345 -0.028547168 0.18089959 -0.20066476 -0.05212134 -0.15071613 0.117892146 0.014536411
-0.09198317 -0.05251488 -0.0895839 0.21307027 -0.21422532 0.11729291 -0.004652977 -0.21873003
0.048456103 -0.24294657 0.018657923 0.008779407 0.05922979 0.097736984 0.062499344 -0.05642128
0.12933868 0.02955091 -0.1271413 -0.18499738 -0.11125642 0.0965009 0.18937021 0.20848909
-0.059761167 -0.07094541 0.10813618 0.01751569 -0.017972112 -0.070940465 0.16319343 -0.011849582
-0.009396613 -0.103449315 0.02451554 -0.100622684 0.055604607 0.21282434 -0.012550652 0.13541526
-0.10223076 -0.14747992 0.038102567 0.022202253 -0.2264323 -0.04073438 0.01241231 0.038444847
0.12603378 -0.044376582 0.22891402 -0.08105233 -0.16463798 -0.14028928 -0.0360125 -0.20157859

layer.1.weight f4 [64, 128]
00000000: 571b e13a 500a d93c 477c 93bd 72f5 aebd
00000010: 3724 9c3b 3d59 a8bd 0030 48bd 6abb 8b3d
00000020: e9b7 82bc 39d4 1d3d ecfe 4ebd 1666 4dbd
00000030: e6c8 04ba 625d 90bc 8112 ccbc acf8 663d
00000040: 741b 583d 5958 a63d 9d53 e23c 153b b13d
00000050: 8e19 e7bb 8f50 0cbc ff04 34bd 76c9 b3bc
00000060: c1d7 de3c 5059 bfbb b6a0 69bd 3abe 92bd
00000070: da52 503d 344f 2ebc 6bc4 8fbd 2b1c a4bc
00000080: b6f3 a53d ecbc 68bc c338 21bd be17 7e3d
00000090: ceea 2dbd 8ab7 a63d 526d a0bd db9f 2c3d
000000a0: 3ab1 8fbd 4a2a 0b3d 926f b03d 9014 30bb
000000b0: 1a2a a5bd fab6 a0bd ff79 733c 3970 a4bd
000000c0: cfff 3c3c f36b 8d3d 5d9b 78bd 0151 38bc
000000d0: 43c0 ba3b e2db 84bd be86 bcbc aeaa 183d
000000e0: 4c78 d23c 7089 cc3c 82dd 093d 20d0 723d
000000f0: 24d4 afbc 2a74 5abd a035 0cbc 49bc 5abd
00000100: 28b0 563d 6f90 f2bc 4e6b 8cbd 1d15 e63c
00000110: 7ec4 6c3b f737 b53b 7fcd 10bd aded 753d
00000120: 4de6 a73d 110b b6bc d06d 7fbd 8e4c 573d
00000130: c10f da3c b9b8 883d a160 903d d758 80bd
00000140: ef4a 7abd f16d e3bb 14c5 b13d a858 353d
00000150: b349 9c3c 599e ae3d 8922 91bd 12ce 86bd
00000160: 3fc2 bd3c 38c9 503d 536b e1bc 791a 853d
00000170: f811 4cbd 091f 423d b0bd 83bd 64a6 e43c
00000180: a549 37bd 0d3e 4ebd 4a67 16bd f84a 9d3d
00000190: 8b18 34bb 7acb c5bc 4a0b c23a df63 aabd
000001a0: cf55 bdbc 8014 8cbc 0271 7c3d 52ad 733d
000001b0: a3ab a2bd 2aa1 263d 88b4 a03d 62b1 233d
000001c0: 008d acbc 2108 873d 5623 73bd 91db 403d
000001d0: f3f1 81bd c9b6 9c39 2a1b 5bbd 535d a33c
000001e0: 7965 6abc 6971 aa3d 4dd5 d53b 818b 6dbc
000001f0: 03ae 04bd 22e5 1a3d ae52 2f3d 102a 8ebc
00000200: dc12 25bd 5497 0f3d a1f2 a4bd 0fcd 68bd
00000210: 81a7 053d 2ae2 463c 96da fd3b 9047 1d3d
00000220: 6907 94bd 2648 103d 1b7f be3d 20a6 f8bc
00000230: 7890 6bbd ca48 c4bd 3b4f 453d 0851 903d
00000240: 6a0a 5dbd 1f4e 503d ac9f 31bd 0f5d 93bc
00000250: 525c d63c 9427 3cbd a44e 143d c317 863d
00000260: 2be7 86bd 4f36 24bd bed0 d8bd f28b 7b3d
00000270: f7e7 54bd bce7 533c 5a3b acbc d6dc 40bd
00000280: 4c78 9bbd b392 1dbd 7c22 c93c 4411 73bd
00000290: 2966 a33d 6918 c43d a95d a7bd 06fa 083d
000002a0: 98e9 6a3d 7579 0b3d f75d 27bd d91b 9cbd
000002b0: 9450 2cbd 3d43 813d f4fd 663b e855 f43c
000002c0: 4071 a33d 1430 9abc 51ed 14bd 1bcd 8dbd
000002d0: 91dc 7f3d 9810 423d d0d3 c33c 5afc c63c
000002e0: 5bbe 8dbc 6bbf 2d3d ecdc 503d 647b 5d3d
000002f0: 4995 063d bef6 8c3d 8e82 e43b 8ff4 b43c
00000300: a98f 7b3d 5f82 44bd 9e93 653d b2ef 24bd
00000310: 0c82 d0ba f392 283c e789 873c d77a f9bb
00000320: 644c 3abb a507 e0bb 9c09 69bd 9744 1a3d
00000330: 8013 3f3d 234d 333c 6332 393d e437 c33c
00000340: 0cc3 9e3d b36d 593d f3aa bbbc f937 0a3c
00000350: 2d1f 92bd e8cc 843d 2cb4 553d 5dfe c8bc
00000360: 5ca6 e63c 1fe3 71bd 6cad cd3b 26a2 a7bd
00000370: 27b4 9b3d df37 3a3c 0ea2 57bd bc8f 073d
00000380: c54b a8bd d558 943d 7579 2dbd 7d29 9b3c
00000390: 4b98 743d 9d42 fbbc 9c8a 8039 dc0d 9c3d
000003a0: 7773 7bbc 3473 af3d f66c 843d 83ad 9f3c
000003b0: 3417 1fbd bd37 8dbd 6c91 1dbd dee0 36bd
000003c0: 9969 1cbb 71d7 a73d 6343 a33d c517 c83a
000003d0: 16a8 9bbd 3697 2dbc 5b98 1bbd fe9f 15bd
000003e0: e1c1 a0bd 1dcb 29bd 7388 90bd bce8 8e3c
000003f0: 53fd c1bc 5b69 5ebc f924 0cbd 0946 84bd
0.0017174286 0.026494175 -0.072014384 -0.08542909 0.0047650593 -0.08220146 -0.0488739 0.06822856
-0.015956836 0.03853247 -0.05053608 -0.050146185 -0.00050653366 -0.017622653 -0.024911167 0.056389496
0.052760556 0.0812232 0.02762776 0.08653847 -0.007052607 -0.008564129 -0.043950077 -0.02194665
0.027202489 -0.0058395043 -0.05703803 -0.07165189 0.050860263 -0.010639001 -0.07019886 -0.020032963
0.08103125 -0.014205199 -0.039360773 0.06203436 -0.042460255 0.08140476 -0.07833351 0.042144638
-0.07016225 0.033975877 0.0861503 -0.0026867725 -0.08064671 -0.078474 0.014860629 -0.08029217
0.011535599 0.06905355 -0.06069504 -0.011249782 0.005699189 -0.06487252 -0.023013469 0.037272148
0.025692128 0.024967879 0.033658512 0.059280515 -0.021463461 -0.05333344 -0.008557707 -0.05340222
0.05241409 -0.029609887 -0.06856404 0.02808624 0.003612786 0.005530353 -0.035352226 0.06004112
0.08198223 -0.022222074 -0.062360585 0.052563243 0.02661884 0.06675858 0.070496805 -0.06266945
-0.06110662 -0.0069405963 0.08680168 0.044274002 0.019078111 0.08526296 -0.07086665 -0.065822735
0.023163913 0.050973147 -0.027516996 0.0649919 -0.049821824 0.04739288 -0.064326644 0.027911372
-0.044747967 -0.050352145 -0.036719598 0.07680315 -0.002748045 -0.024144877 0.001480439 -0.0831983
-0.023112206 -0.017099619 0.06163121 0.059491463 -0.07942893 0.04068104 0.078469336 0.039964087
-0.021063328 0.06593347 -0.05935987 0.047084395 -0.06344976 0.00029890824 -0.053492703 0.019941961
-0.0143064195 0.083224125 0.0065256716 -0.014498592 -0.032392513 0.037816174 0.04280346 -0.017354041
-0.04030119 0.035056427 -0.0805409 -0.056836184 0.032630447 0.012138883 0.0077470047 0.038398325
-0.07227976 0.035225056 0.09301587 -0.030352652 -0.057510823 -0.09584196 0.048171263 0.070467055
-0.05396501 0.050855752 -0.043365166 -0.01798871 0.026167069 -0.045936182 0.03620781 0.06547501
-0.065870605 -0.040090855 -0.105866894 0.06141276 -0.05197903 0.012933668 -0.021024395 -0.047085606
-0.07591304 -0.03846998 0.024552576 -0.059342638 0.0797847 0.09574968 -0.08172161 0.033441566
0.05735168 0.034051377 -0.040861096 -0.07622499 -0.042069033 0.06311653 0.0035246583 0.02982612
0.07980585 -0.018821754 -0.036359135 -0.069238864 0.062466208 0.047379106 0.023904711 0.024290252
-0.017302683 0.04241888 0.050991938 0.054072753 0.032857213 0.06883 0.006973571 0.02208927
0.061416302 -0.047975894 0.05604898 -0.040267654 -0.0015907898 0.010288942 0.01654525 -0.0076135206
-0.002842688 -0.006836849 -0.05689393 0.03766307 0.046649456 0.010943684 0.04521407 0.023830362
0.07752046 0.053083133 -0.022908663 0.0084361965 -0.071348526 0.06484395 0.05217378 -0.024535352
0.028155498 -0.05905449 0.006276777 -0.08185224 0.07602721 0.01136586 -0.05264478 0.03309606
-0.08217577 0.07243506 -0.04235216 0.018940682 0.05971555 -0.030671412 0.00024517335 0.07619831
-0.015347353 0.08566895 0.06466095 0.019491917 -0.038840488 -0.06895397 -0.038468763 -0.044648044
-0.0023866652 0.08195389 0.07971837 0.0015265873 -0.07600419 -0.0105951335 -0.037987094 -0.036529534
-0.078494795 -0.04145347 -0.070572756 0.01744496 -0.023680365 -0.013574923 -0.034214947 -0.06458671

layer.1.bias f4 [64]
00000000: b56d 103d 30ec 99bc 241c 8e3d bac2 97bd
00000010: e1a7 b8bc 24e9 b23c d344 54bd df6c 833c
00000020: 8187 a53d 1aa8 af3c 7f64 6c3b b279 73bc
00000030: 344b 51bc 1d0c 453b 0e0f 93bd bf22 183d
00000040: 98a9 ac3d 2af4 e13b 8dd8 1e3d 980d 69bd
00000050: 7914 3bbd f1eb 4c3c ceb6 603c 439f 423d
00000060: c94f 673d 9984 893d dada 3f3d 2ed8 a0bd
00000070: 78ef b33d 9629 adbc 8b3b 6bbd 160f 5e3d
00000080: 604f 87bd cae4 7d3d 3c82 603d 1d75 423d
00000090: eaa4 9c3d 5e4c 22bd 8e61 053d 34ea fd3b
000000a0: 5bbf dc3c e6ab 27bc e581 443d 935d 4b3c
000000b0: 1dc1 213d 3476 47bd 221a 9f3d f8e1 ae3d
000000c0: e925 1f3d bb36 cbbb c669 8bbd 5fb5 5d3d
000000d0: de42 973c 6726 d73c 2012 663d b539 97bd
000000e0: 2d0f a53c f34e e43c ee8c 6fbd 03f0 1f3d
000000f0: f975 953d c235 8cbc 0bf8 453d 8a92 af3d
0.035260875 -0.01878938 0.06938961 -0.07410188 -0.022540988 0.021839686 -0.05182345 0.016043125
0.08082486 0.021442462 0.0036070643 -0.014860557 -0.0127742775 0.0030067035 -0.07180606 0.03714251
0.08430785 0.0068955617 0.038780738 -0.05689773 -0.04567382 0.012507425 0.013715459 0.047515165
0.056472573 0.06714744 0.046839572 -0.07853733 0.087859094 -0.021137994 -0.05742983 0.054213606
-0.066069365 0.06198577 0.0548117 0.04747497 0.07648642 -0.03962361 0.03256374 0.0077488665
0.026946714 -0.010233855 0.04797544 0.012412447 0.039490808 -0.04869671 0.07768656 0.08539194
0.038854513 -0.0062015927 -0.06807284 0.054128047 0.018464502 0.026263429 0.05616963 -0.073840536
0.020148838 0.027869677 -0.05848401 0.039047252 0.07297892 -0.017115477 0.048332255 0.08572872

layer.2.weight f4 [32, 64]
00000000: e04b 483d 01b7 67bc af76 d93d fdcc e03d
00000010: 9172 adbd 0e54 b53d 3c87 09bc 2de0 a4bd
00000020: 8a48 1abd 7b68 c6bd 5aed e8bc 0e9e 493d
00000030: e320 463d 662c f63d ec2a 3dbd ec85 cf3c
00000040: 945c 35bb 0663 81bd 96be b6bd 74e5 9fbd
00000050: a27d f63d 5862 ba3d a59f b9bd 514f b4bd
00000060: 19d1 ec3c 7b9a bdbd 9307 b73d fea9 bfbd
00000070: ebd6 67bd 7faf ed3d 9cc7 e23d 7e61 e1bc
00000080: a093 2a3c 2f2b d53d db7c 363d 3365 ce3d
00000090: 9238 1ebd 2f94 753a 86d9 34bc df96 12bd
000000a0: d9fc d53b 683f 8d3d ae71 54bd e922 f0bd
000000b0: e7ae 833d 3dc5 5f3d e358 2ebd 4557 71bd
000000c0: a026 d73a ff80 3b3c 9901 07bd 8fbb 1a3d
000000d0: 8ce0 9a3d 0d70 a03c 6bcc b3bd 6212 e53d
000000e0: fe63 453d 04dd 1dbd e748 42bb ced4 a13c
000000f0: dbcd d0bd 90d9 abbd 357a b0bb ef5c c2bd
00000100: 8824 b63d eece b6bd 14d9 173d 637e 41bd
00000110: 44f5 d43d ca97 173c 6abe c33d 46d2 88bc
00000120: a57f 743c 3ff1 9a3d 90a4 1ebd 4c45 8fbd
00000130: 57ff f7bd fd17 5c3d 8613 b8bd a4fd a93d
00000140: 5cef 84bd 2393 b73d 8d32 28bd acd2 873d
00000150: b2c1 7abd 02ed d5bc 5532 c6bb 55ef e33d
00000160: 44b3 e73d bcc9 a8bd 509b ec3d fec8 fbbc
00000170: 8a8e 543c 6297 31bb 9881 d73c 58e4 b4bd
00000180: 54bc 55bd ec8e fb3d 9da0 8f3d 7459 aa3d
00000190: 70ac b3bd f62b 66bd b794 bcbd f056 4ebd
000001a0: f2ea 37bd 6ca5 86bc 72f7 51bc f675 453c
000001b0: c332 e03d 5fa7 36bd 7c58 cabd 3ec8 26bc
000001c0: 38af d2bc b419 01bd e5a3 d6ba 0499 18bd
000001d0: 31af ce3d ae36 c13c 1ced 8bbc b745 72bd
000001e0: 09f7 56bd 729f 233d 2ab6 f83b 0024 a73d
000001f0: 31ef 41bd ac15 a03d 9411 35bd 312a aebd
00000200: a8a5 aabd c3fc 0fbd c220 9c3d cea9 b8bb
00000210: 6abb c7bd 1b50 17bd d987 a53d 5459 30bd
00000220: d843 153d 8048 fd3d 8880 5bbd 06d7 003e
00000230: 1502 d9bd 08b9 06bd e96d 3abd 6ade 89bd
00000240: fbfc ffbd b589 dcbd e466 29bd 9cc9 d9bd
00000250: d947 4ebc f155 053d eec6 a5bd a2a1 c0bd
00000260: c1b6 f73d 0ad0 2dbb a884 7cbd bdad a23d
00000270: 2857 2b3d 40c4 7e3d 78dc 323d b91e b2bd
00000280: 0fb4 673d 9c96 40bd e542 e93d 8193 c1bd
00000290: dd3f b13d 9b58 06bd c640 b1bc 0e16 e4bd
000002a0: 9475 703d d0d3 ee3c 6351 6abd 6051 84bd
000002b0: 54a3 0abd 4598 febc 6a45 783d 4651 adbd
000002c0: 433c ebbd d100 debd a45c e13c 624e bdba
000002d0: 29b8 d1bd 978f 173d 62e6 32bc 407c 333c
000002e0: 8a20 7e3d b977 51bc c98d 9ebc 3244 713d
000002f0: b16b 533c 2bf1 09be 814d 3cbd 02c4 83bd
00000300: 366b 8cbd 5948 21bd 7d34 c63d f26e cbbd
00000310: 7cd1 1fbc e5fb 7ebd 415e c0bd 1609 87bd
00000320: 776a 79bc f3e1 5abd 9f32 7bbd 48cb 8f3d
00000330: db07 dfbd 877a fcbd 86a7 c23d 24ca 00be
00000340: 6591 c83d cf40 89bd e625 e33c 24a6 e9bd
00000350: 3375 a4bd 1958 603b cf77 b23d 415c 663d
00000360: f73c 7cbd afb4 bc3c 0639 9fbd 0ef3 583c
00000370: 0d8e 373d 182c eabd 45c3 543d fc97 e33d
00000380: 00d3 8abd 6c33 4dbd 6d4a 1c3c 90b1 b03d
00000390: e85b b6b9 d984 20bd f751 16bd 23c2 ce3d
000003a0: b899 da3d 9ce7 fe3d d31d 4d3d 8c75 b1bd
000003b0: ad4e b83d e1a4 c43c 3757 5fbd 8a09 a6ba
000003c0: 8e93 b43c 1b66 cebd 5dd2 2d3d 5106 203c
000003d0: b29a 77bd bcdc 8cbb 97d4 14ba 0d5f 583d
000003e0: 6c2c f6bd 9d3e 193d 6a87 d1bd a7a7 c7bd
000003f0: 4589 ecbd 8bc9 bdbd 5fc3 993d 70e7 cfbc
0.048900485 -0.014142753 0.1061834 0.109765984 -0.084691174 0.08853923 -0.008394059 -0.08050571
-0.037666835 -0.09687897 -0.02843349 0.049223 0.048371207 0.12020187 -0.04618351 0.025332414
-0.002767359 -0.06317715 -0.0892307 -0.078074366 0.12035681 0.09100789 -0.09063653 -0.08804191
0.0289083 -0.092579804 0.089369915 -0.09358595 -0.056601446 0.11605739 0.11073229 -0.027512308
0.010411173 0.10408627 0.044552665 0.10077896 -0.03862817 0.00093680894 -0.01103819 -0.035788413
0.006530386 0.068968594 -0.051866226 -0.117254086 0.06429844 0.05463146 -0.042565238 -0.058921117
0.0016414709 0.011444329 -0.032960508 0.037776526 0.0756236 0.01958468 -0.08779224 0.11185147
0.048191063 -0.038540855 -0.0029645504 0.019754793 -0.10195514 -0.08391106 -0.005385662 -0.09490382
0.088936865 -0.089261875 0.037072256 -0.047239672 0.10398343 0.009252498 0.09557803 -0.016701829
0.014923011 0.07565545 -0.038731158 -0.06995639 -0.12109249 0.053733815 -0.08988099 0.08300331
-0.06490967 0.08963611 -0.041063834 0.06631979 -0.06121988 -0.02611399 -0.0060484805 0.11129633
0.11313489 -0.08241603 0.11553061 -0.030735489 0.012973437 -0.0027098288 0.026306912 -0.088326156
-0.052181557 0.122831196 0.070130564 0.08317843 -0.08773124 -0.05619427 -0.092080526 -0.05037588
-0.044901796 -0.016436301 -0.012815343 0.01205205 0.10947182 -0.04459321 -0.09880158 -0.010179577
-0.025718316 -0.031518653 -0.0016375749 -0.037255302 0.10092009 0.023585644 -0.017080836 -0.059148517
-0.052481685 0.03994698 0.007590075 0.08161163 -0.04734725 0.078166336 -0.044206217 -0.08504141
-0.08332378 -0.03515316 0.076234356 -0.0056354767 -0.09752543 -0.03694163 0.080825515 -0.04305394
0.036441654 0.12367344 -0.053589374 0.12582025 -0.105961 -0.032891303 -0.045514975 -0.06731875
-0.12499424 -0.10768453 -0.04135789 -0.10634157 -0.012590372 0.032552663 -0.080945835 -0.09405829
0.120954044 -0.0026521706 -0.06164995 0.07943294 0.041831166 0.062198877 0.043667287 -0.08697266
0.0565682 -0.047018632 0.11389712 -0.09451962 0.08654759 -0.032799345 -0.021637332 -0.11137019
0.05870588 0.029153734 -0.057206523 -0.064608335 -0.033847168 -0.031078467 0.060613073 -0.08462767
-0.114861034 -0.108399995 0.027509995 -0.0014442916 -0.10240204 0.037002172 -0.010919185 0.0109549165
0.06204275 -0.012784892 -0.019354718 0.058902927 0.012904094 -0.13470905 -0.04597235 -0.0643387
-0.06856386 -0.039375637 0.0967798 -0.099332705 -0.009754535 -0.062251944 -0.093929775 -0.0659353
-0.015223137 -0.05343814 -0.061327573 0.07021195 -0.1089017 -0.12328058 0.09504609 -0.1257711
0.09793357 -0.067018144 0.027728032 -0.11408642 -0.080301665 0.0034232198 0.08714258 0.056240324
-0.061581578 0.023035375 -0.07774548 0.0132415425 0.044813205 -0.114341915 0.051944036 0.11112973
-0.06778526 -0.050097868 0.009539229 0.08627617 -0.0003478222 -0.039189193 -0.03669926 0.100956224
0.10673851 0.1244652 0.05007727 -0.086649984 0.08999381 0.024004402 -0.054526534 -0.0012667638
0.022043016 -0.10078069 0.042436946 0.009767131 -0.060450263 -0.0042987745 -0.00056774303 0.052825022
-0.120201916 0.03741323 -0.10230906 -0.09748774 -0.115496196 -0.09266957 0.07507967 -0.025378913

layer.2.bias f4 [32]
00000000: 90b8 a43d dc45 a13d 40e6 323b faa8 fbbd
00000010: 8839 ebbc e060 b93d ec4a b8bd 0616 febd
00000020: b4c8 03bd 5877 a1bd 288d f4bc 805f a2ba
00000030: a051 b0bc a879 d23d 9e5b bf3d e23f bf3d
00000040: 7041 233c a41f e03d 986c c5bc a689 b63d
00000050: 8818 e13c 7643 bc3d 20d4 283c aee0 e83d
00000060: f4c1 55bd 18f6 b33c 92d9 c6bd 9033 1fbd
00000070: 6ad5 87bd 1840 8abc 38b4 d2bd 247e f7bd
0.08043015 0.07874653 0.0027297884 -0.12288089 -0.028713956 0.090516806 -0.08998665 -0.124065444
-0.032173827 -0.07884091 -0.029852465 -0.001238808 -0.021523297 0.1027711 0.093436465 0.093383566
0.009964332 0.10943535 -0.024099633 0.08912973 0.027477518 0.09192555 0.010304481 0.11370979
-0.05218692 0.021967933 -0.09709467 -0.038867533 -0.066325024 -0.016876265 -0.1028828 -0.12084606

layer.3.weight f4 [1, 32]
00000000: 5757 063e 42fe 1d3e c0a4 f3bd 5ba7 813d
00000010: 8fd8 95bd a4d8 34be d23d 0f3e ccc5 45bd
00000020: 71da ffbd 59b9 12be fb29 a53d d78a 223e
00000030: 7649 213e 9961 afbc f7ce afbd 4e1d ad3d
00000040: 0f6d db3c 2cda 7bbc a58c 22bd ba3c 013e
00000050: 5b56 0ebe d210 a5bd 9e57 29be 391f f83d
00000060: 3824 573d 80c3 2bbe 01fd 58bd f4ad 03bc
00000070: 6f70 2bbe b5a7 0fbe ed2a 513d 0689 72bd
0.13119255 0.15429023 -0.11896658 0.06330749 -0.07316696 -0.17660767 0.13988426 -0.048284337
-0.12492836 -0.14328517 0.08064648 0.15873276 0.1575068 -0.021408843 -0.08584397 0.08452855
0.026785402 -0.01537184 -0.03968491 0.12620822 -0.1390013 -0.08059849 -0.1653733 0.1211533
0.052524775 -0.16773796 -0.05297566 -0.008037079 -0.16742109 -0.14028819 0.051066328 -0.059212707
