src/models/v3/pretrained_models/baku_model_v3.pt (torch, 63253 bytes, 15 tensors)

layer.0.weight f4 [128, 21]
-0.013807546 -0.1300444 0.06517318 0.18821654 -0.12949793 0.14829405 -0.026943082 -0.15848498
0.043454643 -0.02149161 -0.16794649 -0.034340926 -0.04963569 -0.18173917 0.18391533 -0.101993956
0.05074106 0.06086925 0.07090375 -0.00036518648 0.0655962 0.120445944 0.09391721 -0.21344064
-0.013395674 -0.18262099 -0.05294336 -0.01739901 0.057274573 0.16612823 -0.08832172 -0.18306136
-0.057671547 0.04422232 -0.012526899 0.15580654 -0.053652696 -0.1291587 0.03761157 0.1876259
-0.1583938 0.035938982 0.17322193 0.2206038 -0.012376417 -0.08211397 0.12120919 0.11016824
0.13546713 -0.046231914 0.021460904 0.014770606 -0.12889367 0.11827844 0.20023854 0.08449707
0.18789959 0.033844046 -0.06890974 -0.19105071 0.16869669 0.16468483 -0.05767243 0.09003298
-0.15594156 0.021704128 0.049901582 -0.012915325 0.04136157 -0.11287579 -0.20486239 -0.06547792
0.039586596 -0.028450115 -0.0046991347 0.20316115 -0.002703587 -0.051336344 -0.014845931 0.14323308
0.19451308 -0.079139456 0.16953325 -0.05611049 0.06285507 0.020753892 -0.05297767 0.023333002
-0.038920637 -0.08543594 -0.008677819 0.0021444052 0.14723696 -0.16153735 -0.05580165 -0.028665699
0.2013229 -0.027234223 0.1707079 0.087919086 -0.042952415 0.1306879 0.07468895 0.20801699
0.18931647 0.12265584 0.18950483 0.14409381 -0.101243444 -0.18378864 0.083192095 -0.107160755
-0.17422384 -0.17649406 -0.1949881 0.10394567 0.049700234 0.026754666 0.07279927 -0.16454063
0.014227318 -0.1457362 -0.062343433 0.026775472 0.043406013 -0.21134399 0.026746327 0.011105442
0.13632326 0.09952633 0.06201046 0.12172415 -0.078450345 0.17128997 0.15902711 0.1297421
0.08481976 0.015399432 -0.08838472 -0.12592319 0.10060544 -0.1868948 0.13865535 -0.20380263
-0.0662949 -0.05105857 -0.2083305 0.079027034 0.035752866 -0.1972747 -0.00922277 0.044687606
-0.06788858 -0.048407596 0.12839018 0.16318533 -0.08151691 -0.12370476 -0.12978189 0.15353028
-0.042495638 0.20992433 -0.11510695 0.04014323 0.053239893 0.12594135 0.21665843 0.17407703
-0.13949697 0.13682209 -0.10280468 -0.12394906 -0.13444228 0.04242108 -0.016170366 0.18824618
-0.1613977 -0.19353151 0.19716837 -0.17857406 -0.17177959 -0.12946415 -0.16957664 0.003389494
0.07377192 0.053027138 -0.04175196 0.16811474 -0.07874613 0.15712827 0.1611369 -0.03943294
-0.10365711 0.016235238 -0.08362638 0.13121839 0.11691474 0.0833999 -0.11752303 -0.06556085
0.12907836 -0.00541648 -0.12260218 -0.048237894 -0.09008205 -0.059932753 0.11555625 0.079257265
-0.07533511 -0.19772214 -0.18311444 0.12639345 -0.11677219 -0.030115347 -0.028848197 0.07926568
0.16377658 -0.21506181 -0.11539826 0.15338401 0.015718691 0.19164628 -0.0654523 0.18394287
-0.054841325 -0.14960167 0.15550795 0.16329569 -0.073192075 -0.13975307 -0.08915727 -0.13408788
0.18411924 -0.011658802 -0.10019807 -0.05765298 -0.14565755 -0.07458768 -0.1032954 -0.18817484
0.19069496 0.21425511 0.034957208 0.20394139 -0.05610538 0.20353194 0.004552328 -0.20548575
-0.122678496 -0.19406018 0.0013645694 -0.21580453 -0.033355445 -0.17848974 0.18364972 0.022326797
00000000: 0c39 62bc 5c2a 05be 8479 853d d6bb 403e
00000010: 1b9b 04be 65da 173e bdb7 dcbc e349 22be
00000020: 7ffd 313d 2c0f b0bc 2afa 2bbe 12a9 0cbd
00000030: cb4e 4bbd d519 3abe 4d54 3c3e 35e2 d0bd
00000040: dcd5 4f3d 0952 793d fc35 913d 8076 bfb9
00000050: 4d57 863d 5dac f63d ab57 c03d 2f90 5abe
00000060: 8779 5bbc ff00 3bbe 23db 58bd 5e88 8ebc
00000070: be98 6a3d 851d 2a3e 05e2 b4bd 7074 3bbe
00000080: 0039 6cbd 7722 353d 9f3d 4dbc c08b 1f3e
00000090: eec2 5bbd 2e42 04be 970e 1a3d 0121 403e
000000a0: fc31 22be c134 133d 1761 313e f6e5 613e
000000b0: 75c6 4abc 5e2b a8bd 863c f83d e39f e13d
000000c0: e5b7 0a3e ad5d 3dbd c7ce af3c 6900 723c
000000d0: b4fc 03be f73b f23d 550b 4d3e cd0c ad3d
000000e0: c068 403e 0ea0 0a3d 8d20 8dbd cca2 43be
000000f0: d3be 2c3e 24a3 283e ed39 6cbd 3663 b83d
00000100: 25af 1fbe dbcc b13c 9a65 4c3d cd9a 53bc
00000110: c06a 293d 6c2b e7bd 72c7 51be 4a19 86bd
00000120: 8e25 223d 3710 e9bc 33fb 99bb 7a09 503e
00000130: aa2e 31bb 0f46 52bd 593c 73bc b1ab 123e
00000140: 702e 473e de13 a2bd 209a 2d3e 1dd4 65bd
00000150: 29ba 803d 1104 aa3c 1dff 58bd da24 bf3c
00000160: 3f6b 1fbd 0af9 aebd 692d 0ebc 2689 0c3b
00000170: 49c5 163e 0c6a 25be 4590 64bd 54d4 eabc
00000180: 9727 4e3e 4e1a dfbc 0dce 2e3e ec0e b43d
00000190: dfee 2fbd 0dd3 053e 85f6 983d 6802 553e
000001a0: 2ddc 413e fc32 fb3d 8e0d 423e 548d 133e
000001b0: b958 cfbd 1733 3cbe 9e60 aa3d 1977 dbbd
000001c0: bc67 32be dcba 34be f6aa 47be 78e1 d43d
000001d0: 7992 4b3d 9a2c db3c c917 953d 577d 28be
000001e0: b219 693c df3b 15be d45b 7fbd 3c58 db3c
000001f0: 81ca 313d 8f6a 58be 1d1b db3c 9af3 353c
00000200: 5398 0b3e 76d4 cb3d aefe 7d3d 834a f93d
00000210: 93aa a0bd a366 2f3e 01d8 223e 1ddb 043e
00000220: fbb5 ad3d e64d 7c3c 0c03 b5bd 02f2 00be
00000230: 3a0a ce3d 5a61 3fbe abfb 0d3e a3b1 50be
00000240: 9fc5 87bd cb22 51bd 9754 55be edd8 a13d
00000250: 9971 123d 6102 4abe 1a1b 17bc 5a0a 373d
00000260: 2b09 8bbd 0b47 46bd b778 033e 0e1a 273e
00000270: 56f2 a6bd ec58 fdbd 8be5 04be 0b37 1d3e
00000280: e80f 2ebd 67f6 563e 31bd ebbd 3a6d 243d
00000290: 1312 5a3d c5f6 003e b5db 5d3e 4041 323e
000002a0: 4bd8 0ebe 171b 0c3e 438b d2bd 01d9 fdbd
000002b0: 3dab 09be bac1 2d3d b777 84bc 9bc3 403e
000002c0: 7045 25be 202d 46be 81e6 493e 1edc 36be
000002d0: fde6 2fbe 4092 04be 80a5 2dbe 4622 5e3b
000002e0: bb15 973d fc32 593d 1a04 2bbd 4526 2c3e
000002f0: a745 a1bd 3ce6 203e 1201 253e 6f84 21bd
00000300: 2e4a d4bd c3ff 843c 4f44 abbd 1d5e 063e
00000310: ff70 ef3d 91cd aa3d eaaf f0bd c444 86bd
00000320: 1e2d 043e ba7c b1bb da16 fbbd 1995 45bd
00000330: f07c b8bd 0c7c 75bd c1a8 ec3d a251 a23d
00000340: 4b49 9abd ac77 4abe 5a82 3bbe 496d 013e
00000350: 4226 efbd 76b4 f6bc 0e53 ecbc 0b56 a23d
00000360: 0cb5 273e 2a39 5cbe ec55 ecbd b310 1d3e
00000370: 7cc4 803c ec3e 443e db0b 86bd 855b 3c3e
00000380: 4ca1 60bd 2e31 19be 7a3d 1f3e fc36 273e
00000390: bae5 95bd 6e1b 0fbe 1698 b6bd 554e 09be
000003a0: c189 3c3e 8f04 3fbc a534 cdbd 8825 6cbd
000003b0: 4127 15be 6dc1 98bd 8a8c d3bd e8b0 40be
000003c0: 8a45 433e b165 5b3e 4a2f 0f3d 03d6 503e
000003d0: c1ce 65bd ad6a 503e b22b 953b db6a 52be
000003e0: dd3e fbbd b6b7 46be 5adb b23a ddfb 5cbe
000003f0: b89f 08bd 04c6 36be ac0e 3c3e b0e6 b63c

layer.0.bias f4 [128]
0.19024707 0.078871064 -0.0041237543 -0.19674182 0.19189711 0.05925682 -0.08624747 -0.20753752
-0.09094056 -0.08050948 -0.15728831 -0.1342657 0.20588881 0.10793476 -0.017235363 0.11733258
0.1175547 -0.038027044 -0.106788516 0.16458893 0.15621544 0.08883254 0.029542895 0.023375154
0.04518029 0.096780844 -0.15355766 0.21732312 -0.03197623 -0.06642911 -0.12941183 0.12861814
-0.06532184 0.16428436 0.20200963 0.07520837 0.1261342 -0.04511426 -0.04910137 -0.041597776
0.07104544 -0.19678031 -0.16716596 -0.027985012 -0.09754338 -0.20950034 0.030091701 -0.19869699
-0.14057404 -0.16261613 0.07751686 0.03507781 -0.16835284 -0.08090226 -0.0072532445 -0.19637547
-0.026530672 0.00512178 0.067047425 -0.15687148 -0.20673127 -0.1592484 -0.06897715 -0.07605461
-0.11398837 0.16152559 -0.014751116 0.18816686 0.13696957 -0.03602963 0.08512795 -0.10105024
0.040959634 -0.112937376 0.08114885 -0.04140159 -0.029734638 0.192298 0.068328656 -0.10038408
0.08197626 -0.15093307 0.10468846 -0.06735757 0.11774296 -0.030655462 0.06672788 0.023856761
-0.04051012 0.20732138 -0.1756039 -0.14537826 0.09612653 0.100102104 -0.17987897 -0.050938062
0.16651207 0.18265332 0.12503827 0.18312193 0.1844513 0.17457016 -0.09168629 0.013973782
-0.18037638 -0.21080947 -0.2042803 0.15514836 -0.006764941 -0.064436495 -0.087285176 -0.143843
-0.14531437 -0.14853175 -0.10809592 0.1712267 -0.03769311 -0.19360398 -0.023878925 0.14414062
-0.1317137 -0.09439001 0.09363032 0.09524646 -0.15767853 0.15763897 -0.026887937 -0.1811622
00000000: 21d0 423e 2787 a13d 8f20 87bb b076 49be
00000010: ad80 443e 47b7 723d 83a2 b0bd b784 54be
00000020: 0b3f babd 27e2 a4bd 3010 21be f37c 09be
00000030: 84d4 523e e60c dd3d 2d31 8dbc 104c f03d
00000040: 85c0 f03d 3fc2 1bbd f0b3 dabd 008a 283e
00000050: f1f6 1f3e d6ed b53d f103 f23c 407d bf3c
00000060: f80e 393d 0935 c63d 383e 1dbe f489 5e3e
00000070: 82f9 02bd fc0b 88bd 8984 04be 79b4 033e
00000080: 75c7 85bd 293a 283e 9ddb 4e3e d906 9a3d
00000090: 5329 013e bbc9 38bd 851e 49bd 6e62 2abd
000000a0: 4680 913d c780 49be 8e2d 2bbe d340 e5bc
000000b0: d3c4 c7bd 4287 56be df82 f63c 3977 4bbe
000000c0: a4f2 0fbe d884 26be 29c1 9e3d c0ad 0f3d
000000d0: b064 2cbe 16b0 a5bd a0ac edbb a716 49be
000000e0: da56 d9bc 9bd4 a73b 2950 893d eba2 20be
000000f0: 5db1 53be 0312 23be e443 8dbd 85c2 9bbd
00000100: bc72 e9bd f766 253e aaae 71bc d0ae 403e
00000110: c041 0c3e ce93 13bd 9057 ae3d 6ef3 cebd
00000120: 4ac5 273d b64b e7bd 5e31 a63d b794 29bd
00000130: 0e96 f3bc c4e9 443e e5ef 8b3d 2b96 cdbd
00000140: 2be3 a73d 338e 1abe e766 d63d c4f2 89bd
00000150: 3923 f13d 2a21 fbbc a0a8 883d 416f c33c
00000160: f1ed 25bd 0e4c 543e 82d1 33be 0ade 14be
00000170: fcdd c43d 5502 cd3d 3132 38be 6ea4 50bd
00000180: 2482 2a3e 7909 3b3e 080a 003e 5184 3b3e
00000190: cde0 3c3e 85c2 323e 06c6 bbbd 4af2 643c
000001a0: 96b4 38be 70de 57be db2e 51be 36df 1e3e
000001b0: 70ac ddbb 48f7 83bd 92c2 b2bd 944b 13be
000001c0: 4acd 14be b518 18be 6561 ddbd 0d56 2f3e
000001d0: 1764 1abd 1f40 46be bc9d c3bc 9999 133e
000001e0: f5df 06be 8d4f c1bd 41c1 bf3d 9310 c33d
000001f0: 7b76 21be 1c6c 213e 1744 dcbc 9582 39be

layer.3.weight f4 [128]
1.000125 0.99990803 1.00186 1.0027694 1.0027771 0.9999913 0.9996462 1.0023571
1.0 1.0004979 1.0 1.0 1.0 0.9971432 1.0 1.0
1.0 1.0 0.9970811 1.0027487 1.0030046 1.0002855 1.0029899 0.9970668
1.0 1.0 0.99967897 1.0 1.0 0.9970952 1.0 1.0
1.002475 1.0026848 0.9977732 1.0025281 1.0025785 0.9980548 1.0 1.0
1.0018364 1.0011072 1.002996 0.9973744 0.99703175 1.0 1.0 0.9970005
1.0 1.0 1.0 0.99728394 0.9974712 0.9970767 0.9974545 1.0
1.0 0.99732167 1.0 1.0 1.0 1.0 0.9994092 1.0
1.0 1.0 1.0 1.0030031 1.0 0.997022 1.0002071 1.0
0.99720275 1.002525 0.9973234 0.99992627 0.9983029 1.0 0.9972099 0.9971454
1.0029482 1.0 1.0007365 1.0025272 1.0 0.99710655 1.0 1.0
1.0 0.99708503 1.0 1.0027794 1.0012317 1.0 0.99703974 1.0
1.0 0.99735856 1.0 1.0025693 1.0028784 0.99956113 1.002986 0.99702126
0.9972206 0.9970506 1.0026157 1.0015928 1.0 1.0 1.0029783 1.0026369
1.0 1.0 1.0030034 1.0027801 1.0 1.0 1.0 0.9970684
1.0 0.9970105 0.99949646 1.0028864 1.0022495 1.0005053 0.9976509 1.0022742
00000000: 1904 803f f9f9 7f3f f33c 803f bf5a 803f
00000010: 005b 803f 6eff 7f3f d0e8 7f3f 3d4d 803f
00000020: 0000 803f 5110 803f 0000 803f 0000 803f
00000030: 0000 803f c744 7f3f 0000 803f 0000 803f
00000040: 0000 803f 0000 803f b540 7f3f 125a 803f
00000050: 7462 803f 5b09 803f f961 803f c53f 7f3f
00000060: 0000 803f 0000 803f f6ea 7f3f 0000 803f
00000070: 0000 803f a241 7f3f 0000 803f 0000 803f
00000080: 1a51 803f fa57 803f 106e 7f3f d752 803f
00000090: 7e54 803f 8580 7f3f 0000 803f 0000 803f
000000a0: 2d3c 803f 4824 803f 2c62 803f ee53 7f3f
000000b0: 793d 7f3f 0000 803f 0000 803f 6d3b 7f3f
000000c0: 0000 803f 0000 803f 0000 803f 004e 7f3f
000000d0: 465a 7f3f 6b40 7f3f 2e59 7f3f 0000 803f
000000e0: 0000 803f 7950 7f3f 0000 803f 0000 803f
000000f0: 0000 803f 0000 803f 48d9 7f3f 0000 803f
00000100: 0000 803f 0000 803f 0000 803f 6862 803f
00000110: 0000 803f d53c 7f3f c906 803f 0000 803f
00000120: ae48 7f3f bd52 803f 9650 7f3f 2bfb 7f3f
00000130: c790 7f3f 0000 803f 2649 7f3f ec44 7f3f
00000140: 9b60 803f 0000 803f 2218 803f d052 803f
00000150: 0000 803f 6042 7f3f 0000 803f 0000 803f
00000160: 0000 803f f740 7f3f 0000 803f 135b 803f
00000170: 5c28 803f 0000 803f ff3d 7f3f 0000 803f
00000180: 0000 803f e452 7f3f 0000 803f 3154 803f
00000190: 525e 803f 3de3 7f3f d861 803f c93c 7f3f
000001a0: d949 7f3f b53e 7f3f b655 803f 3134 803f
000001b0: 0000 803f 0000 803f 9861 803f 6856 803f
000001c0: 0000 803f 0000 803f 6a62 803f 195b 803f
000001d0: 0000 803f 0000 803f 0000 803f e03f 7f3f
000001e0: 0000 803f 153c 7f3f 00df 7f3f 955e 803f
000001f0: b649 803f 8f10 803f 0d66 7f3f 854a 803f

layer.3.bias f4 [128]
-0.0029028303 -0.0024472834 0.0027569577 0.0019742243 -0.0013828218 0.002220707 -0.0026358478 -0.0018001345
-0.002934149 0.002039927 -0.0026252498 -0.0028741038 -0.0022970028 0.0018374926 -0.0010469769 0.0001315258
0.0027861083 -0.002159624 -0.002415936 -0.0016205165 -0.00275362 -0.002905272 0.0029538565 0.0027704942
0.0028393315 -0.0028792669 -8.900708e-06 0.0018094084 0.0027823676 0.0019123962 0.0016869983 -0.002544979
-0.0004317305 0.0027605437 -0.0023620003 0.0016530782 -0.0025239321 0.0023665514 0.00025098887 0.0023195508
-0.0029144066 -0.0017798452 0.00054154266 -0.002817735 -0.0024857789 -0.0028920188 0.0023228584 0.0029465272
0.0015057093 0.0020064467 -0.0029516441 0.00256447 -0.0022321776 -0.002615565 -0.002680366 0.0015050478
0.0027273416 -0.0028860997 -0.002986558 -0.0024826422 -0.0014706907 0.00036907074 0.0028840946 -0.00023853366
0.0029767666 0.001975423 -0.0028264588 0.00045829575 -0.0025328759 0.0024978365 0.00033134548 0.0011799798
-0.0025807372 0.0015687591 0.0011680725 -0.0012546091 0.0005562244 -0.0026309644 -0.0024333522 -0.0029854523
-0.0007023637 -0.0029381632 0.0028318847 0.0026377272 -0.002238554 -0.0026067598 0.00286559 -0.0010450924
-0.0017890066 0.0021136315 0.0021891794 0.0023199485 -0.0028279251 0.0023328434 0.0026916568 0.0029916002
0.002866684 -0.0015628868 0.002902632 -0.0029830118 -0.0016852431 -0.003000984 -0.0023426395 0.00030088326
0.0029551047 0.0026814183 0.0027558533 -0.00252647 0.0027753655 -0.0025304335 -0.0024361876 0.0029920517
0.00012398988 -0.00011095035 0.0026261236 0.0029066096 -0.0024957857 0.0019999023 -0.0018578116 -0.0024145704
-0.0022864542 -0.0028728517 6.2433945e-05 -0.0029119614 0.002798012 0.0017094625 -0.0029819794 -0.0028288595
00000000: 693d 3ebb 9a62 20bb 13ae 343b fd61 013b
00000010: cd3f b5ba 4889 113b 30be 2cbb 7ef2 ebba
00000020: da4a 40bb 4cb0 053b 620c 2cbb 765b 3cbb
00000030: 5089 16bb 05d8 f03a b73a 89ba 30ea 0939
00000040: 2497 363b 7a88 0dbb ae54 1ebb 8367 d4ba
00000050: 1476 34bb 6066 3ebb 7d95 413b 2e91 353b
00000060: 1414 3a3b 15b2 3cbb 4054 15b7 ac29 ed3a
00000070: 6258 363b 5ea9 fa3a 451e dd3a aac9 26bb
00000080: e359 e2b9 3dea 343b cacb 1abb 1aac d83a
00000090: 8e68 25bb 2518 1b3b 2897 8339 9b03 183b
000000a0: a1ff 3ebb b249 e9ba 50f6 0d3a c0a9 38bb
000000b0: 73e8 22bb 0688 3dbb 193b 183b 861a 413b
000000c0: 385b c53a 977e 033b 5f70 41bb ab10 283b
000000d0: ba49 12bb e669 2bbb 14a9 2fbb 0645 c53a
000000e0: 33bd 323b b824 3dbb 21ba 43bb d3b3 22bb
000000f0: 31c4 c0ba d67f c139 1403 3d3b e41e 7ab9
00000100: db15 433b 1976 013b 1c3c 39bb 6a47 f039
00000110: 9bfe 25bb beb2 233b 70b8 ad39 8da9 9a3a
00000120: 9621 29bb d29e cd3a 021a 993a b271 a4ba
00000130: 96cf 113a 426c 2cbb e078 1fbb 94a7 43bb
00000140: d41e 38ba 338e 40bb 2497 393b b8dd 2c3b
00000150: b4b4 12bb 2cd6 2abb 9fcc 3b3b 7bfb 88ba
00000160: 1a7d eaba da84 0a3b 5678 0f3b 470a 183b
00000170: b654 39bb 9ee2 183b 8266 303b b90e 443b
00000180: fade 3b3b c7d9 ccba 163a 3e3b a27e 43bb
00000190: 60e3 dcba 28ac 44bb f886 19bb debf 9d39
000001a0: 6eaa 413b bcba 2f3b 8c9b 343b 2293 25bb
000001b0: e8e2 353b a1d5 25bb 72a8 1fbb 4c16 443b
000001c0: 4803 0239 04ae e8b8 0b1b 2c3b d17c 3e3b
000001d0: 5690 23bb cb10 033b d081 f3ba c53d 1ebb
000001e0: 56d8 15bb 7446 3cbb f8ee 8238 9bd6 3ebb
000001f0: da5e 373b 0b10 e03a 506d 43bb 6364 39bb

layer.3.running_mean f4 [128]
1.5552616 168.18317 234.34781 105.356575 86.48144 155.0593 27.669254 109.43628
0.0 201.27303 0.0 0.0 0.0 149.87152 0.0 0.0
0.0 0.0 94.5543 222.82135 42.32494 128.00632 65.5234 63.120644
0.0 0.0 253.01062 0.0 0.0 33.041782 0.0 0.0
88.78821 230.17003 236.99582 264.61346 152.92694 166.99254 0.0 0.0
260.9923 140.98982 26.500479 0.041280866 224.5163 0.0 0.0 6.5792365
0.0 0.0 0.0 122.24385 149.15831 52.61644 33.028667 0.0
0.0 226.89925 0.0 0.0 0.0 0.0 172.80803 0.0
0.0 0.0 0.0 14.543301 0.0 0.6706251 272.56808 0.0
231.02055 192.53708 218.71587 97.67305 115.5589 0.0 98.62431 203.65366
51.52901 0.0 71.34728 79.06243 0.0 43.856575 0.0 0.0
0.0 101.51471 0.0 76.062195 47.206387 0.0 22.97232 0.0
0.0 101.45451 0.0 101.079605 90.40878 144.9704 3.6227975 92.87338
173.01988 289.61942 169.76779 200.78639 0.0 0.0 87.541145 50.45175
0.0 0.0 47.66794 37.7286 0.0 0.0 0.0 0.6212362
0.0 85.58376 248.03526 55.127487 78.29652 178.97029 3.6514726 205.90561
00000000: d012 c73f e42e 2843 0a59 6a43 91b6 d242
00000010: 7ff6 ac42 2e0f 1b43 a25a dd41 60df da42
00000020: 0000 0000 e545 4943 0000 0000 0000 0000
00000030: 0000 0000 1cdf 1543 0000 0000 0000 0000
00000040: 0000 0000 0000 0000 cd1b bd42 44d2 5e43
00000050: bd4c 2942 9e01 0043 fb0b 8342 8a7b 7c42
00000060: 0000 0000 0000 0000 b802 7d43 0000 0000
00000070: 0000 0000 c92a 0442 0000 0000 0000 0000
00000080: 9093 b142 872b 6643 eefe 6c43 864e 8443
00000090: 4ced 1843 17fe 2643 0000 0000 0000 0000
000000a0: 047f 8243 65fd 0c43 fb00 d441 2016 293d
000000b0: 2c84 6043 0000 0000 0000 0000 1b89 d240
000000c0: 0000 0000 0000 0000 0000 0000 da7c f442
000000d0: 8728 1543 3c77 5242 5b1d 0442 0000 0000
000000e0: 0000 0000 35e6 6243 0000 0000 0000 0000
000000f0: 0000 0000 0000 0000 dbce 2c43 0000 0000
00000100: 0000 0000 0000 0000 0000 0000 5cb1 6841
00000110: 0000 0000 16ae 2b3f b748 8843 0000 0000
00000120: 4305 6743 7e89 4043 43b7 5a43 9a58 c342
00000130: 281e e742 0000 0000 a63f c542 56a7 4b43
00000140: b51d 4e42 0000 0000 cfb1 8e42 f71f 9e42
00000150: 0000 0000 226d 2f42 0000 0000 0000 0000
00000160: 0000 0000 8807 cb42 0000 0000 d81f 9842
00000170: 57d3 3c42 0000 0000 50c7 b741 0000 0000
00000180: 0000 0000 b6e8 ca42 0000 0000 c228 ca42
00000190: 4cd1 b442 6cf8 1043 eadb 6740 2cbf b942
000001a0: 1705 2d43 49cf 9043 8ec4 2943 51c9 4843
000001b0: 0000 0000 0000 0000 1115 af42 98ce 4942
000001c0: 0000 0000 0000 0000 f8ab 3e42 16ea 1642
000001d0: 0000 0000 0000 0000 0000 0000 5609 1f3f
000001e0: 0000 0000 e32a ab42 0709 7843 8c82 5c42
000001f0: d197 9c42 65f8 3243 bab1 6940 d6e7 4d43

layer.3.running_var f4 [128]
46.173046 16537.738 31360.943 6091.6846 4274.7847 12750.445 582.12585 7049.9365
0.38742042 22065.227 0.38742042 0.38742042 0.38742042 13070.855 0.38742042 0.38742042
0.38742042 0.38742042 6313.2275 27478.875 1111.9434 10211.863 2927.8184 2122.6562
0.38742042 0.38742042 35561.04 0.38742042 0.38742042 1964.553 0.38742042 0.38742042
5553.8145 30704.709 30690.79 38412.63 12881.202 14902.4 0.38742042 0.38742042
37534.617 11912.58 652.31085 0.4986437 28600.371 0.38742042 0.38742042 528.4061
0.38742042 0.38742042 0.38742042 8667.173 12293.268 2500.1384 982.90393 0.38742042
0.38742042 28982.453 0.38742042 0.38742042 0.38742042 0.38742042 16249.427 0.38742042
0.38742042 0.38742042 0.38742042 1420.1323 0.38742042 29.952518 40416.9 0.38742042
30059.158 20345.49 26316.469 5530.9185 7620.2617 0.38742042 5605.82 24336.564
2075.8274 0.38742042 2815.0923 3946.5708 0.38742042 1470.1334 0.38742042 0.38742042
0.38742042 6090.2036 0.38742042 3583.3809 1235.137 0.38742042 457.05048 0.38742042
0.38742042 6979.5723 0.38742042 6458.254 4800.4434 11647.249 250.98273 4829.754
17047.46 46286.844 16063.052 22611.568 0.38742042 0.38742042 5570.936 1518.4832
0.38742042 0.38742042 1974.3043 1382.3354 0.38742042 0.38742042 0.38742042 23.30049
0.38742042 4086.8464 34134.176 1669.6984 4065.9272 17577.162 9.058083 23034.049
00000000: 33b1 3842 7a33 8146 e301 f546 7a5d be45
00000010: 4796 8545 c839 4746 0e88 1144 7e4f dc45
00000020: f85b c63e 7462 ac46 f85b c63e f85b c63e
00000030: f85b c63e 6c3b 4c46 f85b c63e f85b c63e
00000040: f85b c63e f85b c63e d249 c545 c0ad d646
00000050: 30fe 8a44 748f 1f46 18fd 3645 80aa 0445
00000060: f85b c63e f85b c63e 0ae9 0a47 f85b c63e
00000070: f85b c63e b291 f544 f85b c63e f85b c63e
00000080: 848e ad45 6be1 ef46 94c5 ef46 a10c 1647
00000090: cf44 4946 9ad9 6846 f85b c63e f85b c63e
000000a0: 9e9e 1247 5222 3a46 e513 2344 3a4e ff3e
000000b0: be70 df46 f85b c63e f85b c63e fe19 0444
000000c0: f85b c63e f85b c63e f85b c63e b16c 0746
000000d0: 1215 4046 3742 1c45 dab9 7544 f85b c63e
000000e0: f85b c63e e86c e246 f85b c63e f85b c63e
000000f0: f85b c63e f85b c63e b5e5 7d46 f85b c63e
00000100: f85b c63e f85b c63e f85b c63e 3c84 b144
00000110: f85b c63e c29e ef41 e6e0 1d47 f85b c63e
00000120: 51d6 ea46 fbf2 9e46 f098 cd46 59d7 ac45
00000130: 1822 ee45 f85b c63e 8f2e af45 2121 be46
00000140: 3dbd 0145 f85b c63e 7af1 2f45 22a9 7645
00000150: f85b c63e 45c4 b744 f85b c63e f85b c63e
00000160: f85b c63e a151 be45 f85b c63e 18f6 5f45
00000170: 6264 9a44 f85b c63e 7686 e443 f85b c63e
00000180: f85b c63e 941c da45 f85b c63e 08d2 c945
00000190: 8c03 9645 fffc 3546 94fb 7a43 08ee 9645
000001a0: ec2e 8546 d8ce 3447 35fc 7a46 23a7 b046
000001b0: f85b c63e f85b c63e 7d17 ae45 76cf bd44
000001c0: f85b c63e f85b c63e bdc9 f644 bcca ac44
000001d0: f85b c63e f85b c63e f85b c63e 6767 ba41
000001e0: f85b c63e 8b6d 7f45 2d56 0547 59b6 d044
000001f0: d61e 7e45 5352 8946 e8ed 1041 19f4 b346

layer.4.weight f4 [64, 128]
-0.07806002 0.074744865 0.05005249 -0.0064330287 0.012344683 0.03712305 -0.0126968855 0.077673316
0.033834677 0.056453053 0.055558838 0.028682306 -0.044685304 0.019598445 0.052233584 0.07227594
-0.07019697 0.038195293 0.024795912 0.048431005 -0.08927957 0.032601535 -0.02978574 -0.055622302
0.0370796 0.010448835 0.041877944 -0.06230547 -0.081299804 -0.030117774 -0.076175146 -0.081775315
-0.037445568 -0.02681544 0.07938855 0.034779593 0.0022518698 0.06156858 0.010682603 0.08731508
0.06816695 -0.054331973 -0.07283092 0.05170006 0.027588353 0.07172276 -0.004764393 0.0605755
0.040326267 0.068216056 0.07943106 -0.061050285 -0.058303982 0.06991171 0.06437778 -0.069352314
0.046005517 0.028943265 -0.024428882 -0.073384896 0.076754734 -0.051402517 0.01515676 0.069808505
-0.0467532 -0.062021066 -0.08446153 -0.017261049 0.026162045 -0.073803835 -0.038235925 -0.0827366
-0.02858966 0.008526359 0.014633763 0.009714376 -0.01819614 -0.008354922 0.04677027 -0.08838513
0.07483516 -0.070751175 -0.021745292 0.082241066 -0.034695387 -0.08608068 0.0492556 0.04447567
0.0039968593 0.05131596 -0.08464924 0.07410951 0.05425006 0.029984513 0.03648007 -0.04152781
0.08378221 0.028422434 0.004084635 0.02700913 -0.026319252 -0.06530557 0.016835967 -0.031912256
-0.087481715 -0.03465515 -0.023702722 0.031976458 0.026032247 -0.051089246 -0.06572913 0.015529713
0.059501234 -0.05916521 0.008042733 0.019322854 -0.05510253 0.039259106 -0.03883363 -0.006100334
-0.03476431 -0.024063252 -0.014058949 0.05952387 -0.0646847 0.085485496 -0.00052871305 -0.0061569633
0.01886166 0.051319923 -0.014539094 0.025912344 -0.08671769 0.0031597475 0.0032070254 0.037019186
-0.0026389286 0.07136192 0.08847415 -0.020555137 0.040216316 -0.004808396 0.01580008 -0.08503259
-0.089762405 0.039270543 -0.084408395 -0.069562264 0.082026 -0.072997116 -0.019959366 -0.019643987
0.044879235 0.08369756 0.045593392 0.024526058 -0.00979932 0.08522901 -0.06045084 -0.013213811
0.05529543 0.017226031 0.013208509 -0.01139896 -0.06890774 0.086961165 0.07090922 -0.06526908
0.019905841 -0.048605982 0.05915994 -0.07353042 0.016413689 -0.055907868 -0.04268526 -0.053404506
0.012536177 -0.05376956 0.0037588447 -0.052747164 -0.054548014 -0.0821752 0.07606881 -0.03879155
0.033754382 -0.019809922 -0.073642306 0.023035213 0.0062339227 -0.024862818 -0.06672438 -0.00012105936
-0.042310026 -0.015116033 0.02477361 -0.052342508 0.07580131 -0.046140596 0.024080483 0.030320812
-0.0854521 0.050904147 0.017559566 -0.017916918 0.077169806 -0.0050025913 -0.014732857 0.03840657
0.06390619 0.069267705 0.059536293 -1.6579143e-05 0.037748694 -0.0690492 0.015347086 -0.03706559
-0.07572723 -0.08569073 -0.08365211 0.051716078 -0.027388563 0.032442465 -0.059654634 -0.027813595
0.07626888 0.04919154 -0.033031557 -0.018713642 0.055364076 0.017872982 -0.0005322314 0.06882769
-0.018401714 0.02105914 0.03885406 0.014701617 0.02506335 -0.065907195 -0.08814646 0.06545693
0.015402161 -0.07517831 0.014353618 -0.0860798 -0.086361885 0.0036191274 0.07817047 -0.00014440756
0.07901334 -0.07292601 0.053109743 -0.031691626 0.062382184 0.0591524 0.061292462 -0.0092140455
00000000: efdd 9fbd d613 993d d703 4d3d 28cc d2bb
00000010: 5a41 4a3c 570e 183d 9906 50bc 3013 9f3d
00000020: 3b96 0a3d 513b 673d aa91 633d 28f7 ea3c
00000030: f007 37bd eb8c a03c e2f2 553d 6805 943d
00000040: 6ec3 8fbd ab72 1c3d cc20 cb3c 975f 463d
00000050: 35d8 b6bd 3089 053d 3901 f4bc 36d4 63bd
00000060: c7e0 173d 9731 2b3c 3588 2b3d 0534 7fbd
00000070: 8380 a6bd 8db9 f6bc b701 9cbd d179 a7bd
00000080: 8660 19bd 0eac dbbc 7796 a23d 0c75 0e3d
00000090: 1b94 133b 562f 7c3d 1606 2f3c 40d2 b23d
000000a0: 1d9b 8b3d 348b 5ebd 6128 95bd 71c3 533d
000000b0: f800 e23c 62e3 923d a01e 9cbb 041e 783d
000000c0: 282d 253d dcb4 8b3d c0ac a23d dd0f 7abd
000000d0: 28d0 6ebd df2d 8f3d 7fd8 833d 9608 8ebd
000000e0: 4870 3c3d 6d1a ed3c 141f c8bc d24a 96bd
000000f0: 9631 9d3d 728b 52bd 0f54 783c c3f7 8e3d
00000100: 4980 3fbd cd09 7ebd 2bfa acbd 0b67 8dbc
00000110: c951 d63c 7726 97bd 469d 1cbd ce71 a9bd
00000120: dd34 eabc 24b2 0b3c 73c2 6f3c 0c29 1f3c
00000130: 1210 95bc 15e3 08bc 2f92 3f3d 4303 b5bd
00000140: 2d43 993d fee5 90bd 2f23 b2bc 016e a83d
00000150: c01c 0ebd 114b b0bd 3dc0 493d 1f2c 363d
00000160: 16f8 823b af30 523d 955c adbd bac6 973d
00000170: 5035 5e3d 15a2 f53c 206c 153d 1119 2abd
00000180: 0296 ab3d 2ad6 e83c 67d8 853b 4042 dd3c
00000190: 799b d7bc edbe 85bd 95eb 893c 6db6 02bd
000001a0: 9d29 b3bd 8ff2 0dbd 362c c2bc bff9 023d
000001b0: 9441 d53c f542 51bd fe9c 86bd 5670 7e3c
000001c0: 91b7 733d 3857 72bd abc5 033c f64a 9e3c
000001d0: 31b3 61bd 28ce 203d 0310 1fbd 50e5 c7bb
000001e0: 0565 0ebd 4c20 c5bc 8257 66bc 4dcf 733d
000001f0: 6979 84bd 0513 af3d 5599 0aba 5ac0 c9bb
00000200: c583 9a3c d734 523d 6135 6ebc 2046 d43c
00000210: 0b99 b1bd c413 4f3b f52c 523b 6ea1 173d
00000220: e0f1 2cbb 3326 923d ef31 b53d 3f63 a8bc
00000230: ddb9 243d c08f 9dbb 2b6f 813c 9125 aebd
00000240: 5ad5 b7bd 26da 203d 4fde acbd a976 8ebd
00000250: 3ffd a73d 837f 95bd d381 a3bc 6dec a0bc
00000260: 4ad3 373d a069 ab3d 23c0 3a3d dfea c83c
00000270: 548d 20bc 8c8c ae3d 4d9b 77bd be7e 58bc
00000280: 767d 623d 9b1d 8d3c 8168 583c b4c2 3abc
00000290: 801f 8dbd b218 b23d da38 913d ccab 85bd
000002a0: 9311 a33c 1117 47bd b151 723d 1e97 96bd
000002b0: 0076 863c a6ff 64bd bdd6 2ebd afbe 5abd
000002c0: 8a64 4d3c 783d 5cbd f356 763b 690d 58bd
000002d0: bd6d 5fbd 794b a8bd f7c9 9b3d e3e3 1ebd
000002e0: 0942 0a3d 6b48 a2bc c7d1 96bd 58b4 bc3c
000002f0: ef45 cc3b 1cad cbbc cba6 88bd 40e1 fdb8
00000300: 474d 2dbd 3da9 77bc 07f2 ca3c 1965 56bd
00000310: b83d 9b3d ecfd 3cbd 6f44 c53c 5a63 f83c
00000320: 8301 afbd de80 503d 14d9 8f3c 80c6 92bc
00000330: 340b 9e3d c7ec a3bb 1562 71bc 3550 1d3d
00000340: 40e1 823d 3adc 8d3d 54dc 733d 7013 8bb7
00000350: 609e 1a3d ab69 8dbd 5872 7b3c 17d2 17bd
00000360: e116 9bbd 9f7e afbd cc51 abbd 3dd4 533d
00000370: fb5d e0bc 64e2 043d 6b58 74bd 56d9 e3bc
00000380: dc32 9c3d 117d 493d 194c 07bd 5a4d 99bc
00000390: 71c5 623d 5c6a 923c 7285 0bba 88f5 8c3d
000003a0: 31bf 96bc 3884 ac3c 6f25 1f3d 0ddf 703c
000003b0: a851 cd3c 5afa 86bd 2286 b4bd 480e 863d
000003c0: 5859 7c3c 16f7 99bd 702b 6b3c 9b4a b0bd
000003d0: 80de b0bd e22e 6d3b d717 a03d 1c6c 17b9
000003e0: bfd1 a13d 3b5a 95bd 9a89 593d 14cf 01bd
000003f0: 7684 7f3d c949 723d ce0d 7b3d 82f6 16bc

layer.4.bias f4 [64]
-0.0433599 -0.023739848 0.036294147 -0.059504062 0.06330795 -0.08558919 0.035266384 -0.038684126
0.0067265877 0.0027828047 0.048383396 0.01795687 -0.04681164 0.02574626 -0.07903664 0.019652983
0.020009387 0.06538481 -0.0076182503 -0.019921916 0.010967061 -0.055357434 -0.05183759 -0.0069334507
0.07001495 -0.010434301 0.07873935 -0.044687398 0.089544795 0.004298523 -0.062655 -0.018113023
0.010653306 -0.018759506 0.08184342 -0.053291343 -0.058243535 -0.06719407 0.05068906 -0.029524263
0.022546707 0.047809087 -2.7184375e-05 -0.024120258 -0.07094851 0.01436092 0.081003174 -0.024663286
0.0045920303 -0.046399303 0.047154546 -0.048442077 0.016943593 0.07361348 -0.08798072 -0.070617646
-0.06742936 0.07334741 0.011573603 0.032435883 0.007801928 0.061082013 0.050446514 -0.05684528
00000000: 279a 31bd 127a c2bc 2ca9 143d 88ba 73bd
00000010: 99a7 813d 6349 afbd 7c73 103d 3f73 1ebd
00000020: b56a dc3b b75f 363b ab2d 463d 491a 933c
00000030: 90bd 3fbd d2e9 d23c f6dd a1bd 4bff a03c
00000040: baea a33c 79e8 853d 84a2 f9bb 4933 a3bc
00000050: 30af 333c 7abe 62bd a753 54bd 0032 e3bb
00000060: 0064 8f3d a1f4 2abc 1942 a13d 220a 37bd
00000070: 4363 b73d a0da 8c3b 4451 80bd c361 94bc
00000080: 348b 2e3c 89ad 99bc 869d a73d 0648 5abd
00000090: c690 6ebd 0b9d 89bd 559f 4f3d dedc f1bc
000000a0: dfb3 b83c 76d3 433d 000a e4b7 d997 c5bc
000000b0: 744d 91bd 104a 6b3c fee4 a53d a90a cabc
000000c0: be78 963b 320d 3ebd 2025 413d 336b 46bd
000000d0: 4acd 8a3c aac2 963d 3c2f b4bd fc9f 90bd
000000e0: 6718 8abd 2b37 963d 369f 3d3c 7ddb 043d
000000f0: 51a7 ff3b 2231 7a3d 01a1 4e3d 99d6 68bd

layer.7.weight f4 [64]
0.99987084 0.9984626 0.997271 1.0010895 0.997009 0.9984153 0.9972254 0.99713886
0.99702287 0.997096 0.997077 1.0029048 0.9969955 1.0029585 1.0007983 1.0016187
0.9992932 1.0026882 0.9970689 0.9987433 0.99699825 1.0029126 0.99725854 0.99773693
1.0029924 1.0024887 0.9973274 0.9995226 0.99708915 0.99975026 0.99710655 1.0027341
1.000066 0.997081 0.9970485 1.0001688 0.9973815 1.0029987 1.0029472 1.0012887
0.9973432 0.9998359 0.99914825 1.0029624 0.997324 0.9984044 1.0030035 0.9973344
0.9970841 0.9991715 0.99739295 0.99703246 0.9976903 1.0027518 0.9971141 0.99972963
0.99714756 1.0027595 1.0026183 0.9970387 1.0013648 1.0029885 0.99852985 0.99700546
00000000: 89f7 7f3f 3f9b 7f3f 274d 7f3f b323 803f
00000010: fb3b 7f3f 2598 7f3f 2a4a 7f3f 7e44 7f3f
00000020: e43c 7f3f af41 7f3f 7040 7f3f 2f5f 803f
00000030: 193b 7f3f f260 803f 291a 803f 0b35 803f
00000040: aed1 7f3f 1658 803f e83f 7f3f a4ad 7f3f
00000050: 473b 7f3f 715f 803f 564c 7f3f b06b 7f3f
00000060: 0e62 803f 8d51 803f d950 7f3f b7e0 7f3f
00000070: 3c41 7f3f a2ef 7f3f 6042 7f3f 9759 803f
00000080: 2a02 803f b340 7f3f 923e 7f3f 8805 803f
00000090: 6554 7f3f 4362 803f 9360 803f 3a2a 803f
000000a0: e251 7f3f 3ff5 7f3f 2ec8 7f3f 1261 803f
000000b0: a050 7f3f 6e97 7f3f 6b62 803f 4f51 7f3f
000000c0: e740 7f3f b4c9 7f3f 2555 7f3f 853d 7f3f
000000d0: a268 7f3f 2c5a 803f df42 7f3f 48ee 7f3f
000000e0: 1045 7f3f 6c5a 803f cc55 803f ee3d 7f3f
000000f0: b92c 803f ed61 803f a79f 7f3f c03b 7f3f

layer.7.bias f4 [64]
-0.002921604 -0.00141892 -0.00287602 0.00090715825 0.0027203949 0.002965368 0.0026447012 -0.002965081
-0.00046842342 -0.0027516047 -0.0009798087 0.0029952866 -0.0028132626 -0.00276125 -0.0027090036 0.002761901
-0.0029328312 -0.002956714 -0.00093164924 0.0027915423 0.002779003 -0.002829698 -0.002379225 0.0004278567
0.003004726 -0.0022421703 -0.0029007832 -0.002840882 -0.0012265841 -0.0020176566 -0.0010660023 -0.0027379212
-0.0025872085 -0.0017535894 0.0023122928 -0.0008031284 -1.6958627e-05 -0.0021783898 0.0029647213 0.0028139919
-0.0028755008 -0.0030015516 -0.0029587205 0.0029380473 -0.0020297724 0.0018254799 0.0029957953 -0.0029985863
0.0029656752 -0.0028602593 0.0029967865 -0.0028234585 -0.0028628 -0.0028317857 -0.0017182846 -0.0023158705
0.0028578416 0.0029785174 -0.00015611679 -0.0029878784 -0.0029542602 0.0026889043 0.0029680056 0.0029306351
00000000: 6278 3fbb 0efb b9ba 9c7b 3cbb 5cce 6d3a
00000010: a748 323b 9f56 423b b952 2d3b ce51 42bb
00000020: ba96 f5b9 4454 34bb ed6c 80ba 924c 443b
00000030: b75e 38bb 16f6 34bb 8a89 31bb 0201 353b
00000040: be34 40bb 6ec5 41bb ec39 74ba 4ff2 363b
00000050: ef1f 363b 7472 39bb c6ec 1bbb f451 e039
00000060: f0ea 443b 60f1 12bb 111b 3ebb 172e 3abb
00000070: 55c5 a0ba a93a 04bb 1ab9 8bba b26e 33bb
00000080: 288e 29bb b2d8 e5ba d689 173b 0989 52ba
00000090: 6042 8eb7 51c3 0ebb c54b 423b f36a 383b
000000a0: e672 3cbb aeb5 44bb 18e7 41bb 418c 403b
000000b0: ee05 05bb f144 ef3a 1b55 443b ee83 44bb
000000c0: c65b 423b 3073 3bbb bc65 443b c609 39bb
000000d0: d09d 3bbb 7b95 39bb 1038 e1ba dcc5 17bb
000000e0: a04a 3b3b 3b33 433b 48b3 23b9 48d0 43bb
000000f0: 439c 41bb 5438 303b df82 423b e60f 403b

layer.7.running_mean f4 [64]
0.08584988 0.09842881 0.10457911 0.07533848 0.1306725 0.078842536 0.10964601 0.0891546
0.10879295 0.12922934 0.12003661 0.10462567 0.1072881 0.1140739 0.078552835 0.10775684
0.10706879 0.14518815 0.092745885 0.103626214 0.10112209 0.098990254 0.1119004 0.103180096
0.13606639 0.110386275 0.12766728 0.09771171 0.13678294 0.09208157 0.07747011 0.08912337
0.11525852 0.09358838 0.15809524 0.079214916 0.083117254 0.09225295 0.13504599 0.08866056
0.110072136 0.11424551 0.10478606 0.095690615 0.08197655 0.10635448 0.13254489 0.099338055
0.11903503 0.09616834 0.118247814 0.09351034 0.11361579 0.13121825 0.09095232 0.09177872
0.105370335 0.12113611 0.10401739 0.113615245 0.10084118 0.13528883 0.122076534 0.087711066
00000000: 10d2 af3d 0b95 c93d 932d d63d 104b 9a3d
00000010: 03cf 053e 3278 a13d 168e e03d b096 b63d
00000020: d7ce de3d b254 043e c1d5 f53d fc45 d63d
00000030: ddb9 db3d 949f e93d 4fe0 a03d 9eaf dc3d
00000040: e246 db3d 34ac 143e 8ef1 bd3d fb39 d43d
00000050: 1919 cf3d 67bb ca3d 092c e53d 1650 d33d
00000060: fd54 0b3e 3312 e23d 36bb 023e 141d c83d
00000070: d410 0c3e 4395 bc3d a6a8 9e3d 5086 b63d
00000080: a90c ec3d 44ab bf3d b8e3 213e 6e3b a23d
00000090: 6139 aa3d 1def bc3d 7f49 0a3e ab93 b53d
000000a0: 806d e13d 8df9 e93d 139a d63d 71f9 c33d
000000b0: 52e3 a73d 61d0 d93d d9b9 073e c071 cb3d
000000c0: a3c8 f33d e8f3 c43d e92b f23d 5982 bf3d
000000d0: 65af e83d 145e 063e 3645 ba3d 7bf6 bb3d
000000e0: 67cc d73d 3516 f83d 1207 d53d 1caf e83d
000000f0: d285 ce3d 2889 0a3e 4303 fa3d dca1 b33d

layer.7.running_var f4 [64]
0.43905 0.45012555 0.44752303 0.43078232 0.5207104 0.43727106 0.45402747 0.44169945
0.45992574 0.47626853 0.46835172 0.45838135 0.48083505 0.46734154 0.43544057 0.45549354
0.45763975 0.49534917 0.44270548 0.4609182 0.44919884 0.4502366 0.49784794 0.45200607
0.48947206 0.46459162 0.46758685 0.45606634 0.48854885 0.43985713 0.43432784 0.44256148
0.46598813 0.44880968 0.5522703 0.43350378 0.4411979 0.44969758 0.48247442 0.44181815
0.4567925 0.45867413 0.45641124 0.45652112 0.43745372 0.4546467 0.48412824 0.45540294
0.48394144 0.45846203 0.4670178 0.45711046 0.46092573 0.47448704 0.45245358 0.447063
0.46256813 0.462787 0.45426682 0.46132112 0.45028967 0.5042068 0.46992156 0.4407004
00000000: 29cb e03e db76 e63e bd21 e53e 808f dc3e
00000010: 474d 053f fee1 df3e 4a76 e83e 6e26 e23e
00000020: 637b eb3e 78d9 f33e cccb ef3e f6b0 ea3e
00000030: 0330 f63e 6447 ef3e 11f2 de3e 7336 e93e
00000040: c24f ea3e 689e fd3e 4baa e23e 78fd eb3e
00000050: 64fd e53e 6985 e63e ede5 fe3e 576d e73e
00000060: 159c fa3e f4de ed3e 8b67 ef3e 8781 e93e
00000070: 1323 fa3e f434 e13e 3860 de3e 6b97 e23e
00000080: ff95 ee3e 62ca e53e 9661 0d3f 35f4 dd3e
00000090: b1e4 e13e c33e e63e e306 f73e fd35 e23e
000000a0: b5e0 e93e 56d7 ea3e bcae e93e 23bd e93e
000000b0: eff9 df3e 74c7 e83e a8df f73e 932a e93e
000000c0: 2cc7 f73e 89bb ea3e f51c ef3e 620a ea3e
000000d0: 75fe eb3e f7ef f23e ffa7 e73e 71e5 e43e
000000e0: bbd5 ec3e 6bf2 ec3e a995 e83e 4832 ec3e
000000f0: 5e8c e63e b213 013f 8f99 f03e 7ca3 e13e

layer.8.weight f4 [32, 64]
-0.09539278 0.062276185 0.104186036 0.03379017 0.041064136 0.061543252 -0.09500622 0.121820465
0.07390678 -0.103645615 -0.1168453 0.018145358 -0.0737683 -0.00941356 0.123988606 -0.02353162
0.003824722 -0.022660188 -0.03169764 0.110472776 -0.0027036779 -0.0888633 -0.06341616 0.07992881
-0.052959748 0.027228756 -0.018109147 -0.0075967647 0.078501016 -0.035404574 0.112723075 0.039486546
-0.095698364 -0.079637125 -0.053022917 -0.015932843 0.008885141 0.027674232 0.032113746 -0.054725215
-0.10370136 -0.09896628 -0.090266645 0.012512593 0.071096264 -0.07926107 -0.03538032 0.10093127
-0.044737358 0.12091746 0.090580195 0.06909832 0.08248393 -0.0067648785 0.063927114 -0.028588295
-0.07869305 -0.06069206 0.001087402 0.03326799 0.08158451 -0.03303631 0.0319091 -0.003481769
0.040816583 -0.022878638 -0.008741588 0.11323603 0.07153213 0.0058793365 -0.08715826 -0.040348347
0.057276864 0.07954479 0.015096569 0.12380313 0.025607027 0.037240036 -0.108060285 -0.07352701
0.08426294 -0.016416235 0.08634787 0.076926544 0.06498945 -0.09409683 0.112128176 -0.09202952
0.11297517 -0.05546637 -0.12261975 -0.008422772 -0.0692163 -0.048017465 -0.003863585 -0.05884
-0.010063635 -0.11959207 -0.014819045 0.06464719 0.032432053 0.0377662 -0.12411221 -0.12254898
0.00512919 -0.06268937 0.010894797 -0.014060148 0.09062735 -0.10799436 0.08444897 -0.07544046
-0.09145285 0.09669045 0.09435028 -0.008643166 -0.077232875 -0.10321522 0.047561307 0.061954442
0.017736988 0.04164829 -0.021872604 0.0006279322 -0.029124357 -0.09628128 -0.014953223 -0.055996083
0.0843208 -0.0046709552 -0.07950742 0.06986193 -0.042164538 -0.033915944 0.064664744 0.005760137
-0.08646202 -0.015623223 0.038994778 -0.059943434 -0.007518947 -0.011386728 0.09568797 0.0063508125
-0.04896813 0.044006 0.066051774 -0.045267228 -0.08641553 0.0021367685 -0.12780504 0.030761687
-0.0030934203 -0.072310254 0.0056509892 -0.10685298 -0.099343896 0.10992206 0.12065207 -0.0019855036
0.07260332 -0.06722457 -0.08502932 -0.084468715 0.077558465 0.12193165 0.03919553 0.0426458
-0.0843204 -0.013801836 -0.109842196 0.04052603 0.049754787 0.07513387 0.03210381 -0.10043758
0.012613862 -0.030509308 -0.10060682 -0.047859285 -0.031232381 -0.014638003 -0.10762027 0.0132701285
-0.102500826 0.04251222 -0.012901985 0.022136932 -0.08951559 -0.070606954 -0.015127748 -0.051028118
0.062838286 0.09263036 -0.07997766 -0.007209503 -0.047472246 -0.058340363 -0.012647895 -0.0042113196
0.027228033 0.014284173 -0.032829065 0.0744616 -0.06810057 0.115678504 0.083389275 0.12755287
0.077643916 -0.022077218 -0.03382457 0.06302337 -0.05177519 0.046274465 0.10557548 0.09164879
-0.066943035 0.0627986 -0.07996681 0.08158627 0.027502581 0.10039681 -0.10310314 -0.03161471
0.11483083 -0.10912755 0.010567327 -0.060774297 -0.009549695 -0.10134487 -0.1261258 -0.026370522
0.028111441 0.118846916 -0.08701664 -0.029111572 -0.106937386 0.024468616 -0.060482696 0.060739346
0.05976559 0.115016274 0.029906109 0.12341678 0.1005921 0.09457965 0.06292948 -0.019246837
-0.03763901 -0.00878611 0.11028486 0.04302385 0.007393776 -0.08423248 0.0075971354 -0.008820291
00000000: 4a5d c3bd 5015 7f3d 7d5f d53d 9067 0a3d
00000010: de32 283d c714 7c3d 9f92 c2bd 027d f93d
00000020: 705c 973d 2744 d4bd 974c efbd 93a5 943c
00000030: d613 97bd 553b 1abc bded fd3d 62c5 c0bc
00000040: 30a8 7a3b dca1 b9bc 62d5 01bd 8d3f e23d
00000050: 3030 31bb f6fd b5bd 55e0 81bd b7b1 a33d
00000060: 52ec 58bd d70e df3c a259 94bc 48ee f8bb
00000070: 24c5 a03d 6304 11bd 5bdb e63d a5bc 213d
00000080: 81fd c3bd ca18 a3bd 8f2e 59bd 9885 82bc
00000090: fc92 113c 12b5 e23c b489 033d 8c27 60bd
000000a0: 6161 d4bd d5ae cabd b8dd b8bd 9e01 4d3c
000000b0: eb9a 913d a153 a2bd f4ea 10bd 0eb5 ce3d
000000c0: 853e 37bd 93a3 f73d 1c82 b93d 6c83 8d3d
000000d0: 56ed a83d eaab ddbb 38ec 823d 0032 eabc
000000e0: d229 a1bd 3d98 78bd 2887 8e3a 0444 083d
000000f0: c815 a73d 1551 07bd 1eb3 023d 642e 64bb
00000100: 4a2f 273d fb6b bbbc e138 0fbc 4be8 e73d
00000110: 707f 923d 73a7 c03b 0880 b2bd 4f44 25bd
00000120: 259b 6a3d 61e8 a23d 9a57 773c 7f8c fd3d
00000130: d4c5 d13c 0289 183d b64e ddbd 5495 96bd
00000140: 0c92 ac3d 577b 86bc 27d7 b03d aa8b 9d3d
00000150: 3019 853d d7b5 c0bd 75a3 e53d f979 bcbd
00000160: 875f e73d b430 63bd 1020 fbbd abff 09bc
00000170: 47c1 8dbd f6ad 44bd 3334 7dbb 3602 71bd
00000180: f2e1 24bc b0ec f4bd 94cb 72bc bf65 843d
00000190: 79d7 043d bbb0 1a3d 8b2e febd f6fa fabd
000001a0: c412 a83b 4963 80bd 1780 323c 895c 66bc
000001b0: d59a b93d 262c ddbd 95f3 ac3d 8780 9abd
000001c0: a24b bbbd a505 c63d b83a c13d 119c 0dbc
000001d0: 452c 9ebd 8062 d3bd a5cf 423d f1c3 7d3d
000001e0: 294d 913c 6697 2a3d 2d2e b3bc d19b 243a
000001f0: 3496 eebc 1f2f c5bd 5dfe 74bc 265c 65bd
00000200: 62b0 ac3d d00e 99bb c9d4 a2bd c613 8f3d
00000210: b9b4 2cbd 72eb 0abd f36e 843d 88bf bc3b
00000220: 0013 b1bd 8cf8 7fbc fdb8 1f3d 3f87 75bd
00000230: 8061 f6bb 668f 3abc 0ef8 c33d 7a1a d03b
00000240: ce92 48bd a33f 343d 2746 873d 216a 39bd
00000250: a0fa b0bd 0709 0c3b 53df 02be efff fb3c
00000260: fbba 4abb 6617 94bd ef2b b93b bcd5 dabd
00000270: d074 cbbd d11e e13d 6f18 f73d 391f 02bb
00000280: 0db1 943d 09ad 89bd da23 aebd effd acbd
00000290: f9d6 9e3d 4db7 f93d 7e8b 203d 5dad 2e3d
000002a0: 2db0 acbd 1921 62bc f2f4 e0bd 9ffe 253d
000002b0: adcb 4b3d c9df 993d 497f 033d 38b2 cdbd
000002c0: 5faa 4e3c a8ee f9bc f30a cebd 1908 44bd
000002d0: 0ddb ffbc 3cd4 6fbc 0468 dcbd f46a 593c
000002e0: f4eb d1bd 4b21 2e3d d962 53bc 8358 b53c
000002f0: f353 b7bd 619a 90bd 60da 77bc dc02 51bd
00000300: 5cb1 803d fcb4 bd3d 54cb a3bd b23d ecbb
00000310: 4272 42bd 4ef6 6ebd 1e39 4fbc 1cff 89bb
00000320: 530d df3c 2a08 6a3c c577 06bd 537f 983d
00000330: 5078 8bbd dae8 ec3d ffc7 aa3d 389d 023e
00000340: c603 9f3d 48db b4bc a28b 0abd 6612 813d
00000350: 3912 54bd 4b8a 3d3d f537 d83d 5cb2 bb3d
00000360: 6e19 89bd 8d9c 803d a4c5 a3bd b416 a73d
00000370: 184d e13c d89c cd3d bd27 d3bd 6d7e 01bd
00000380: 6d2c eb3d 447e dfbd 9522 2d3c 78ee 78bd
00000390: 5376 1cbc e68d cfbd 1f27 01be fe06 d8bc
000003a0: f749 e63c 0366 f33d c835 b2bd 647b eebc
000003b0: fd01 dbbd 6872 c83c b4bc 77bd d2c9 783d
000003c0: c3cc 743d a78d eb3d a8fd f43c f0c1 fc3d
000003d0: 3b03 ce3d fab2 c13d 2ce1 803d 8bab 9dbc
000003e0: 5d2b 1abd 9ef3 0fbc 07dd e13d c739 303d
000003f0: 7d47 f23b 1482 acbd 64f1 f83b fb82 10bc

layer.8.bias f4 [32]
-0.04198629 0.114778675 -0.077427946 0.10065884 -0.088752806 0.072320364 0.115783684 -0.06584684
-0.1053367 -0.039062608 -0.060790624 -0.023669992 -0.08399466 -0.06172992 -0.045713056 -0.072382174
-0.11861719 -0.0684527 0.084968634 -0.09761328 0.016273433 0.054975826 -0.03187244 -0.08919999
-0.07065024 -0.0086405445 -0.07860322 0.10752385 0.06470325 0.059311617 -0.015359101 0.0399076
00000000: d1f9 2bbd 1511 eb3d 8b92 9ebd 3926 ce3d
00000010: 08c4 b5bd b31c 943d ff1f ed3d b5da 86bd
00000020: c5ba d7bd 1d00 20bd 97ff 78bd 92e7 c1bc
00000030: 6405 acbd 83d8 7cbd 9d3d 3bbd 1b3d 94bd
00000040: 92ed f2bd ee30 8cbd 0904 ae3d 79e9 c7bd
00000050: dd4f 853c 552e 613d ad8c 02bd 7cae b6bd
00000060: 13b1 90bd 1291 0dbc bafa a0bd 7735 dc3d
00000070: 2383 843d bdf0 723d bda4 7bbc 2776 233d

layer.11.weight f4 [1, 32]
-0.0918717 0.08477136 -0.06755161 0.07738167 -0.09412756 -0.06732372 -0.10470402 0.052662697
-0.10040251 -0.09636214 0.14962359 -0.07457294 0.17212376 0.1279482 -0.08434415 -0.009291947
-0.00718612 -0.039290335 0.04748278 0.039764732 0.0076289936 -0.17260018 0.11657728 -0.17250943
-0.16260326 -0.060190544 -0.16894183 0.040948145 -0.11395087 0.07835004 0.14624535 -0.1022976
00000000: 3b27 bcbd 9b9c ad3d 8058 8abd 487a 9e3d
00000010: f3c5 c0bd 05e1 89bd 106f d6bd d7b4 573d
00000020: d59f cdbd 8359 c5bd ed36 193e b3b9 98bd
00000030: 3641 303e da04 033e a0bc acbd 403d 18bc
00000040: 8b79 ebbb e7ee 20bd 4e7d 423d 58e0 223d
00000050: a3fc f93b 1abe 30be 12c0 ee3d 50a6 30be
00000060: 7881 26be 5c8a 76bd 16ff 2cbe 3eb9 273d
00000070: 135f e9bd fc75 a03d 57c1 153e 6781 d1bd
