src/models/v3/pretrained_models/monaco_model_v3.pt (torch, 63253 bytes, 15 tensors)

layer.0.weight f4 [128, 21]
00000000: baf8 3cbe e1d0 473e 36ae 15be df69 a73d
00000010: c60f 1b3d 5b72 06be 7291 003e f1ca c0bd
00000020: 1311 8c3d 1db5 303e d0bf d1bd 7739 ea3d
00000030: 2406 2bbe bc28 1c3e a37f 8dbd f104 58bd
00000040: 5a78 3cbe 1a60 4bbe 8638 31be 93a9 be3d
00000050: bdc5 09be d8eb 5f3e 2593 50bd a169 f6bd
00000060: f851 3bbd 28a4 7ebd 1ee5 533e 6300 5d3e
00000070: 98f5 8abd a4c9 593d bc69 a1bc 9b88 4f3e
00000080: e9b7 2a3e 824c 3d3d a23c 06be 2fb4 f5bd
00000090: d147 51bc 92cc a53d ca9d 7f3d 5de7 333e
000000a0: 5136 5fbe 4587 39bd 594a 453b f454 113e
000000b0: aabe 533e f6cd 343e b351 0c3e 48ca a13d
000000c0: b8fd 9fbc 7107 00be 83b5 363e 1977 4abe
000000d0: 858a 183e 2697 bb3d 3e0e 42be 6d4b b9bd
000000e0: e801 24be 5d7d 05be d7d4 b53c 0e5b 663c
000000f0: d8ba 223e 46fe 4a3e 14ba 9b3d 56df ec3d
00000100: 7a57 7e3c 4d44 aabc 1a86 a43d 3a0f a33c
00000110: 914a 3abd 4a42 2b3e b1e1 1cbe fce2 7e3d
00000120: fdaa 3cbd b084 ac3a 185d 113e dc67 11be
00000130: 6ae7 d83d d878 b5bd 03ef 1fbe 4865 d8bc
00000140: 50fb a03b e7a8 f13d 13b1 41be 452f 943d
00000150: c386 1f3c bcfb d33b 6b37 9c3d c37e 313e
00000160: bd78 9fbd a05c ebbd 4306 063e 03d3 4fbe
00000170: a344 f33d 139f 50be 0963 2b3e 7f80 33be
00000180: 61c2 34be 0b99 353e 5598 1fbe 853b 623d
00000190: 8435 2bbe 6cdc c13d 9e9c 903d 38ed ac3b
000001a0: 85d5 0b3d f782 14bc 2c67 303e c377 2fbe
000001b0: 5666 663d 7751 eabd f86c 983d ac2a b43d
000001c0: 68b6 19be 6e8c 463e be40 243e f0d8 3b3c
000001d0: a0b0 5bbe 6ad1 b0bd f392 33be fbd5 453e
000001e0: 2742 9dbd 66fa 7ebc e21f 8dbd aa48 273e
000001f0: 6e53 083e 6ea3 63bd 8aaa d9bd f2aa 633d
00000200: f6ac 023e f2eb 013e 886d 3b3c 8527 1e3d
00000210: defb 93bd 94ba a13d b829 fd3d 69f0 59be
00000220: 75cb 7ebd 405d 17bd 3eab 8d3d 5992 4dbe
00000230: 169a 38be 336c 083e 0f17 cebd 5193 17bd
00000240: 3c21 0cbe 46b6 53be f1a3 b53c 8cb7 ef3b
00000250: 841d 92bd 6290 d13d 77ed 18be 752f a63c
00000260: 670b 3e3c 9a67 41be 000f 42be 0458 f33d
00000270: dcec 523e adfe eb3d d025 db3c 8386 143d
00000280: 2ff3 15be b641 413e b750 e1bd 97ac 3d3e
00000290: 6c02 5bbd e09c 033e 24a6 0c3e fe74 9b3d
000002a0: d72a 493e 690c 66bd 04c7 153e 50ca c9bd
000002b0: bdb1 34be dcf8 8bbd 2e6a 943d 3d86 133a
000002c0: 0115 57be 22a7 58bd 2814 f2bd 5b65 e63c
000002d0: 38d7 ebbc cc39 07bd 14be 783d 1984 9dbd
000002e0: 651d 63bd 452a dfbd 1894 e23c 5e34 eebd
000002f0: 8324 d4bc a3e0 4ebd cb13 cc3d 34c3 3b3e
00000300: b9e7 8abd c46a 59be fc23 4f3d e10e da3d
00000310: 5e1b 503e 58e6 21bd 2ab7 a23d 248d e0bc
00000320: ea92 15bc df97 973b e8b8 d3bd 44a4 163e
00000330: 89f6 d93d c09c 783d 0112 2e3d b7f6 3bbe
00000340: abed d13c bc1e 163d 17d7 8bbd d0ae 33be
00000350: c13f d53c 6d1a 1dbe db11 493e af5d 0ebe
00000360: 1060 39bd 2c7d 0abd 2253 bebd 5646 243b
00000370: 037b 4f3d 6998 89bd 10af 9c3d 4661 193d
00000380: 09e8 0a3e 46a4 503c 122b cebd a8d3 673d
00000390: a4bf 4e3e b43e 4b3e 205a d3bd f067 b8bd
000003a0: b837 ea3d ec2f 5d3e 1dd1 a33d 5056 a83d
000003b0: 5de0 ca3d 08fe 6c3c d5f6 dabc 3627 443c
000003c0: 2465 273e c051 8b3d 87c4 e03d a6a8 283d
000003d0: ea63 afbc 3e42 24be 1439 05be 5db6 02be
000003e0: df2f 873d 6230 c23d f8c4 da3d c49c 343e
000003f0: 785c 5fbe 8a5b 2f3e 797d 173e b01e 8bbd
-0.18454257 0.19513275 -0.14617237 0.0817449 0.03785684 -0.1312956 0.12555483 -0.09413708
0.06839194 0.17256589 -0.102416635 0.11436742 -0.16701561 0.15249914 -0.069091104 -0.052739087
-0.18405285 -0.19860879 -0.17306718 0.093096875 -0.13454337 0.21867311 -0.050921578 -0.12031866
-0.04573247 -0.06216827 0.2069287 0.21582179 -0.067851245 0.053170815 -0.019703738 0.20266955
0.16671719 0.04621554 -0.13109067 -0.11997258 -0.01277347 0.08095659 0.06240634 0.17568727
-0.21798064 -0.04529502 0.003010413 0.14192563 0.20678201 0.17656693 0.13703041 0.0789991
-0.019530162 -0.12502839 0.17842679 -0.19771995 0.14896591 0.09159689 -0.18950745 -0.090475895
-0.16016352 -0.13036104 0.022196217 0.014059795 0.15891588 0.1982356 0.07603851 0.115660354
0.015523786 -0.020784521 0.0803339 0.019904722 -0.04548127 0.16724506 -0.1532047 0.062228188
-0.046061505 0.0013162103 0.14195669 -0.14199775 0.10591014 -0.0886094 -0.1561852 -0.026415482
0.0049127713 0.11799794 -0.18915205 0.072355784 0.00973672 0.006469218 0.07627758 0.17333512
-0.07786701 -0.11492276 0.13088326 -0.20295338 0.11878326 -0.20373182 0.16736998 -0.17529486
-0.17652275 0.17734163 -0.15585454 0.055232543 -0.16719633 0.0946587 0.07061122 0.005277302
0.034139175 -0.009064428 0.17226857 -0.17135529 0.05624994 -0.114413194 0.07442659 0.087972015
-0.15010989 0.19389507 0.16040322 0.011465296 -0.21454096 -0.086336926 -0.17536525 0.19319908
-0.07678633 -0.015562629 -0.06890847 0.16336313 0.13313076 -0.05557578 -0.10628231 0.055582948
0.12761292 0.12687662 0.0114396885 0.038611908 -0.07225774 0.07896915 0.12361473 -0.21283115
-0.06220575 -0.036954165 0.069174275 -0.20075358 -0.18027529 0.13322525 -0.10062992 -0.037005726
-0.13684553 -0.20675 0.0221729 0.0073155817 -0.07134536 0.10232617 -0.14934336 0.020286301
0.011599398 -0.18887177 -0.18951035 0.11882022 0.20598167 0.11523185 0.026751429 0.036261093
-0.14643548 0.18872723 -0.11001723 0.18522869 -0.053469107 0.12852812 0.13735253 0.07590674
0.19645248 -0.05616418 0.146267 -0.09853041 -0.17645927 -0.068345755 0.07246815 0.0005627608
-0.21004106 -0.052893765 -0.11820251 0.028124502 -0.028789148 -0.033014104 0.060728148 -0.07691211
-0.055447955 -0.10896734 0.027658507 -0.11631082 -0.025896316 -0.0505072 0.09964713 0.18336183
-0.06782479 -0.21232134 0.050571427 0.10647369 0.2032294 -0.039526314 0.07945092 -0.027411051
-0.009129265 0.0046262587 -0.103380024 0.147111 0.10642726 0.060696363 0.04249764 -0.18355833
0.025626024 0.036650404 -0.068281345 -0.17547154 0.026031377 -0.15342112 0.19635718 -0.13902925
-0.045257628 -0.03381078 -0.092932 0.0025066338 0.050654422 -0.06718523 0.07650578 0.037446283
0.13565077 0.012734478 -0.10066809 0.056598336 0.20190293 0.19848138 -0.10319924 -0.090041995
0.11436409 0.21600312 0.079988696 0.08219588 0.09906075 0.014464863 -0.026729027 0.011972239
0.16347176 0.06802702 0.109749846 0.04117646 -0.021409947 -0.16040894 -0.13010055 -0.12764879
0.066009276 0.094818845 0.106821 0.17637926 -0.21812618 0.17124763 0.14793958 -0.067929626

layer.0.bias f4 [128]
00000000: e057 293e e4fd c4bd cc8f 5fbe da1c 313d
00000010: 4768 55bd 7239 d2bd a865 0fbe 5931 0e3e
00000020: 1e9b aebd d01c 44be bf9c 2a3d 18a7 d83d
00000030: cae3 f53b b36a 58be f3e9 08bd 335c 11be
00000040: b450 07be 1970 f6bd d73b 763c 6beb 863d
00000050: fd59 253d 9354 4f3d 70bc febc 166b 89bd
00000060: 7e07 173e fb42 25be bd51 4e3e bcda 40be
00000070: 65de e8bd c069 aa3d 82de 04be beb0 5e3d
00000080: 1589 f4bd 4dd9 1a3d c9df 1dbd 23e3 c4bd
00000090: 3de2 1abe 1d25 9bbc a343 5a3e 46ba 123e
000000a0: 68c9 1c3d fa3e 3bbe 75c8 cd3d 0851 2dbe
000000b0: a929 58be 6d8f 983d cbbb 45be 97cb f73d
000000c0: 073e 95bd e587 033e 6452 393e 9e70 953d
000000d0: d07e 45be 64a3 bd3d a024 31be a608 38be
000000e0: 4fb9 9a3d 3fdd 3d3e 4892 9bbd 0107 113e
000000f0: 7ce0 10be 6bbe 48be b536 473e 86ea a73c
00000100: 44b9 1bbe 47fb 023e bd6c 0fbd 6503 453c
00000110: f699 57bd 0614 11be 2a5d d63d 2671 f63d
00000120: 708e 6e3d a549 bdbd 3d9a 1b3d 0d66 31be
00000130: e9fe 4f3b 238f 253b 6a57 303e 9971 f3bd
00000140: ad6c 813c e398 6cbd a9c2 24be b61a 0e3c
00000150: d481 163e d5c2 28bc f9fa ca3d 7e5e 063e
00000160: b187 78bd babb 2d3e be04 383d 2b71 373e
00000170: faf8 203e 7dfb 54bc 086a 47bd 4656 ac3d
00000180: 2880 d53d e852 953d 7962 563e d101 fe3b
00000190: 2921 02bd 0554 acbc ff71 0cbe 93db 5cbe
000001a0: cfa2 a33c 04ac a83d 4d12 6a3d 6922 eb3d
000001b0: 9edc e93c 73ad 48be 2b33 edbc 39dc 81bd
000001c0: 983d 093e b526 0fbe 6a6b 0f3e 9957 3b3e
000001d0: 3c1e f7bc f83c 1bbe c3ca 08be cd05 85bd
000001e0: 10f2 f0bb b7fa 1d3e f410 8abd 6be4 af3b
000001f0: 47d4 58be 4d47 cdbd b7e2 b8bd 8f27 a33c
0.16537428 -0.09618738 -0.21832198 0.043240406 -0.0521014 -0.10264863 -0.14003623 0.13886012
-0.0852568 -0.19151616 0.04165339 0.105787456 0.007503961 -0.21134453 -0.033426236 -0.14195327
-0.1321438 -0.120331 0.015028915 0.06587871 0.040369023 0.050617766 -0.031095713 -0.06709878
0.14748952 -0.16138832 0.20148368 -0.1883344 -0.113705434 0.083209515 -0.12975505 0.054367773
-0.11940209 0.03780489 -0.038543496 -0.096136354 -0.15125366 -0.018938595 0.21314864 0.1432887
0.038278013 -0.18285742 0.10048 -0.16925442 -0.21109642 0.07449231 -0.19309919 0.120993786
-0.072872214 0.12844808 0.18097836 0.07296871 -0.19286656 0.0925968 -0.17299128 -0.17972049
0.07554876 0.1854143 -0.0759626 0.14162828 -0.14148134 -0.19603889 0.19454463 0.020497572
-0.15207392 0.12791167 -0.03501581 0.012024735 -0.052637063 -0.14167795 0.104669884 0.120333
0.058241308 -0.09242562 0.03798889 -0.17324086 0.0031737632 0.0025262318 0.17220846 -0.118869014
0.015798891 -0.05776299 -0.16089882 0.008673361 0.14697963 -0.010300358 0.099111505 0.13121983
-0.06067628 0.16966143 0.044926398 0.17914264 0.15719977 -0.012999413 -0.048685104 0.08414893
0.104248345 0.07291204 0.20936002 0.0077516814 -0.031769905 -0.021036157 -0.13715361 -0.21568136
0.019975094 0.082359344 0.05714636 0.114811726 0.028547581 -0.19597416 -0.028955063 -0.06340832
0.13402402 -0.1397961 0.14005819 0.18295135 -0.030165784 -0.15159976 -0.13358597 -0.06495247
-0.007353075 0.15427671 -0.06741515 0.0053678057 -0.21174727 -0.10023365 -0.090276174 0.019916324

layer.3.weight f4 [128]
00000000: 0000 803f c520 803f c520 803f c520 803f
00000010: 77be 7f3f c520 803f 0000 803f c520 803f
00000020: 77be 7f3f 0000 803f c520 803f 0000 803f
00000030: 0000 803f 0000 803f c520 803f 77be 7f3f
00000040: 77be 7f3f c520 803f 0000 803f 0000 803f
00000050: 0000 803f c520 803f c520 803f 0000 803f
00000060: 0000 803f c520 803f c520 803f 0000 803f
00000070: c520 803f 77be 7f3f 77be 7f3f c520 803f
00000080: 0000 803f 0000 803f 77be 7f3f 77be 7f3f
00000090: 77be 7f3f 77be 7f3f c520 803f 77be 7f3f
000000a0: 77be 7f3f 0000 803f c520 803f 0000 803f
000000b0: c520 803f c520 803f 0000 803f 77be 7f3f
000000c0: 0000 803f 0000 803f 77be 7f3f c520 803f
000000d0: 77be 7f3f c520 803f 77be 7f3f 0000 803f
000000e0: 77be 7f3f 77be 7f3f 0000 803f c520 803f
000000f0: 0000 803f 77be 7f3f 0000 803f 77be 7f3f
00000100: 0000 803f c320 803f 77be 7f3f 0000 803f
00000110: 0000 803f c520 803f 77be 7f3f c520 803f
00000120: c520 803f 0000 803f c520 803f c520 803f
00000130: 0000 803f c520 803f 77be 7f3f 0000 803f
00000140: 0000 803f 0000 803f 79be 7f3f 77be 7f3f
00000150: 77be 7f3f 77be 7f3f 0000 803f 0000 803f
00000160: 0000 803f 0000 803f 0000 803f 77be 7f3f
00000170: c520 803f 0000 803f 0000 803f 77be 7f3f
00000180: 77be 7f3f 0000 803f c520 803f c520 803f
00000190: 77be 7f3f 0000 803f c520 803f c520 803f
000001a0: 77be 7f3f 0000 803f 77be 7f3f c520 803f
000001b0: c520 803f 0000 803f 0000 803f 77be 7f3f
000001c0: 0000 803f 0000 803f 0000 803f 77be 7f3f
000001d0: 77be 7f3f 0000 803f 0000 803f 0000 803f
000001e0: 77be 7f3f c520 803f 77be 7f3f 77be 7f3f
000001f0: c520 803f 0000 803f 77be 7f3f 0000 803f
1.0 1.001 1.001 1.001 0.999 1.001 1.0 1.001
0.999 1.0 1.001 1.0 1.0 1.0 1.001 0.999
0.999 1.001 1.0 1.0 1.0 1.001 1.001 1.0
1.0 1.001 1.001 1.0 1.001 0.999 0.999 1.001
1.0 1.0 0.999 0.999 0.999 0.999 1.001 0.999
0.999 1.0 1.001 1.0 1.001 1.001 1.0 0.999
1.0 1.0 0.999 1.001 0.999 1.001 0.999 1.0
0.999 0.999 1.0 1.001 1.0 0.999 1.0 0.999
1.0 1.0009998 0.999 1.0 1.0 1.001 0.999 1.001
1.001 1.0 1.001 1.001 1.0 1.001 0.999 1.0
1.0 1.0 0.99900013 0.999 0.999 0.999 1.0 1.0
1.0 1.0 1.0 0.999 1.001 1.0 1.0 0.999
0.999 1.0 1.001 1.001 0.999 1.0 1.001 1.001
0.999 1.0 0.999 1.001 1.001 1.0 1.0 0.999
1.0 1.0 1.0 0.999 0.999 1.0 1.0 1.0
0.999 1.001 0.999 0.999 1.001 1.0 0.999 1.0

layer.3.bias f4 [128]
00000000: 6812 833a 6312 833a 5f12 83ba 6512 833a
00000010: 1e12 833a 5d12 833a 4b12 833a 4912 833a
00000020: 6712 833a 6912 83ba 6912 83ba 6412 83ba
00000030: 6012 83ba 4012 83ba 5f12 833a 6312 833a
00000040: 6a12 833a 5e12 83ba 6712 83ba 5b12 83ba
00000050: 6212 833a 6412 833a 4412 83ba 5512 83ba
00000060: 4012 833a 6812 833a 6412 83ba 6212 833a
00000070: fe0e 833a 6012 83ba 6b12 83ba 5612 833a
00000080: 4612 833a 6612 83ba 6912 83ba 5d12 833a
00000090: 6712 83ba 6712 833a 3812 833a 6812 833a
000000a0: ef11 833a 1b0f 83ba 6812 83ba 5712 833a
000000b0: 0c12 83ba 6512 83ba 6712 833a 6412 83ba
000000c0: 6512 833a 6612 833a 6212 833a 6612 83ba
000000d0: 5112 833a 6712 83ba 6412 833a 5212 83ba
000000e0: 3012 833a 4712 833a 5212 83ba 6712 83ba
000000f0: 6612 83ba 5512 83ba 6712 83ba 6412 83ba
00000100: 6312 833a 4712 833a 6812 83ba 4812 833a
00000110: 6812 833a 4912 83ba 5d12 833a 5912 833a
00000120: 6412 83ba 1512 83ba 6912 83ba 5a12 833a
00000130: 6212 833a cc11 83ba ed0f 83ba 5612 833a
00000140: 5412 833a dd10 833a 6212 833a 5e12 833a
00000150: 6112 833a c511 833a 6712 83ba 6212 83ba
00000160: 6412 833a 6312 83ba 6712 833a f610 83ba
00000170: 6412 83ba 6912 83ba 6112 833a 4112 83ba
00000180: 6512 833a 6712 833a 6612 833a 6912 83ba
00000190: fa11 83ba 6612 83ba 6012 833a 5e12 83ba
000001a0: 5b12 833a 6112 83ba 5912 833a 6712 833a
000001b0: 3212 83ba 6912 833a cd11 83ba 6712 83ba
000001c0: 6212 83ba a611 83ba 6612 833a cf11 833a
000001d0: 5512 83ba 6812 833a 5f12 833a 6012 83ba
000001e0: 5d12 83ba 5d12 83ba 4e12 83ba 6512 833a
000001f0: 5712 83ba 6612 83ba 6712 83ba 6512 83ba
0.0009999992 0.0009999987 -0.0009999982 0.0009999989 0.0009999906 0.000999998 0.0009999959 0.0009999956
0.0009999991 -0.0009999993 -0.0009999993 -0.0009999988 -0.0009999983 -0.0009999946 0.0009999982 0.0009999987
0.0009999995 -0.0009999981 -0.0009999991 -0.0009999977 0.0009999985 0.0009999988 -0.000999995 -0.000999997
0.0009999946 0.0009999992 -0.0009999988 0.0009999985 0.0009998975 -0.0009999983 -0.0009999996 0.0009999971
0.0009999953 -0.000999999 -0.0009999993 0.000999998 -0.0009999991 0.0009999991 0.0009999936 0.0009999992
0.0009999851 -0.0009999009 -0.0009999992 0.0009999973 -0.0009999885 -0.0009999989 0.0009999991 -0.0009999988
0.0009999989 0.000999999 0.0009999985 -0.000999999 0.0009999966 -0.0009999991 0.0009999988 -0.0009999967
0.0009999927 0.0009999954 -0.0009999967 -0.0009999991 -0.000999999 -0.000999997 -0.0009999991 -0.0009999988
0.0009999987 0.0009999954 -0.0009999992 0.0009999955 0.0009999992 -0.0009999956 0.000999998 0.0009999975
-0.0009999988 -0.0009999896 -0.0009999993 0.0009999976 0.0009999985 -0.0009999811 -0.0009999253 0.0009999971
0.0009999969 0.0009999532 0.0009999985 0.0009999981 0.0009999984 0.0009999803 -0.0009999991 -0.0009999985
0.0009999988 -0.0009999987 0.0009999991 -0.0009999562 -0.0009999988 -0.0009999993 0.0009999984 -0.0009999947
0.0009999989 0.0009999991 0.000999999 -0.0009999993 -0.0009999864 -0.000999999 0.0009999983 -0.0009999981
0.0009999977 -0.0009999984 0.0009999975 0.0009999991 -0.000999993 0.0009999993 -0.0009999812 -0.0009999991
-0.0009999985 -0.0009999766 0.000999999 0.0009999814 -0.000999997 0.0009999992 0.0009999982 -0.0009999983
-0.000999998 -0.000999998 -0.0009999962 0.0009999989 -0.0009999973 -0.000999999 -0.0009999991 -0.0009999989

layer.3.running_mean f4 [128]
00000000: 0000 0000 dcd8 0043 1733 2541 9310 8b42
00000010: fef6 ff40 abcc 8140 0000 0000 aa63 2841
00000020: 946b d842 0000 0000 6165 6d3e 0000 0000
00000030: 0000 0000 0000 0000 56a2 3642 e7c3 2c42
00000040: dc9e 5242 c447 a342 0000 0000 0000 0000
00000050: 0000 0000 cd65 4b41 c517 9d3d 0000 0000
00000060: 0000 0000 4e1f 9842 5af1 c83e 0000 0000
00000070: aafc 5242 fac1 eb42 4cad ae40 aa33 353f
00000080: 0000 0000 0000 0000 a2c1 bc40 8ca5 ec42
00000090: bb53 b842 c4e4 cc42 ea9e de3b 44e4 4141
000000a0: 4c04 e542 0000 0000 29d5 9340 0000 0000
000000b0: a41b c641 f002 4b41 0000 0000 facd e942
000000c0: 0000 0000 0000 0000 2080 5642 c9d5 2a42
000000d0: 0cfe ba42 743b 3142 3335 9e42 0000 0000
000000e0: abdf d641 741e 4f42 0000 0000 a0db 6842
000000f0: 0000 0000 709c c942 0000 0000 29c2 a942
00000100: 0000 0000 d351 a542 ef65 9442 0000 0000
00000110: 0000 0000 e422 033f 3119 5b41 1f18 ca40
00000120: 54ae b742 0000 0000 c6d4 5f41 5a1c af42
00000130: 0000 0000 16ac 3841 bc58 ce42 0000 0000
00000140: 0000 0000 0000 0000 8213 9b42 8758 9d42
00000150: cc27 8f42 de0f 8442 0000 0000 0000 0000
00000160: 0000 0000 0000 0000 0000 0000 7985 c73f
00000170: 8abb a542 0000 0000 0000 0000 b0e6 ab42
00000180: 721c cb40 0000 0000 24b8 cd3f ae17 a43b
00000190: a689 5c41 0000 0000 d2ff 6c42 7e89 2542
000001a0: 88fd 4442 0000 0000 46b8 3742 a090 2e42
000001b0: 0956 6b42 0000 0000 0000 0000 2c8d 7442
000001c0: 0000 0000 0000 0000 0000 0000 7845 8e42
000001d0: 2ac9 6d41 0000 0000 0000 0000 0000 0000
000001e0: 1ee1 ad42 6349 8542 1024 6a42 e9af db42
000001f0: 9817 8840 0000 0000 f6fe 3842 0000 0000
0.0 128.8471 10.324973 69.53237 7.9989004 4.056234 0.0 10.524332
108.21011 0.0 0.23183204 0.0 0.0 0.0 45.65853 43.19131
52.655136 81.64017 0.0 0.0 0.0 12.712354 0.07670549 0.0
0.0 76.06114 0.39246637 0.0 52.746742 117.87886 5.4586544 0.7078196
0.0 0.0 5.898637 118.32333 92.163536 102.44681 0.0067938464 12.118229
114.50839 0.0 4.6197705 0.0 24.763496 12.688217 0.0 116.9023
0.0 0.0 53.625122 42.708775 93.496185 44.30806 79.103905 0.0
26.859213 51.77974 0.0 58.214478 0.0 100.80554 0.0 84.87922
0.0 82.65981 74.19909 0.0 0.0 0.51225114 13.69365 6.3154445
91.840485 0.0 13.989447 87.555374 0.0 11.542013 103.17331 0.0
0.0 0.0 77.5381 78.672905 71.57773 66.03099 0.0 0.0
0.0 0.0 0.0 1.5587608 82.86629 0.0 0.0 85.95056
6.3472223 0.0 1.607182 0.0050077057 13.783606 0.0 59.249825 41.38427
49.24759 0.0 45.929955 43.641235 58.83402 0.0 0.0 61.137863
0.0 0.0 0.0 71.13568 14.861612 0.0 0.0 0.0
86.93968 66.64333 58.535217 109.843575 4.25288 0.0 46.248985 0.0

layer.3.running_var f4 [128]
00000000: bd9f 3a3f d26b 9e46 2d83 fe43 44ef bf45
00000010: 1d42 1443 9499 9443 bd9f 3a3f 37ac bc43
00000020: 5d0b 5f46 bd9f 3a3f 2c44 5241 bd9f 3a3f
00000030: bd9f 3a3f bd9f 3a3f 9964 2445 6e61 2845
00000040: c043 6145 faf5 fc45 bd9f 3a3f bd9f 3a3f
00000050: bd9f 3a3f a023 b343 a2c7 3440 bd9f 3a3f
00000060: bd9f 3a3f 9740 e045 5a07 fe40 bd9f 3a3f
00000070: 624f 6a45 4965 8746 c848 c543 008b d841
00000080: bd9f 3a3f bd9f 3a3f 40bd 0243 408b 8146
00000090: 32ae 2b46 5217 3e46 b149 4e3f feac ab43
000000a0: 9aa4 8246 bd9f 3a3f 0063 ea42 bd9f 3a3f
000000b0: 535e 6644 be25 4443 bd9f 3a3f 6823 8546
000000c0: bd9f 3a3f bd9f 3a3f 4a8e 6d45 3965 2c45
000000d0: 0879 3a46 f606 2145 628d ff45 bd9f 3a3f
000000e0: fc09 8f44 19aa 5945 bd9f 3a3f 8854 8f45
000000f0: bd9f 3a3f b857 3e46 bd9f 3a3f 2823 0c46
00000100: bd9f 3a3f eb3b 0746 9441 d045 bd9f 3a3f
00000110: bd9f 3a3f ce31 de41 de8f e943 87a1 6043
00000120: 8ba9 2846 bd9f 3a3f c2f2 2144 7f6f 1a46
00000130: bd9f 3a3f bc28 6943 efb6 4c46 bd9f 3a3f
00000140: bd9f 3a3f bd9f 3a3f 9c38 ea45 2c67 f145
00000150: 2053 d645 1ed1 b445 bd9f 3a3f bd9f 3a3f
00000160: bd9f 3a3f bd9f 3a3f bd9f 3a3f 58b7 6442
00000170: 2080 0a46 bd9f 3a3f bd9f 3a3f cd99 1846
00000180: 34dc f142 bd9f 3a3f 52af 2041 256f 4e3f
00000190: 1aae ee43 bd9f 3a3f fcd3 8e45 2a6d 0e45
000001a0: 6421 5e45 bd9f 3a3f e9dc 2545 7a7e 3b45
000001b0: ade8 8a45 bd9f 3a3f bd9f 3a3f 85fa a345
000001c0: bd9f 3a3f bd9f 3a3f bd9f 3a3f 0015 d245
000001d0: 4e0e df43 bd9f 3a3f bd9f 3a3f bd9f 3a3f
000001e0: 4e67 0c46 a344 b445 c379 8e45 b6ef 6f46
000001f0: d727 c141 bd9f 3a3f cab3 4345 bd9f 3a3f
0.7289999 20277.91 509.0248 6141.908 148.25826 297.19983 0.7289999 377.34543
14274.841 0.7289999 13.141644 0.7289999 0.7289999 0.7289999 2630.2874 2694.0894
3604.2344 8094.747 0.7289999 0.7289999 0.7289999 358.27832 2.8246846 0.7289999
0.7289999 7176.0737 7.9383974 0.7289999 3748.9614 17330.643 394.5686 27.067871
0.7289999 0.7289999 130.73926 16581.625 10987.549 12165.83 0.80581194 343.3515
16722.3 0.7289999 117.19336 0.7289999 921.4738 196.14743 0.7289999 17041.703
0.7289999 0.7289999 3800.893 2758.3264 11934.258 2576.435 8177.673 0.7289999
1144.312 3482.631 0.7289999 4586.5664 0.7289999 12181.93 0.7289999 8968.789
0.7289999 8654.9795 6664.1973 0.7289999 0.7289999 27.774319 467.12396 224.63097
10794.386 0.7289999 647.7931 9883.874 0.7289999 233.15912 13101.733 0.7289999
0.7289999 0.7289999 7495.076 7724.8965 6858.3906 5786.1396 0.7289999 0.7289999
0.7289999 0.7289999 0.7289999 57.179047 8864.031 0.7289999 0.7289999 9766.45
120.930084 0.7289999 10.042803 0.80638343 477.36017 0.7289999 4570.498 2278.8228
3554.087 0.7289999 2653.807 2999.9048 4445.0845 0.7289999 0.7289999 5247.315
0.7289999 0.7289999 0.7289999 6722.625 446.11176 0.7289999 0.7289999 0.7289999
8985.826 5768.5796 4559.22 15355.928 24.144453 0.7289999 3131.2368 0.7289999

layer.4.weight f4 [64, 128]
00000000: e346 db3c ca83 3f3d 2350 91bd e87d 353d
00000010: 4d6a 893d 1b23 90bd 110c 0f3d 9b70 7d3d
00000020: 5595 ddbb b990 053d cee0 95bd a006 603d
00000030: 2bd6 81bd fd5a 86bd 2afb 60bd 707c a13c
00000040: 4de0 b0bd 3069 aa3d 8c8c 333d d21a f1bc
00000050: e6d0 32bc bf57 2fbc 2074 47bd ed70 5dbc
00000060: 148f 8fbc 40d8 a1bd a53b 623d 1fb0 3ebd
00000070: d397 513d e85a 92bd 50bc 113d e575 093d
00000080: 3da9 293c 3d8c ee3c e8c5 a7bd e79d 91bc
00000090: b690 a7bd cecc 3a3d 613b 53bd a8d3 65bd
000000a0: 552e adbd f71e f7bc 9995 1ebd 0532 8abd
000000b0: 4d4a 00bd 0d2f 533c c786 123c 8933 083d
000000c0: 6b53 003d 94f9 113d 13be d4bc 024d 89bd
000000d0: c96d 31bd ca71 b33d 55d0 84bd cca6 a7bc
000000e0: 1334 9ebd 5687 85bc 6ebb bdbc bd4d 09bd
000000f0: 0fc7 a5bd d0e4 b43d 9586 0f3d 6833 48bc
00000100: d8ea 90bc ef41 3e3d 7b17 49bd 484e bfbc
00000110: e3c8 413c 65e5 b03d 3f82 86bd 6227 3e3d
00000120: b50f 443d b38a 573d f4e0 de3b 486d 51bc
00000130: c6f7 463d 25b0 a1bd 5767 c0bc 0719 a7bd
00000140: ad68 a8bc bfc6 453d 752c 823d 880a 9bbd
00000150: 8eff 61bd a273 563b 05fa 153d d354 edbb
00000160: e350 a23c 9130 e83c ce58 85bd 0748 9abd
00000170: eca8 193d 6091 9cbb a303 d8ba 90f6 aa3d
00000180: b903 fc3c 9477 1c3d 7093 9a3d bb92 84bd
00000190: a705 ccbc cf8b f0ba 312c 61bc 6e2a d13c
000001a0: 282c 6d3d b238 103d 1f9b 403c 60e9 5438
000001b0: 5086 85bc e2f0 823c 0186 81bb 5b68 a43c
000001c0: f013 b43c fa92 873d 669b 9ebd 4c78 9fbd
000001d0: 9cb7 bb3a cc3e 9bbd 0eda 93bc 7d83 a23c
000001e0: 5e13 19bb 475c ce3b 7bf3 8cbd 4958 883c
000001f0: eb00 a33c 0d35 51bd 6b32 393c 3908 083d
00000200: 5a6f 90bd 2be6 b83c 1c22 26bd 0bb7 19bd
00000210: c3d2 bc3c 9d39 fa3c f7ef 81bd e717 1f3d
00000220: 4ca4 b83b 4d7d 61bd e9fb 413d d1ef 253d
00000230: 6d0b 22bd 5d66 7f3c 3ea7 53bc 413d 8fbd
00000240: 64fe 0f3d aa1b d6bc 6173 1ebd e1aa 823d
00000250: 6416 7bbc b8ad 58bd 4663 8d3c 0059 7e3c
00000260: 4a58 8d3c b77a a9bd c55d 5c3c 97c1 bebc
00000270: 84c7 36bc abff ae3d 41e7 68bd 775c 8abd
00000280: c4a3 08bd ba80 72bd 3430 c7bc 2752 ad3d
00000290: f3fc 653d 68cd 52bd 150b 82bd 647f d23b
000002a0: 27c9 24bc 5cc3 9cbc 1d78 99bd b151 d7bc
000002b0: 7050 a73d 8cdb 9f3c d2e1 073d 231d d0bc
000002c0: c948 3ebd 0c59 f5bc 9289 793c bc20 bd3c
000002d0: 07eb db3c 9bb4 933c 1e10 593d 9d43 833c
000002e0: 4f63 6f3d 08ca e73b efab 863d 7331 443d
000002f0: 8fef 36bd 7d6f d83c 3a17 b03d 8dc5 3f3d
00000300: d528 b1bd 5b79 b53d ed70 993d 6571 893d
00000310: 37dc 25bd 1607 a73d 8875 a7bd 29ab afbd
00000320: cbbb abbd 3dd4 383d 2f0e 08bc 3387 7d3c
00000330: fa1d 823d bcaa a03d 0704 4d3d 64b0 703d
00000340: b724 20bd d509 0d3d de44 8fbd d673 30bd
00000350: 0a3b 9d3d c515 353c 4356 453d f607 a93d
00000360: bc12 93bd d1fd 683d 585b 60bd bc02 a63d
00000370: f441 45bd 3bbf b03d 462c ccba 66cc aa3d
00000380: 9727 1fbd 2f81 713d 8525 59bd ed36 a83d
00000390: cda8 d3bc ad61 d5bc 49fa b9ba e0c4 4a3b
000003a0: 7c12 2ebd 74bd 233d 84fb 0cbc 2419 3fbb
000003b0: 6d3f 2dbd fc1a 733c d50a b4bd 5cef 113d
000003c0: a7b7 a0bd a78d 72bd 8e34 ab3c f047 8b3d
000003d0: 847f 0cbd 48ff f53b 30b2 773d 31d4 5e3d
000003e0: 44ce 9e3d 95fa 15bd ac5a 143d 13ed c8bc
000003f0: 8cbf c13b 3a38 7a3c d269 603d cc8c c7bc
0.0267672 0.046756543 -0.07095363 0.044309527 0.067097284 -0.07037946 0.034923617 0.061874967
-0.0067621865 0.03260872 -0.07318269 0.054693818 -0.063396774 -0.065603234 -0.05492703 0.019712657
-0.08636532 0.08320844 0.043835208 -0.029431734 -0.010914063 -0.010702073 -0.04869473 -0.013515693
-0.01752428 -0.079025745 0.055232663 -0.04655468 0.05117018 -0.07146245 0.03557998 0.0335597
0.010355291 0.029119605 -0.081920445 -0.017775489 -0.08181898 0.045605473 -0.0515703 -0.056110054
-0.08456103 -0.030166132 -0.038716886 -0.06747822 -0.03132086 0.012889636 0.008943266 0.033252273
0.031329554 0.035638407 -0.02596954 -0.06704141 -0.04331759 0.08761938 -0.06485049 -0.020465277
-0.07724776 -0.016299885 -0.023160663 -0.033521403 -0.08094608 0.08832705 0.035040457 -0.012219287
-0.017690107 0.046449598 -0.04909466 -0.023352757 0.01182768 0.086375035 -0.06567811 0.046424277
0.047866542 0.05262251 0.006801719 -0.012782402 0.04857614 -0.07894925 -0.023486776 -0.081590705
-0.020557726 0.048285242 0.06356136 -0.07570368 -0.055175357 0.003272273 0.03661539 -0.007242778
0.01981396 0.02834347 -0.06511079 -0.075332694 0.037514612 -0.0047780722 -0.0016480576 0.08347809
0.030763494 0.038199976 0.07547653 -0.06473299 -0.024905039 -0.0018352213 -0.013743446 0.025532927
0.05790344 0.03521032 0.011755734 5.0762086e-05 -0.016299397 0.015984003 -0.003952742 0.020069292
0.021982163 0.066198304 -0.07744484 -0.07786617 0.0014321688 -0.07580337 -0.018048313 0.01983809
-0.002335749 0.0062976214 -0.06882378 0.01664366 0.019897899 -0.051075984 0.0113035245 0.033210967
-0.070524886 0.02257069 -0.040559873 -0.03752808 0.023049718 0.03054505 -0.06344598 0.038841154
0.00563482 -0.055051137 0.04735938 0.04051191 -0.039561678 0.01558837 -0.012918292 -0.06994105
0.035154715 -0.026136238 -0.038684253 0.06380249 -0.015325163 -0.052900046 0.017259251 0.015524149
0.017254014 -0.08275359 0.013450091 -0.02328567 -0.011155967 0.085448585 -0.056861166 -0.067559175
-0.033359304 -0.059204794 -0.024314977 0.08462935 0.056149434 -0.051465422 -0.0634977 0.0064238776
-0.010057724 -0.019136123 -0.07493613 -0.02628407 0.08169639 0.019513868 0.033174343 -0.025404518
-0.046456132 -0.029949687 0.015230553 0.023086898 0.026845468 0.018030455 0.052993886 0.016023451
0.058444317 0.0070736445 0.065757625 0.04789872 -0.044662055 0.02642035 0.0859818 0.04681926
-0.08650366 0.08861037 0.07492242 0.067110814 -0.040493216 0.081556484 -0.08176714 -0.08577568
-0.08385428 0.04512428 -0.008304163 0.015474129 0.06353374 0.07845065 0.05005267 0.05876197
-0.039097514 0.034433205 -0.06995557 -0.04307922 0.076772764 0.011052554 0.04817797 0.082534716
-0.07181308 0.056882683 -0.054774612 0.0810599 -0.0481586 0.08630224 -0.0015577159 0.08339767
-0.038856115 0.05896109 -0.053014297 0.08213601 -0.025837326 -0.026047552 -0.0014188971 0.00309401
-0.042498097 0.0399756 -0.008604888 -0.0029159272 -0.042296816 0.014837977 -0.087911285 0.03562866
-0.07847529 -0.05921712 0.020899083 0.0680083 -0.034301296 0.0075072385 0.060472667 0.05440158
0.07754186 -0.036615927 0.036219284 -0.024527108 0.0059127267 0.0152721945 0.054788418 -0.02435913

layer.4.bias f4 [64]
00000000: 543d f8bc b2f4 f53c 8fe1 52bc 3cf5 653d
00000010: 6dd6 7e3c 4bdf a0bd 9915 a33d 5fb0 ac3d
00000020: 6801 813c d53c 2dbd e374 a7bd 4486 99bd
00000030: daca 973d fbd2 7d3d b4e8 903c 54f1 14bd
00000040: ff83 783c 05ef 973c 8621 b9bc 5488 983d
00000050: 0a76 79bd d4d8 a03d d0f5 8f3d df15 0ebd
00000060: 8805 a5bd 320c b2bd c0cf 1d3d 843b 413c
00000070: ec3a 74bd 84a6 833c f4fb b4bd 3d04 873d
00000080: 3661 68bc 8314 2d3c 24e9 abbd b10a 5d3d
00000090: 508e d1bb 2b83 203d 42fe a93d f405 833d
000000a0: efb2 b13d 2178 a03d b6a8 7bbc 6aa3 42bd
000000b0: fcd5 9b3d 9af4 05bd efdc 493d 6301 9a3d
000000c0: b9ee 68bd 0839 55ba ec4d 5ebd 17c3 963d
000000d0: c9d4 5abd 5e88 273d a356 733c c09b 94bd
000000e0: ef08 773d 4268 41bd f2e9 32bd f60b 97bc
000000f0: 20fb 5a3c cebf 0dbd 9a09 ff3c cdf7 d7bc
-0.030302681 0.030023906 -0.01287116 0.056142077 0.015554053 -0.0785509 0.07963104 0.084320776
0.01574774 -0.042294342 -0.08176591 -0.07496312 0.07411738 0.061968785 0.017689086 -0.03636296
0.015168189 0.01854659 -0.022598993 0.074478775 -0.060903586 0.07853857 0.07029307 -0.034688827
-0.080576956 -0.08693732 0.038528204 0.011793975 -0.059626505 0.016070612 -0.08837119 0.06592605
-0.014183333 0.010563972 -0.083940774 0.053965274 -0.006395139 0.03918759 0.08300449 0.0639762
0.08676707 0.07835413 -0.015360048 -0.047519125 0.07609174 -0.032703973 0.049282964 0.07519796
-0.05686829 -0.00081338035 -0.05427353 0.07361429 -0.053425584 0.040901534 0.014852199 -0.072562695
0.060311254 -0.04721857 -0.04368014 -0.01843832 0.013365537 -0.034606747 0.031132508 -0.026363278

layer.7.weight f4 [64]
00000000: 77be 7f3f 77be 7f3f 77be 7f3f 77be 7f3f
00000010: 77be 7f3f 77be 7f3f 77be 7f3f 77be 7f3f
00000020: 77be 7f3f c520 803f c520 803f 77be 7f3f
00000030: 77be 7f3f 77be 7f3f 77be 7f3f c520 803f
00000040: 77be 7f3f 77be 7f3f 77be 7f3f 77be 7f3f
00000050: 77be 7f3f 77be 7f3f 77be 7f3f 77be 7f3f
00000060: 77be 7f3f 77be 7f3f 77be 7f3f 77be 7f3f
00000070: 77be 7f3f 77be 7f3f 77be 7f3f 77be 7f3f
00000080: 77be 7f3f 77be 7f3f 77be 7f3f 77be 7f3f
00000090: c520 803f 77be 7f3f 77be 7f3f 77be 7f3f
000000a0: 77be 7f3f 77be 7f3f 77be 7f3f 77be 7f3f
000000b0: 77be 7f3f 77be 7f3f 77be 7f3f 77be 7f3f
000000c0: 77be 7f3f 77be 7f3f 77be 7f3f 77be 7f3f
000000d0: 77be 7f3f 77be 7f3f 77be 7f3f 77be 7f3f
000000e0: c520 803f 77be 7f3f 77be 7f3f 77be 7f3f
000000f0: 77be 7f3f 77be 7f3f 77be 7f3f 77be 7f3f
0.999 0.999 0.999 0.999 0.999 0.999 0.999 0.999
0.999 1.001 1.001 0.999 0.999 0.999 0.999 1.001
0.999 0.999 0.999 0.999 0.999 0.999 0.999 0.999
0.999 0.999 0.999 0.999 0.999 0.999 0.999 0.999
0.999 0.999 0.999 0.999 1.001 0.999 0.999 0.999
0.999 0.999 0.999 0.999 0.999 0.999 0.999 0.999
0.999 0.999 0.999 0.999 0.999 0.999 0.999 0.999
1.001 0.999 0.999 0.999 0.999 0.999 0.999 0.999

layer.7.bias f4 [64]
00000000: 6912 833a 6512 83ba 6d12 833a 6d12 83ba
00000010: 6112 833a 6a12 833a 6b12 833a 6b12 833a
00000020: 6712 833a 6b12 83ba 6d12 83ba 6c12 83ba
00000030: 6d12 833a 6b12 83ba 6d12 83ba 6c12 833a
00000040: 6b12 833a 6b12 833a 1f12 833a 6a12 833a
00000050: 6b12 833a 6712 83ba 6b12 833a 6b12 833a
00000060: 6d12 833a 3d12 83ba 4912 83ba 5a12 833a
00000070: 6b12 83ba 6312 83ba 6b12 83ba 6d12 833a
00000080: 6d12 833a 6d12 833a 6c12 83ba 6c12 83ba
00000090: 6612 83ba 6b12 83ba 6b12 833a 6a12 83ba
000000a0: 6812 833a 6d12 83ba 6912 833a 6c12 83ba
000000b0: 6312 833a 2712 833a 6c12 83ba 6d12 833a
000000c0: 6c12 83ba 6e12 83ba 6912 833a 6612 833a
000000d0: 6b12 83ba 5412 833a 6712 83ba 6d12 83ba
000000e0: 6b12 83ba 6c12 83ba 6b12 833a 6b12 83ba
000000f0: 6d12 83ba 5b12 83ba 6d12 833a 6d12 83ba
0.0009999993 -0.0009999989 0.0009999998 -0.0009999998 0.0009999984 0.0009999995 0.0009999996 0.0009999996
0.0009999991 -0.0009999996 -0.0009999998 -0.0009999997 0.0009999998 -0.0009999996 -0.0009999998 0.0009999997
0.0009999996 0.0009999996 0.0009999907 0.0009999995 0.0009999996 -0.0009999991 0.0009999996 0.0009999996
0.0009999998 -0.0009999942 -0.0009999956 0.0009999976 -0.0009999996 -0.0009999987 -0.0009999996 0.0009999998
0.0009999998 0.0009999998 -0.0009999997 -0.0009999997 -0.000999999 -0.0009999996 0.0009999996 -0.0009999995
0.0009999992 -0.0009999998 0.0009999993 -0.0009999997 0.0009999987 0.0009999917 -0.0009999997 0.0009999998
-0.0009999997 -0.0009999999 0.0009999993 0.000999999 -0.0009999996 0.0009999969 -0.0009999991 -0.0009999998
-0.0009999996 -0.0009999997 0.0009999996 -0.0009999996 -0.0009999998 -0.0009999977 0.0009999998 -0.0009999998

layer.7.running_mean f4 [64]
00000000: 63de 273d 7c49 3c3d 9c2f 343d f998 493d
00000010: ea46 483d cc59 263d 8fa3 703d 4caa 673d
00000020: 3a82 3d3d 8c42 1f3d c2c3 fb3c f823 1d3d
00000030: 803d 693d 9c48 523d b8c7 423d da79 183d
00000040: 5086 463d 4c25 463d 7991 2e3d dab8 603d
00000050: 280f 243d 7f78 523d f48b 693d 52a6 293d
00000060: 0ba7 193d 10ea 0c3d 70d3 4e3d 8adc 453d
00000070: 9906 323d 0a4c 3a3d dfc2 033d 8e0a 5f3d
00000080: e0e2 363d 524f 5f3d 5b9e 033d 9a63 4e3d
00000090: 22d3 443d 48b1 583d b6f7 723d de60 523d
000000a0: fa6e 613d 635a 5c3d 4c54 303d 3cc0 2a3d
000000b0: 484a 603d 817b 363d f41a 523d 380d 5b3d
000000c0: a651 093d eafa 323d 74ed 103d 2cc8 653d
000000d0: 5c75 133d e500 523d 3f38 413d b92f 013d
000000e0: e383 643d cf86 273d 0a86 063d edee 223d
000000f0: a83b 413d f76f 163d fb59 483d a68a 3b3d
0.04098357 0.045968518 0.043990716 0.04921815 0.048895754 0.04061298 0.05874973 0.056558892
0.04626677 0.038881823 0.030732993 0.03836438 0.056943417 0.051338777 0.047553748 0.03722558
0.048467934 0.048375413 0.042619202 0.05486379 0.040053517 0.051384445 0.057018235 0.04141838
0.03751282 0.034402907 0.05049461 0.048306026 0.043463323 0.045482673 0.032168265 0.054453425
0.04464996 0.054519005 0.03213344 0.050387956 0.048052914 0.052903444 0.059318267 0.05136191
0.055037476 0.053797137 0.04304914 0.041687235 0.05475834 0.044551376 0.051295236 0.053479403
0.03352513 0.04369632 0.035382703 0.056099102 0.036000594 0.051270384 0.04717278 0.031539652
0.05578984 0.040900048 0.032842673 0.03977864 0.047176033 0.03672787 0.048913937 0.045786522

layer.7.running_var f4 [64]
00000000: 8ca5 413f c2e9 423f 6194 413f 49c8 423f
00000010: d9cd 423f efed 403f e7e0 453f 888a 453f
00000020: 90a3 413f 262e 423f 7fd9 3f3f 9032 433f
00000030: 7fc6 453f d651 423f 6ba4 413f 3110 413f
00000040: 4ee7 423f 684d 423f 000b 423f 8396 433f
00000050: ff91 413f 8950 423f 5cc6 463f c216 413f
00000060: fe37 423f 4cb6 3f3f a0db 423f e3f1 423f
00000070: 19de 413f d708 463f 50b3 3f3f aa21 473f
00000080: 4f53 423f a260 443f 61a4 403f 874c 423f
00000090: ae68 423f 7c7e 433f ffb0 493f 0f4b 423f
000000a0: ade6 423f 94e5 423f 6383 413f 56c3 413f
000000b0: d820 443f d14f 413f 8dec 423f 8ab3 433f
000000c0: 7c35 403f 23dd 413f 7065 403f abef 423f
000000d0: 2daf 403f 2ca5 433f e17b 433f c6c7 3f3f
000000e0: 088f 443f 16a7 403f 7147 3f3f 83bd 403f
000000f0: 3e06 453f 3eb4 3f3f 8d47 433f 8c6e 423f
0.7564323 0.76137936 0.75617033 0.7608686 0.7609535 0.7536306 0.772963 0.77164507
0.756402 0.75851667 0.7494125 0.7624903 0.77256006 0.7590612 0.75641507 0.7541533
0.7613419 0.7589936 0.75798035 0.7640154 0.756134 0.75904137 0.7764642 0.7542535
0.7586669 0.7488754 0.7611637 0.7615034 0.7572952 0.7735724 0.74882984 0.7778574
0.7590837 0.7670995 0.7525082 0.7589802 0.7594098 0.76364875 0.787857 0.7589578
0.76133233 0.7613156 0.75591105 0.75688684 0.76612616 0.75512415 0.761422 0.7644583
0.7508161 0.7572805 0.7515478 0.76146954 0.752673 0.7642391 0.763609 0.74914205
0.7678075 0.7525495 0.74718386 0.7528917 0.7696265 0.748844 0.7628105 0.7594993

layer.8.weight f4 [32, 64]
00000000: 25c8 09bd 1f55 ab3c 0445 6e3c f881 a13d
00000010: 3f59 70bd c9c1 01bc a5b9 54bd 66ef 80bd
00000020: 3704 cebd 2e06 86bd 9183 e3bd d3c8 59bd
00000030: 8735 c43c ed1e 59bc df47 9abc e0c4 9a3d
00000040: 6ce6 8b3d da87 e23b ee98 9c3d 7151 703d
00000050: c04c 1cbd d5e6 d53d facd f33d 541c dfbd
00000060: fba2 f93b 5906 253d 680d f73d 7795 e53c
00000070: 2955 463d be28 47bd 2633 853d 70f8 a03d
00000080: fc22 8a3d 9b1f a7bd d00c 97bd b60b 83bd
00000090: 3556 6bbb aa37 963c f849 813d 3d97 4ebc
000000a0: 9540 223d 36d9 4c3d ad21 70bc a521 b9bd
000000b0: bfe9 c43c 926d e93c 433e 7c3c 3037 6d3b
000000c0: 7e92 be3d 3398 043d 2784 373d 53d5 413c
000000d0: 6aa0 f53d 2a78 b73d 270e 70bd 92ec df3d
000000e0: 8ac3 c6bd 8fb3 fabc b6bc bd3d 94a0 7c3c
000000f0: 0958 f4bc 5ca5 f0bc ba4e fabd 0981 273d
00000100: 9dc2 353d eb15 cbba 5fb2 07bd a18e 87bc
00000110: 5a24 f03d 70a5 a4bd 6e59 8c3d 7b29 dc3b
00000120: 1d07 16bd 992c 5e3d 1da5 633d c273 ccbd
00000130: 474e cfbc 57d1 153d 9e07 313c 5b42 abbb
00000140: 716e 5d3d 8eff d33d d8c8 9dbb da2e d1bd
00000150: 6605 c4bd 701f 8c3d 5a27 dd3d eebc e23d
00000160: b778 1cbd c9ab 21bd 8237 62bc 8216 293c
00000170: 5a42 d53d c8f9 cabd 3942 b5bc 48b2 f1bd
00000180: ed38 eeba cac0 fbbb b236 f73d 79b7 86bc
00000190: 6e51 f7bd 956c 9cba 869d a7bd 2c01 9fbd
000001a0: 13df 753d 231f 8a3d 46e9 dfbd 80a2 b03d
000001b0: e0bb 9f3d ceb5 2e3c 5eaf ab3d 8e61 d13d
000001c0: ce37 c33d 8ec2 853d f50c 4dbb 9371 143d
000001d0: db3b 683d 7627 9d3d 7437 edbd 9ec4 c73d
000001e0: 9e35 f13c 60d7 81bd d894 d4bd 318c cfbc
000001f0: ff91 79bd 33df 3d3d c4b1 9dbd ce75 dfbd
00000200: 09d8 a0bc a9a1 2abd d0db d93d 840d 3bbc
00000210: 5f61 69bd db97 97bd 5076 983d 3b1c 55bd
00000220: ea49 ed3d 043f b53d 1475 b2ba 3835 d43d
00000230: 07ea 1f3d f6df d53d 4743 d1bc 47ed 583d
00000240: 6214 d63d 52b7 e9bd 9df8 0f3c 66a2 a6bc
00000250: cce2 9abd 4783 503d bc56 e23d 2f23 d53c
00000260: a924 99bc 7b47 fdbd b5c2 153d 9b11 fc3b
00000270: 976e a0bc 81f0 363d 9c22 8fbd 1281 f5bd
00000280: 9320 eeba 7388 cbbd 8604 b93d 8d6a 6e3d
00000290: 1e81 c43d ba94 b6bd 6000 c9bd f635 67bb
000002a0: 7701 02bd 8c23 3abb 0f66 5bbd 0d67 59bd
000002b0: 1291 73bc 06c9 dcbd 359b 91bd 9e08 963c
000002c0: c733 f03d 3b3e 053d 416b 2fbd ad4a 2a3d
000002d0: 239f 6c3d 70cc efbd c8fc a53d 3db4 3c3c
000002e0: 1630 90bd 4e15 993d da6f c43d 6be3 d8ba
000002f0: aeb6 943d febc eabd 49b4 63bd 6e60 e03d
00000300: 5d2f 2ebd 1258 d83d 34cc bcbd 3a4d c83d
00000310: 02eb d7bd 0d9d 07bc bb2b 90bb 5eaa a63d
00000320: c9b5 30bd 45ce e93b a2cb fdbc 787a ccbd
00000330: 7e6a ad3d eed6 633c 8e27 443c 0f98 8cbc
00000340: e668 d0bd efca dabc 5e55 94bd 4ce6 a23d
00000350: 2230 bebd 7631 e73d f1a9 7f3d e65a d63d
00000360: 89a9 d73c 672b 4e3d 42c4 85bd 61bb f43c
00000370: 9c64 ccbd c732 03bc 5185 453d e140 473d
00000380: 2a51 f8bd 76bb f2bd 9447 d6bd d259 ebbd
00000390: 5648 d43d 3aab 903d a497 ec3d 5714 8c3c
000003a0: 114a 59bd e9fb 1a3d 6960 c4bc d699 eabd
000003b0: 99df fa3c 1b78 f53b 2e5c 86bd 4a5d 89bd
000003c0: 72cf 95bd a60d cf3d 7a1b 963d 7a48 d6bd
000003d0: 72af d3bd b98b db3c 8ef8 c53c 18c8 cf3d
000003e0: 522f 953d 6fcd 0b3d 18fc b53d 475b 1c3d
000003f0: 69e0 413d 68d9 a6bd c68a edbd 910d 77bd
-0.03363814 0.020914612 0.014542822 0.07886118 -0.05867886 -0.007919737 -0.051934857 -0.06295662
-0.10059398 -0.065441474 -0.11109079 -0.053170037 0.023951305 -0.013252002 -0.018833099 0.07557082
0.06831059 0.0069131674 0.076463565 0.05867142 -0.038159132 0.10444418 0.11904521 -0.10894075
0.0076183057 0.040289257 0.12063104 0.028025372 0.04842106 -0.04862284 0.065038964 0.07859886
0.06744954 -0.08160325 -0.07375491 -0.06398718 -0.0035909538 0.01833709 0.063129365 -0.0126093
0.03961237 0.050011836 -0.014656466 -0.0903962 0.02403724 0.02849463 0.015395704 0.0036196224
0.09305285 0.03237171 0.044803765 0.011830646 0.11993487 0.08958466 -0.058607247 0.10933794
-0.09705265 -0.030603198 0.092645094 0.015419144 -0.029827135 -0.029375724 -0.12222047 0.040894542
0.04437505 -0.0015494203 -0.033129092 -0.016547503 0.117256835 -0.08039367 0.06852995 0.006718812
-0.036627878 0.05424175 0.055577386 -0.099830166 -0.02530588 0.036576595 0.010805039 -0.005226416
0.054060403 0.103514776 -0.004815202 -0.10214014 -0.09571342 0.06841934 0.10798521 0.11071192
-0.03820106 -0.039470468 -0.013807179 0.010320308 0.10413046 -0.09910923 -0.022126304 -0.118015826
-0.0018174924 -0.0076828944 0.12070979 -0.016444908 -0.12076078 -0.0011934215 -0.08184342 -0.077638954
0.060027193 0.0674422 -0.10933165 0.086247444 0.07799506 0.010663463 0.08383058 0.10223685
0.09532128 0.06531249 -0.003128824 0.036241125 0.056697708 0.07673542 -0.115828425 0.097542986
0.029444512 -0.06339908 -0.10379952 -0.025335403 -0.06093025 0.046355437 -0.07699922 -0.10911141
-0.019634264 -0.041658077 0.10637629 -0.011416797 -0.056977626 -0.07402011 0.07444441 -0.052028876
0.115863636 0.0884991 -0.0013615214 0.10361713 0.039041545 0.10443108 -0.025544776 0.05296066
0.104531065 -0.11411919 0.008787301 -0.02034111 -0.07562789 0.050906446 0.110516995 0.026017753
-0.018694239 -0.123671494 0.03656264 0.0076925284 -0.019583983 0.044662956 -0.06989023 -0.11987509
-0.0018167667 -0.09938135 0.09034066 0.058207083 0.0959494 -0.08915086 -0.09814525 -0.0035279966
-0.03173968 -0.0028402535 -0.053564128 -0.053076793 -0.01486613 -0.1078053 -0.071096815 0.018314656
0.11728626 0.03253005 -0.042826895 0.041575123 0.057768952 -0.11708915 0.08104855 0.0115175815
-0.07040422 0.07474767 0.095916465 -0.0016547268 0.07261406 -0.11461829 -0.055591855 0.109558925
-0.042525638 0.10563673 -0.09218636 0.09780355 -0.10542871 -0.00827719 -0.0043997443 0.08137964
-0.043142114 0.007135185 -0.030980889 -0.099842966 0.084675774 0.013906224 0.011972321 -0.017162351
-0.10176258 -0.026708094 -0.07242845 0.07954082 -0.09286524 0.11288731 0.062417928 0.10466556
0.026325958 0.05033436 -0.06531574 0.029874505 -0.09980127 -0.008007712 0.048222844 0.048645858
-0.12124856 -0.118521616 -0.10462871 -0.11491741 0.103653595 0.07063909 0.11552361 0.017099543
-0.05304915 0.037837896 -0.023971753 -0.11455123 0.030624198 0.0074911243 -0.06560551 -0.067072466
-0.07314958 0.10110025 0.073294595 -0.104630426 -0.10336198 0.026800023 0.024166372 0.10145587
0.07284416 0.034131464 0.08885974 0.038172986 0.047333155 -0.08146936 -0.115987346 -0.060315672

layer.8.bias f4 [32]
00000000: 4237 9fbc 4c08 e4bd 9fd9 4abd cab4 1a3b
00000010: 29ef d53c b4a2 fa3d 9f5b 42bd 1c17 87bd
00000020: 843d c2bd 0419 e4bd 9758 493d 7a35 b63d
00000030: f130 5d3d 6dfb 94ba 85c1 433d 2060 9f3d
00000040: bdd2 ac3c c4ad a53d bdef 2c3d 81b1 e3bd
00000050: 1ae3 9bbc a3ab 3abd f05d 0bbb 4614 d4bd
00000060: 97ae 1ebd 8812 eb3d 2c94 a4bd 2122 3d3d
00000070: 5eb6 c5bd 140c 8dbd fdbe 1d3d aff8 febc
-0.019435529 -0.11134395 -0.049523946 0.0023606294 0.026115017 0.122380644 -0.047450658 -0.06596205
-0.094843894 -0.11137584 0.04915675 0.088969186 0.054001752 -0.0011366435 0.047791976 0.07782006
0.021096582 0.08089784 0.04222082 -0.111178406 -0.019029189 -0.04557384 -0.0021265708 -0.10355429
-0.03874072 0.11478144 -0.08036074 0.046175126 -0.096539244 -0.06887069 0.03851222 -0.031124441

layer.11.weight f4 [1, 32]
00000000: 8a44 083d 8fb4 debd 7c05 c03d 4b32 f8bd
00000010: 3abf 143e 5bde a73d 8025 2e3e fc8d c03d
00000020: d5ba f3bd d26c 233e fadb 4abd bd21 193e
00000030: 2804 81bc d56a a73d 5fdf 363d 5449 0e3e
00000040: 4a0e 3dbc 0a31 16be 20d4 903d e717 833a
00000050: 0657 953d d96b 94bd 6937 da3d 88b1 30bd
00000060: a9c5 d13c 4ab3 243e 2a98 77bd c7d9 153e
00000070: 1939 13be 0c82 a7bd 811d 0b3e 41ce ed3d
0.03326849 -0.108742826 0.09376046 -0.121189676 0.14526072 0.08196708 0.17006493 0.09402081
-0.1190087 0.1595948 -0.049526192 0.14954276 -0.015749052 0.081746735 0.044646617 0.1389516
-0.011539051 -0.14667144 0.0707171 0.001000163 0.07291989 -0.07247133 0.106551 -0.043138057
0.025606947 0.16084018 -0.06044785 0.14633857 -0.1437725 -0.08179101 0.13585474 0.116116054
