src/models/v3/pretrained_models/silverstone_model_v3.pt (torch, 63253 bytes, 15 tensors)

layer.0.weight f4 [128, 21]
00000000: 52d5 4bbe 3b1b e0ba 46a8 5c3e d069 523e
00000010: 42ad f23d 4ec2 23be e1d0 d83d 2b64 d8bd
00000020: fd81 21be a4eb 9b3d 7cb2 52be 1b30 413e
00000030: 7089 aa3c ffd2 723d 5de4 1b3e a7f5 763b
00000040: c019 5e3e 1ce3 35be 0c7f 20bc ed43 53be
00000050: d911 233d 302d 2c3e b4b2 4e3e 9a49 eebd
00000060: 0846 3f3e 599c f8bd 87a6 173d 7495 5bbd
00000070: 92ff 4f3c 2401 0cbd 139e 09bd 9a54 e9bb
00000080: 04b1 9bbd d9ff 7c3d de9c 2dbe e6b2 12bd
00000090: 754c 89bd 0927 c53d 8e14 31be 3a04 3bbe
000000a0: 0a52 583e f9f5 e13d ebb8 07be dc48 de3d
000000b0: 6f15 dcbd eeb6 1e3e 040c 3bbe 4d6d 003e
000000c0: db53 01be ff20 ffbc 84ea 18be 5ef3 a53d
000000d0: 1240 303e c70f f03c 0e37 53be c4f7 2cbd
000000e0: 6b7d 243e b298 a6bd 4b56 a9b7 bc82 0d3d
000000f0: 640a 203e a9b4 bebd 3155 0cbe 1b93 dabd
00000100: ea45 023e 41b9 4d3c b3c6 54be 8339 c53a
00000110: 41b5 3c3e 0d32 f5bd 488b 1cbb 800a a63d
00000120: 677e ae3d 53cb 833c b882 813d 95c5 f8bd
00000130: 923d 01bd 532f 493d 8e51 d23d 51c5 53bd
00000140: b15c 50bd 8038 b4bc e895 493e 6e57 9bbc
00000150: a84c d3bc 2a02 ecbd 958b 053d 93da bcbd
00000160: d8dc 3a3e 92dd f93d 066b b93d 9c76 bd3d
00000170: 9caa d4b9 6203 2c3e 8762 983c 0fad 903d
00000180: 619e 0fbe 9e64 363b e0e8 94bd 9e39 68bd
00000190: 9b85 4e3e f01a 06bd 9964 b93d 4b5f 673e
000001a0: 4da6 bdbd 33c3 473d 58a8 07bc dad5 44be
000001b0: 5ca7 913d db81 b7bc 6a88 0a3e ca20 5dbb
000001c0: 619b 1d3d 3273 333e 3232 1ebe 3f1f 2e3e
000001d0: 74b0 823d df60 18bd e730 5abe 1c34 51be
000001e0: 24d2 083d 419f d0bc 1b0b 69bd f39b 3abe
000001f0: 23bc 1a3e 1d59 4abe fd91 1dbd 2983 5b3e
00000200: 2109 203d 348d f73c a793 6b3d e0cc 023e
00000210: b9a1 ca3d 1e41 a43d ecc5 c93a eb8c 8a3c
00000220: 86f5 94bc 5406 26be 5e9a b5bd 5a4b d13d
00000230: 8781 a1bb 100a 383d 1a5b cebd 3b4b a5bd
00000240: dd38 0ebd a2d6 21bc 86ba f33d b13c 31bd
00000250: 815d d2bd 04ca 163e 90cb 6c3d 3fe4 0ebe
00000260: b6ed bcbd da93 5abd 6484 6cbd 2e69 e43d
00000270: 7ba3 26be b08e 87bd 5b28 4a3e 06ec e53c
00000280: a72a 4cbd 8ebb 473e 48ff 363e 345b a7bd
00000290: 43e8 8d3b 5243 c23d 510f a1bd 8113 ebbc
000002a0: 20bf 393e e43e a8bd ffe8 b0bd 15fa 2cbe
000002b0: c07a f8bd 7634 3cbe 769e 123e e2f7 513e
000002c0: d309 28bd 9d46 823d 5723 0b3c 602b 8bbd
000002d0: 12a9 ffbd c395 27be ee29 52be 36f7 b2bd
000002e0: 5184 ebbd 255a b8bd 73e0 1dbe 56d4 083e
000002f0: 9305 0c3e 30d0 69bc cfb8 6abd a504 ac3c
00000300: e3f8 dfbd 05a9 1abc b8d7 0cbe 8806 4d3e
00000310: 93f8 f1bd 8ac5 2fbd 3356 0c3e eb81 52be
00000320: 17ec d839 09a9 a63c 6101 863b e582 8e3d
00000330: bb57 1b3e a637 c3bd 19f8 bc3d 6126 25be
00000340: 0c11 4bbe e638 d1bd c6c7 5bbd cb70 2c3e
00000350: 5d71 14bd e4a5 203c 08e3 efbd 41c3 57be
00000360: 023b d73d 6513 1f3e a26b 83bc 775c 2bbe
00000370: 6d22 0bbe dddd 27be 11c1 40bd 8cb7 ec3d
00000380: de74 20be 9b29 02be 17c8 d6bd db3d cfbd
00000390: c6b0 50be a7db 4cbd a4f8 963d 694e 6e3d
000003a0: 2f2e 973d 1d4f 0dbe 02a0 05be 1fa1 5e3c
000003b0: 37d0 f8bd 8ca9 8a3b c033 e53d 5a9e 33be
000003c0: 630f 173e be30 9b3d c8e5 a9bb 6d5c ae3d
000003d0: 8218 50bd 4654 e63d 8081 52be e0ce 023d
000003e0: 2e4d ebbd fad0 1abe 3c13 393d 886a 37be
000003f0: d009 c2bd 9d22 31be fe4a f23d d7b4 31be
-0.19905594 -0.0017097959 0.21548566 0.20548177 0.118494526 -0.1599209 0.105867155 -0.105659805
-0.15772243 0.07613304 -0.20575899 0.18866007 0.020817488 0.059283253 0.15223832 0.0037683041
0.2168951 -0.17762417 -0.009795915 -0.2063138 0.039811943 0.16814113 0.20185357 -0.11635132
0.18679059 -0.12139196 0.037024047 -0.053609326 0.01269521 -0.034180775 -0.033598017 -0.007120681
-0.076021224 0.061767433 -0.16954371 -0.035815142 -0.06704036 0.09626586 -0.17292997 -0.18263331
0.21125045 0.11033244 -0.13254134 0.108537406 -0.10746276 0.1549947 -0.18266302 0.12541695
-0.12629645 -0.031143663 -0.1493321 0.08103059 0.17211941 0.029304398 -0.2062647 -0.042228475
0.16063468 -0.08134593 -2.0186553e-05 0.034548506 0.15628964 -0.09311802 -0.13704373 -0.106725894
0.12721983 0.012556375 -0.20778923 0.0015047047 0.18428518 -0.11972437 -0.002388673 0.081074715
0.08520203 0.016088163 0.06323761 -0.12147061 -0.03155286 0.049117398 0.102694616 -0.051701847
-0.050869647 -0.021999598 0.19686091 -0.018962588 -0.025793388 -0.1152385 0.03260382 -0.09221377
0.18248308 0.12200464 0.09053616 0.092511386 -0.00040562905 0.16798165 0.018601669 0.07064258
-0.1402526 0.0027830969 -0.0727098 -0.056695573 0.20168154 -0.032740533 0.090523906 0.22594945
-0.09260235 0.04877014 -0.008279882 -0.19222203 0.071119994 -0.022400787 0.135286 -0.0033741468
0.03847826 0.17524412 -0.15448835 0.17004107 0.06381312 -0.03720176 -0.21307717 -0.20430034
0.03340353 -0.025466563 -0.056895357 -0.18223552 0.15110831 -0.19760557 -0.038469303 0.21436752
0.039071206 0.030218698 0.05751386 0.12773466 0.098941274 0.080202326 0.0015394068 0.016912898
-0.018183481 -0.16213351 -0.08867334 0.1021945 -0.004928771 0.04493147 -0.1007597 -0.0807099
-0.034722198 -0.009877833 0.11900811 -0.04327077 -0.10271741 0.147255 0.05781132 -0.13954256
-0.09225027 -0.05336366 -0.057743445 0.11152874 -0.162733 -0.06619012 0.19741957 0.028066646
-0.049845364 0.1950514 0.1787082 -0.081716925 0.0043306663 0.094854966 -0.078642495 -0.028695824
0.18139315 -0.082151204 -0.086381905 -0.16892274 -0.12132788 -0.18379387 0.1431826 0.20504716
-0.041024994 0.06361125 0.008492312 -0.067953825 -0.124834195 -0.16365723 -0.20523807 -0.08738558
-0.11499847 -0.09001569 -0.15417652 0.1336225 0.13674001 -0.014270827 -0.057305153 0.020998308
-0.10936143 -0.009439711 -0.13754165 0.20022023 -0.1181499 -0.042912997 0.13704757 -0.20557372
0.0004137463 0.020344274 0.00408952 0.0695856 0.15170185 -0.095320985 0.092270084 -0.16127922
-0.19830722 -0.10215931 -0.053657316 0.16839902 -0.036240924 0.009805176 -0.11713225 -0.21070577
0.10509302 0.15534742 -0.016042534 -0.16734491 -0.13587351 -0.16393228 -0.047059122 0.11558446
-0.15669581 -0.12711184 -0.10487383 -0.1011922 -0.20379934 -0.050014164 0.07371643 0.058180247
0.07381856 -0.1379971 -0.1304932 0.013588219 -0.12149089 0.0042316373 0.11191511 -0.17540875
0.14751963 0.07577656 -0.0051848628 0.085137226 -0.050804622 0.11246543 -0.20557213 0.031935573
-0.1148933 -0.1511878 0.04518436 -0.17911732 -0.09474528 -0.1729836 0.1183071 -0.17354141

layer.0.bias f4 [128]
00000000: d6db 343c 56d2 c43d db9b d3bd 2461 2c3e
00000010: 3388 52be c87f 04be ea84 f6bd 2d94 2cbd
00000020: ecdb ec3d ef34 a13c 8988 debd 1225 2ebd
00000030: 3a66 f2bd dd5f bc3d 1273 8fbd 50d5 97bd
00000040: 8884 193e 4bef 0c3e e890 1abe 00f1 e5bd
00000050: f201 0b3e 52d9 18bd 9a8c 983d 7252 eebc
00000060: c666 f5bd 3116 a53d a2e4 073e 0f8d b7bd
00000070: 8e70 32be 960f 2ebc c8d8 633e e9bf fc3d
00000080: 8246 453e fff0 23be fea2 dfbc beda 063d
00000090: 5029 483e c23d d03b 0380 35bd b9c1 f43d
000000a0: 2b65 9ebd d32f 273e c619 f0bd a9e7 3dbe
000000b0: 9a90 263e cb0d 1cbd b7fe c6bd 58b5 13bc
000000c0: 75bd 243e 9429 e43d f4e1 c93d 8215 bbbd
000000d0: ada5 f53c b6b0 61be f88b f13a 568a 703d
000000e0: ffdc 8ebb 150d 01bd 3ac5 083e ccbc e73d
000000f0: 4968 f73d bd2a 2cbe 5822 393d da59 de3d
00000100: 6f1d 153e 2459 543e 5b64 9cbd a889 4cbd
00000110: c6d2 bf3c 1605 19bd 1f5a 163e d921 31be
00000120: b1aa 2c3e 0dc8 3fbe 13b2 2c3d 12aa 46be
00000130: 9fc6 253e 572f 1e3e 4be6 3abd bba0 22bd
00000140: 33c9 26be a61f 1fbe f60d 11be 5542 413e
00000150: c921 553e e65f 5ebe a9f3 89bd 154e a1bc
00000160: 0431 e33d fa3e 1fbe ff94 433e 0fb6 273e
00000170: aa5e f0bc d432 4e3e 6d6d 32bd 5f7e 20be
00000180: 0818 483e 1c64 40be eb93 00be 7418 103d
00000190: 65f5 b03d 34b6 543c 9daf 933d 57db 4c3d
000001a0: 1c0c 5a3e 93e5 18be 897a 54bc b2c7 47be
000001b0: c233 513e 2e0f 7dbc 13f4 40be a9b1 52bd
000001c0: 7f91 41be 7f1a 02be 7aac bfba 57c0 3d3d
000001d0: 5492 28be f454 733d 7c2b e6bd 4107 f43c
000001e0: 507a 383e 204b be3c e246 ccbd 1e54 4abe
000001f0: fcdc 543e 8548 253e f6f1 c4bc 8b0d 29be
0.011038741 0.09610431 -0.103324614 0.16833931 -0.20559768 -0.1293937 -0.1203707 -0.0421335
0.11565384 0.019678561 -0.10865886 -0.04251582 -0.118359044 0.09197972 -0.0700437 -0.07413733
0.14991963 0.13763158 -0.1509434 -0.11227608 0.13574961 -0.037316628 0.074486926 -0.029092047
-0.11982493 0.08060873 0.1327081 -0.08962452 -0.17425749 -0.010623833 0.22250664 0.123412915
0.19265178 -0.16009901 -0.0272994 0.032923453 0.1954701 0.0063550184 -0.044311535 0.11951012
-0.0773414 0.16326837 -0.11723666 -0.18545403 0.16266099 -0.03809909 -0.09716552 -0.009015404
0.16087897 0.11140743 0.0985755 -0.09134962 0.029986227 -0.22040066 0.0018428555 0.058725677
-0.004359841 -0.031506617 0.13356486 0.11315307 0.12080438 -0.16813178 0.04519877 0.108569816
0.1456201 0.2073713 -0.07636329 -0.049935967 0.023415934 -0.037358366 0.14682816 -0.17298068
0.16861989 -0.18728657 0.042162012 -0.19400814 0.16189049 0.15447746 -0.04562978 -0.039704066
-0.16287689 -0.15539417 -0.14165482 0.1887296 0.2081367 -0.2171627 -0.067359276 -0.019690553
0.11093333 -0.15551367 0.19099806 0.16378044 -0.029342014 0.20136577 -0.043561388 -0.15673207
0.19540417 -0.18788189 -0.12556426 0.03517957 0.08640555 0.012982894 0.0721123 0.050013866
0.21293682 -0.14931326 -0.012968668 -0.19509771 0.204299 -0.015445514 -0.18843107 -0.05143896
-0.18903159 -0.1270542 -0.0014623546 0.046326008 -0.1646207 0.05940719 -0.11238763 0.029788615
0.18015409 0.023229182 -0.09974457 -0.1975865 0.20787424 0.16140945 -0.024041157 -0.16509072

layer.3.weight f4 [128]
00000000: 0000 803f 59a1 7f3f 0000 803f 0000 803f
00000010: 39a6 803f f545 813f 0000 803f 46ba 7d3f
00000020: 736d 7e3f 0000 803f 0000 803f 1d42 813f
00000030: 0000 803f 4570 803f 0000 803f 0000 803f
00000040: fd91 7d3f 0000 803f 0000 803f cc1d 7f3f
00000050: 20e3 803f 2ec4 7e3f 2db1 7f3f 9222 813f
00000060: eaf7 803f c340 803f 7e67 803f e3bc 7d3f
00000070: 0000 803f 8d55 7f3f 1da1 7d3f 0000 803f
00000080: 8d53 803f 0000 803f 0000 803f 2d4e 7e3f
00000090: 0000 803f 0000 803f 8f1f 813f 0000 803f
000000a0: 0000 803f 321c 803f 25d6 7d3f e0c7 7d3f
000000b0: 13a5 7f3f d6a7 7d3f 9a98 803f 0000 803f
000000c0: 8a34 7f3f 0000 803f 20f6 803f 0000 803f
000000d0: 583d 803f c8db 7f3f 0000 803f 0000 803f
000000e0: 0e30 813f 13f8 7d3f 0000 803f 0000 803f
000000f0: 0195 7e3f 0000 803f 744a 813f 0000 803f
00000100: 6940 813f 0000 803f 0d82 803f 0000 803f
00000110: 0000 803f 0000 803f 4fa8 803f 0000 803f
00000120: 6edf 7d3f c3b6 803f 0000 803f c245 813f
00000130: 0000 803f fcc0 7e3f 0000 803f 15c1 803f
00000140: 0f81 7f3f d539 803f 0000 803f 0000 803f
00000150: 0000 803f 0000 803f 0000 803f 0000 803f
00000160: 2343 813f 0000 803f 0000 803f d91c 7e3f
00000170: 0000 803f 0000 803f 0000 803f 0000 803f
00000180: 0000 803f 0b70 7f3f c4eb 7e3f 0000 803f
00000190: 53ac 7d3f 0000 803f 0000 803f 7189 7e3f
000001a0: 0000 803f 0000 803f 4d1f 803f 08b4 7d3f
000001b0: b7a2 7d3f e5fc 7d3f a9ff 7d3f fe3e 7f3f
000001c0: 6ff2 803f 0000 803f 0000 803f 8bb3 7f3f
000001d0: 0000 803f 3d33 7e3f 2eaf 7f3f 0000 803f
000001e0: 0000 803f 0000 803f 0000 803f 0000 803f
000001f0: 0000 803f 0000 803f 7e8c 803f f6bf 7d3f
1.0 0.9985557 1.0 1.0 1.0050727 1.0099474 1.0 0.99112356
0.99385756 1.0 1.0 1.0098301 1.0 1.0034262 1.0 1.0
0.99050885 1.0 1.0 0.9965484 1.0069313 0.99518096 0.99879724 1.0088675
1.0075657 1.0019764 1.0031583 0.99116343 1.0 0.99739915 0.99073964 1.0
1.0025498 1.0 1.0 0.99338037 1.0 1.0 1.0087756 1.0
1.0 1.0008605 0.99154884 0.9913311 0.9986126 0.9908422 1.004657 1.0
0.99689543 1.0 1.0075111 1.0 1.0018721 0.99944735 1.0 1.0
1.009279 0.99206656 1.0 1.0 0.9944611 1.0 1.0100846 1.0
1.0097781 1.0 1.0039688 1.0 1.0 1.0 1.0051364 1.0
0.9916905 1.0055774 1.0 1.0099413 1.0 0.9951322 1.0 1.0058924
0.998063 1.0017649 1.0 1.0 1.0 1.0 1.0 1.0
1.0098614 1.0 1.0 0.9926277 1.0 1.0 1.0 1.0
1.0 0.9978034 0.995785 1.0 0.9909107 1.0 1.0 0.9942847
1.0 1.0 1.0009552 0.9910283 0.9907641 0.9921401 0.9921823 0.99705493
1.0073985 1.0 1.0 0.99883336 1.0 0.99296933 0.9987668 1.0
1.0 1.0 1.0 1.0 1.0 1.0 1.0042875 0.99121034

layer.3.bias f4 [128]
00000000: dab6 993a db79 073b 8e6e 6d3b 0c26 5a3b
00000010: bb49 833a 1b3b 05bb 55e2 153a a0c0 b43b
00000020: f9fb bd3b dd0b 223a 8307 e73b 6abb 073b
00000030: d91d b73b 2c60 b03b 47e0 84bb 0b14 45bb
00000040: b84c aeba 47d8 893b 1e10 343a af0d 753a
00000050: ae48 0ebc 1cda 14bb 5075 933b ce86 e73a
00000060: 4b19 98bb d239 fabb 9539 47bb 2ade 013c
00000070: a24f d7ba 17f9 c03b eaaa f0bb 7cdc 933a
00000080: 518f bbb9 5068 40bb f907 eabb ae28 35ba
00000090: d38d daba 4466 5539 9076 a33a 3a7a 4cbb
000000a0: 721d 15bc 3cc9 48ba 30c6 be3b 48fc cf3b
000000b0: da61 3e3a a4a8 ddbb c245 a3bb 49a8 9bbb
000000c0: b743 9739 d072 033b 1b3d a83b 4173 e7bb
000000d0: c1b0 4b3b 2393 8dba 2364 c9bb 8cfa 293b
000000e0: 06ea 963b 187e 75bb ede5 d8bb f196 77bb
000000f0: 8883 cf3b 5f2c ccbb ca1e ebbb bead 18ba
00000100: 0530 e3bb 29f2 c8bb 48aa 493b aa09 093b
00000110: 9637 fcbb 49fe 0c3a b281 2f3b c5ae a0bb
00000120: 153e 7c3b 37bf 333a c735 eebb f2e4 323b
00000130: 1324 d5bb 015e ad3b c969 f23a 7b92 b4bb
00000140: 4d29 9db7 20e3 113b a9ec 87bb ad33 50bb
00000150: 4106 ed3b dc61 393a b3c8 d03b e8e1 6f3b
00000160: 6543 f33b bde8 2c3b 65e4 a1bb 805a 14ba
00000170: bcc7 b73a 369f c63b d4d0 a1ba 3ab5 2b3b
00000180: f589 a6bb d069 00bc 211e 2abb 5a84 19bb
00000190: 30ae eaba f202 e93a 7578 dd3a dc5e cf3b
000001a0: 6280 eb3b f790 6d3b 99b9 203b 3c26 32bb
000001b0: d170 31bb cb21 6cbb 4b91 8abb 59e2 263b
000001c0: 7cdd cabb a181 3738 f281 34bb 0126 1bbb
000001d0: 31ea d3bb af4a 8cb9 8069 e43a 0366 043b
000001e0: b8de 5d3b 3d7a 3a3b b1f0 ea3b 8f72 3ebb
000001f0: 4c14 a13b f268 a83b 5b1c 84bb 0646 da3b
0.0011727468 0.0020671997 0.0036229226 0.0033286838 0.001001648 -0.002032942 0.0005717625 0.0055161268
0.0057978597 0.00061815773 0.007050456 0.0020711073 0.005588275 0.0053825583 -0.0040550563 -0.003007176
-0.001329801 0.0042066905 0.0006868857 0.00093480473 -0.00868432 -0.002271301 0.0045000687 0.0017664076
-0.004641687 -0.0076362872 -0.0030399312 0.007926503 -0.0016426931 0.005889069 -0.0073445933 0.001128092
-0.00035774198 -0.002935905 -0.0071420637 -0.0006910664 -0.0016674347 0.0002035136 0.0012471247 -0.0031200782
-0.009101259 -0.0007659381 0.0058219656 0.006347213 0.0007262506 -0.0067644883 -0.004982681 -0.0047502858
0.00028851416 0.0020057447 0.0051342375 -0.0070633 0.0031080695 -0.0010801296 -0.0061459704 0.002593669
0.0046055345 -0.003745919 -0.006619206 -0.0037779177 0.0063328184 -0.0062308754 -0.007175301 -0.00058242294
-0.0069332146 -0.0061323834 0.0030771662 0.0020910301 -0.007697056 0.00053784676 0.0026780185 -0.0049036467
0.0038489152 0.00068568013 -0.0072695944 0.0027297107 -0.0065045445 0.005290747 0.0018494661 -0.005510626
-1.873509e-05 0.0022260621 -0.004148085 -0.0031769082 0.0072334115 0.0007071772 0.0063715815 0.0036603156
0.0074238055 0.002638384 -0.004940557 -0.00056592375 0.0014021317 0.00606146 -0.0012345561 0.0026200549
-0.0050823637 -0.007837728 -0.00259579 -0.0023424835 -0.0017904695 0.0017777367 0.0016896861 0.006328447
0.0071869353 0.0036249736 0.0024524687 -0.0027183434 -0.00270753 -0.0036030884 -0.004228746 0.0025464504
-0.006190954 4.3751326e-05 -0.0027543274 -0.0023673775 -0.006467127 -0.00026758524 0.0017426461 0.0020202405
0.0033854675 0.0028454207 0.007169806 -0.0029059981 0.0049157497 0.0051394636 -0.0040317005 0.0066611795

layer.3.running_mean f4 [128]
00000000: 0000 0000 722e 9843 0000 0000 0000 0000
00000010: 5911 513f f82c 8c42 0000 0000 a932 8f3d
00000020: ee07 a543 0000 0000 0000 0000 696d bf42
00000030: 0000 0000 5e51 a043 0000 0000 0000 0000
00000040: f50d ab42 0000 0000 0000 0000 1239 ac43
00000050: c499 2841 c40e 8b43 efff c043 e3f8 2740
00000060: 1291 313f cf5f f141 a858 8e43 22dd 8e42
00000070: 0000 0000 d8d9 8743 570d 2142 0000 0000
00000080: dd19 bb43 0000 0000 0000 0000 badc b842
00000090: 0000 0000 0000 0000 dec8 4940 0000 0000
000000a0: 0000 0000 d867 b443 2076 9f42 50b6 5743
000000b0: 0cd2 3643 9639 bc43 75e0 7143 0000 0000
000000c0: 21f5 7643 0000 0000 8a45 6b43 0000 0000
000000d0: 2144 b243 d30d 9643 0000 0000 0000 0000
000000e0: 43ea e642 be26 b242 0000 0000 0000 0000
000000f0: 6be8 8342 0000 0000 9c2b 9e41 0000 0000
00000100: aa41 8542 0000 0000 9d12 4443 0000 0000
00000110: 0000 0000 0000 0000 6ba1 7242 0000 0000
00000120: f391 9543 86c0 3e43 0000 0000 4882 d140
00000130: 0000 0000 cdb8 7c43 0000 0000 1dee 4743
00000140: 1777 3243 a63a 6243 0000 0000 0000 0000
00000150: 0000 0000 0000 0000 0000 0000 0000 0000
00000160: 0f56 2742 0000 0000 0000 0000 3b39 7c43
00000170: 0000 0000 0000 0000 0000 0000 0000 0000
00000180: 0000 0000 2633 6543 5e3e 1c43 0000 0000
00000190: fb89 d13e 0000 0000 0000 0000 2535 c142
000001a0: 0000 0000 0000 0000 6996 5843 9b87 9041
000001b0: 97c7 8943 5f41 ba43 4564 d143 5638 c143
000001c0: bd6d e142 0000 0000 0000 0000 a269 9e42
000001d0: 0000 0000 ab34 bd43 0e06 6143 0000 0000
000001e0: 0000 0000 0000 0000 0000 0000 0000 0000
000001f0: 0000 0000 0000 0000 04e7 2943 dd6d 5543
0.0 304.36285 0.0 0.0 0.81667095 70.08783 0.0 0.069920845
330.06195 0.0 0.0 95.71369 0.0 320.63568 0.0 0.0
85.52726 0.0 0.0 344.44586 10.53754 278.11536 385.99948 2.6245658
0.69361985 30.171782 284.69263 71.4319 0.0 271.7019 40.263027 0.0
374.20206 0.0 0.0 92.43111 0.0 0.0 3.152885 0.0
0.0 360.81128 79.73071 215.71216 182.8205 376.4499 241.87679 0.0
246.95753 0.0 235.27164 0.0 356.53226 300.108 0.0 0.0
115.45754 89.07567 0.0 0.0 65.95394 0.0 19.771294 0.0
66.62825 0.0 196.07271 0.0 0.0 0.0 60.657635 0.0
299.14023 190.75204 0.0 6.5471535 0.0 252.72188 0.0 199.93013
178.4652 226.2291 0.0 0.0 0.0 0.0 0.0 0.0
41.83404 0.0 0.0 252.22356 0.0 0.0 0.0 0.0
0.0 229.1998 156.24362 0.0 0.40925583 0.0 0.0 96.6038
0.0 0.0 216.58754 18.066214 275.5593 372.5107 418.78336 386.44012
112.71433 0.0 0.0 79.206314 0.0 378.41147 225.02365 0.0
0.0 0.0 0.0 0.0 0.0 0.0 169.9024 213.42915

layer.3.running_var f4 [128]
00000000: 6f8d b83c e64d 0147 6f8d b83c 6f8d b83c
00000010: d3e2 ba41 34d2 3345 6f8d b83c c8cd 7d3f
00000020: 7a77 1447 6f8d b83c 6f8d b83c 5346 8745
00000030: 6f8d b83c 305b 0b47 6f8d b83c 6f8d b83c
00000040: 3dd6 6545 6f8d b83c 6f8d b83c f346 2047
00000050: fa28 2943 87d4 d946 ce87 4547 9d46 b241
00000060: fab6 f541 dd94 3145 038b e246 05e9 0745
00000070: 6f8d b83c 86ce c646 144b 3144 6f8d b83c
00000080: c21f 4547 6f8d b83c 6f8d b83c e19d 9645
00000090: 6f8d b83c 6f8d b83c 65ff 5e43 6f8d b83c
000000a0: 6f8d b83c df68 3447 74fa 4d45 ee3c 8846
000000b0: 8240 3946 6810 4347 b931 ad46 6f8d b83c
000000c0: 698d ad46 6f8d b83c ea3c a046 6f8d b83c
000000d0: 5371 2647 87da f446 6f8d b83c 6f8d b83c
000000e0: 44ca b345 8210 7845 6f8d b83c 6f8d b83c
000000f0: a39a 2345 6f8d b83c 22f9 bc43 6f8d b83c
00000100: b635 1045 6f8d b83c 62f1 5a46 6f8d b83c
00000110: 6f8d b83c 6f8d b83c b2f2 f044 6f8d b83c
00000120: c6a6 fb46 f9a8 4a46 6f8d b83c 675c a642
00000130: 6f8d b83c 0ee5 a846 6f8d b83c c856 6446
00000140: d86a 3046 d952 9046 6f8d b83c 6f8d b83c
00000150: 6f8d b83c 6f8d b83c 6f8d b83c 6f8d b83c
00000160: 341d 5c44 6f8d b83c 6f8d b83c 2abb b546
00000170: 6f8d b83c 6f8d b83c 6f8d b83c 6f8d b83c
00000180: 6f8d b83c 7918 9046 308d 0346 6f8d b83c
00000190: 13f5 5741 6f8d b83c 6f8d b83c 1477 4c45
000001a0: 6f8d b83c 6f8d b83c 8bff 8046 7605 e342
000001b0: 8ffe d446 d4f0 3a47 c982 6847 b8b5 4c47
000001c0: 0f8a a345 6f8d b83c 6f8d b83c 3fe0 0c45
000001d0: 6f8d b83c a7c3 4347 b484 8a46 6f8d b83c
000001e0: 6f8d b83c 6f8d b83c 6f8d b83c 6f8d b83c
000001f0: 6f8d b83c 6f8d b83c 18d6 1d46 0b36 7c46
0.022528378 33101.9 0.022528378 0.022528378 23.360754 2877.1377 0.022528378 0.9914212
38007.477 0.022528378 0.022528378 4328.7905 0.022528378 35675.188 0.022528378 0.022528378
3677.39 0.022528378 0.022528378 41030.95 169.16006 27882.264 50567.805 22.28448
30.714344 2841.304 28997.506 2174.5637 0.022528378 25447.262 709.1731 0.022528378
50463.758 0.022528378 0.022528378 4819.735 0.022528378 0.022528378 222.99763 0.022528378
0.022528378 46184.87 3295.6533 17438.465 11856.127 49936.406 22168.861 0.022528378
22214.705 0.022528378 20510.457 0.022528378 42609.324 31341.264 0.022528378 0.022528378
5753.283 3969.0317 0.022528378 0.022528378 2617.6648 0.022528378 377.94635 0.022528378
2307.357 0.022528378 14012.346 0.022528378 0.022528378 0.022528378 1927.5842 0.022528378
32211.387 12970.243 0.022528378 83.18047 0.022528378 21618.527 0.022528378 14613.695
11290.711 18473.424 0.022528378 0.022528378 0.022528378 0.022528378 0.022528378 0.022528378
880.4563 0.022528378 0.022528378 23261.582 0.022528378 0.022528378 0.022528378 0.022528378
0.022528378 18444.236 8419.297 0.022528378 13.497333 0.022528378 0.022528378 3271.4424
0.022528378 0.022528378 16511.771 113.510666 27263.28 47856.83 59522.785 52405.72
5233.2573 0.022528378 0.022528378 2254.0154 0.022528378 50115.652 17730.352 0.022528378
0.022528378 0.022528378 0.022528378 0.022528378 0.022528378 0.022528378 10101.523 16141.511

layer.4.weight f4 [64, 128]
00000000: 263b 383d 08c9 4fbd 27aa 8bbd ab49 4bbd
00000010: 7c92 723d 57f2 943d d991 6c3d 0439 25bb
00000020: 7481 0a3d 2c1a 6b3d 3922 5c3d fcd0 3a3d
00000030: 46c8 993c 52c6 94bd eec1 93bd b55b 75bb
00000040: 559c 843d 6aa7 4ebd 4d4b cb3c b94a 2abd
00000050: 6f4a 3d3c e604 10bd 3558 5d3d c061 6f3d
00000060: 952a 8cbc 00ee bdbd 33a0 77bc afe8 8cbd
00000070: 0824 a53c 26b2 3cbb 7ebd 13b9 7eae 3ebd
00000080: 64b5 3fbd a97c 273d 24fe e3bc 2bc0 0ebd
00000090: c63b 83bd 9e5d 883d a66f 52bd e97c 003d
000000a0: 191e 723d 9251 a13d 626b ed3b c0e2 53bd
000000b0: e82e b13d a094 74bd acce 14bc 71fa adbd
000000c0: 521b 9abd c40d d63c 6219 87bd 32d3 9dbd
000000d0: 5fd5 49bd e3bb 7e3d d2ec 833c 6d47 abbd
000000e0: 2785 d03c 1b68 8b3c 3a61 8c3d 04b6 3d3d
000000f0: 6236 bd3d e0f2 e43b ef77 8e3d 6990 0ebd
00000100: 5ada fc3c 81c9 41bb da4d 4dbd cc23 46bd
00000110: 8b6d 9d3d 72c3 133d 8dde 82bd 2ee2 8dbd
00000120: a6b1 213d 8528 e03c 1ceb c3bc b6c7 b23d
00000130: 7a06 643c 299d 293d aa2d 70bd 58a0 fd3c
00000140: 55a4 f6ba 66d3 8bbd 37c6 e2bc 338d 873d
00000150: dc1b 7f3d fd3a dd3b d7c6 663d 2588 ca3c
00000160: 3cbf ddbc 0357 06bd 7234 a13d 1059 3cbd
00000170: 9930 01bd 2d35 123c ab43 993c 6db1 e9bc
00000180: cec5 8e3d b687 f3bc f600 21bd 69ee 8a3d
00000190: 00bd a43d fc60 10bd 54df 783d 0cc1 583d
000001a0: e852 c23c eccf 3a3d 82c0 fb3c 6946 9bbd
000001b0: f378 183c faff 8f3d 6d94 00bc bf75 013d
000001c0: 1f83 8c3d 5585 2b3d b3e2 17bd a830 aebd
000001d0: 3a10 153d 21a5 4abd e77b 9c3c 6811 9c3c
000001e0: 0b60 ea3b ddd3 5ebc adde 923b 9c3a 43bd
000001f0: 873f e8bc 5673 d03c 7c04 383d 7ee0 acbd
00000200: 819b 46bb 0ab1 edbc a774 8d3d 7f21 9f3d
00000210: 9cae 8cbd 0eee a23d 2bfe 1dbb 2d91 b8b9
00000220: 1177 d63b d815 823c 2440 a03d 1eac c13d
00000230: 51fe ac3d dbc2 9f3d 75e2 5d3b 4a37 67bd
00000240: d50f 42bc 84d5 05bd 2d5f 58bd c295 9c3d
00000250: 6b0d 0cbc 4c16 083c af53 e9bb 2a49 98bd
00000260: ea0f 823c 7b36 98bd e804 abbb ca8e 543d
00000270: 6b7b 8a3d 3c11 7abd cfba 9bbd 2446 a03d
00000280: 72c2 3c3c 08be 043d 6071 eebc ae0c 9fbb
00000290: 5ae6 8abd d5c0 38b8 72a0 763d 1e89 1e3b
000002a0: 594c 98bd b158 95bd 92e4 ca3c 1b72 4f3b
000002b0: 51d9 92bd 7fb5 30bb caa0 9e3d 1a33 91bd
000002c0: 28d5 0ebd e862 41bd 55b2 ffbc 3fb6 8bbd
000002d0: 907a 5dbd 9c8e 68bd 9883 a0bd 3b77 b8bc
000002e0: c75d 933d b03f e73c 88c0 26bd 73d9 44bc
000002f0: 00d0 ae3d a579 34bd 7882 083d 4cd8 6ebd
00000300: 120b a03d 2cc8 e2bc d1f4 14bd e06c 3e3d
00000310: 6874 8fbb 6f82 03bd 0aab 633d 09c3 6e3d
00000320: 60f6 debb 759e 7f3d ed2d 85bd 4e54 ce3b
00000330: 7d05 0bbd a1ad 32bd 4e0c 23bd c5c8 d03c
00000340: 3f7b 8c3d 506e 68bd 23e0 993c 79b2 f2bc
00000350: d503 463d d0c6 57bd cf7b 04bd 0274 9fbd
00000360: d5b7 73bd d013 87bc b2f6 2d3c 0880 48bd
00000370: bf48 37bd 7169 9b3d 2b05 b8ba 3ce4 30bd
00000380: 63fc 1ebd 45bd 7abc 336d a93d 5845 cfbc
00000390: 7ef5 4e3d 9718 923d 9fa1 813d d06b 15bd
000003a0: 09bf 2cbc 901a 653d 6d7e 943d e698 2a3d
000003b0: ba98 853c ff75 71bd 2912 1f3d 9de8 e3bc
000003c0: c132 f5bc 010c 643d 7fb4 c23c 2164 833d
000003d0: 6734 10bd b839 753c 5f9a 8ebd e09a 583d
000003e0: 152c de3c 7875 72bc 4bef 3fbd dd13 80bd
000003f0: f6f9 0fbd be96 3e3d 6a89 a9bd a9e2 063d
0.044978283 -0.050728828 -0.06819563 -0.049630802 0.05922173 0.07272785 0.05775628 -0.0025210986
0.033814862 0.057398006 0.053743575 0.04560946 0.018772256 -0.07264389 -0.072147235 -0.0037438695
0.064751305 -0.050452627 0.02481618 -0.041575167 0.011553391 -0.03516092 0.0540392 0.05844283
-0.017110148 -0.092739105 -0.015113878 -0.068803184 0.020158783 -0.0028792708 -0.00014089604 -0.046553127
-0.046803847 0.04089037 -0.027831145 -0.034851234 -0.06407885 0.06658481 -0.051376007 0.031369124
0.059110735 0.078768864 0.007245467 -0.051729918 0.08651525 -0.059712052 -0.009082478 -0.084950335
-0.07524742 0.02612961 -0.06596638 -0.07706298 -0.049275752 0.0621909 0.016104136 -0.08363233
0.025454117 0.017017415 0.06854482 0.04631616 0.09238888 0.006986961 0.06956469 -0.03480569
0.030865837 -0.0029569569 -0.050123073 -0.048373982 0.07686909 0.036075063 -0.063901044 -0.06927906
0.03947606 0.027363071 -0.02391582 0.08729498 0.01391756 0.041409645 -0.0586373 0.030960247
-0.0018817285 -0.068274304 -0.027682407 0.066187285 0.06228243 0.0067514167 0.056341972 0.024723122
-0.027068727 -0.032797825 0.07871331 -0.045983374 -0.031540487 0.008923811 0.018709024 -0.028526986
0.06971322 -0.029727798 -0.039307557 0.067837544 0.080438614 -0.03524874 0.060759857 0.05291848
0.023721173 0.045608446 0.030731443 -0.07581789 0.00930618 0.070312455 -0.007847887 0.031606432
0.06860947 0.041875202 -0.03708143 -0.08505374 0.036392428 -0.049473885 0.01910205 0.019051269
0.0071525625 -0.013600317 0.0044821114 -0.047663316 -0.028350605 0.025445621 0.04492615 -0.08441256
-0.003030509 -0.029015083 0.06907015 0.07770061 -0.068692416 0.079555616 -0.0024107795 -0.0003520338
0.0065449555 0.015879557 0.07824734 0.09456657 0.084469445 0.078008376 0.0033856903 -0.056449212
-0.011844595 -0.032674327 -0.05282514 0.076457515 -0.008548121 0.008306097 -0.0071205716 -0.0743583
0.015876729 -0.07432266 -0.0052190907 0.051893987 0.06761821 -0.061051592 -0.0760399 0.07825878
0.011520969 0.03240779 -0.029106796 -0.0048538065 -0.06782217 -4.4048607e-05 0.060211606 0.0024190615
-0.07436437 -0.07292307 0.024767194 0.0031653706 -0.07170356 -0.002696365 0.07745512 -0.07089825
-0.03487125 -0.047213465 -0.031212965 -0.0682187 -0.054071963 -0.056776628 -0.078375995 -0.022517791
0.07195621 0.02822861 -0.040710956 -0.012014735 0.085357666 -0.04406132 0.03332755 -0.058311746
0.078146115 -0.02768334 -0.036366288 0.04649055 -0.0043778904 -0.032106813 0.055583037 0.05829147
-0.0068042725 0.062406976 -0.065029 0.006296671 -0.03394078 -0.043622617 -0.039806657 0.02548636
0.06859445 -0.056745827 0.018783635 -0.029626118 0.0483435 -0.052679837 -0.032344636 -0.077857986
-0.059501488 -0.01648894 0.010617899 -0.048950225 -0.04474711 0.07588471 -0.0014039626 -0.04318641
-0.038814913 -0.015303914 0.08272781 -0.02530162 0.05052709 0.071335964 0.06329655 -0.03647977
-0.010543593 0.055933535 0.07250676 0.04164972 0.016308177 -0.05895042 0.03883568 -0.02782088
-0.029931428 0.05567551 0.023767708 0.064155824 -0.035206225 0.0149673745 -0.06963038 0.052882075
0.02712063 -0.014798515 -0.046859067 -0.062537886 -0.03515049 0.046530478 -0.08278163 0.032931004

layer.4.bias f4 [64]
00000000: daf3 713d 7d82 883d 63d5 2c3c 0a56 f53c
00000010: 0092 853d dc17 45bc 7476 a43d 59b5 0abd
00000020: 8297 c5bc cf4a bc3d 0854 53bd bf08 903b
00000030: 6d8d 1b3c 2147 9a3d a115 bdbc 856a c93c
00000040: d38f 7b3d b9d5 37bd e90a f33c 6cc8 b0bd
00000050: 5242 49bd 78e5 05bd aada e13c c33f 2dbd
00000060: f969 70bb ae4d 993d d40e 9dbd 4a39 d03b
00000070: 7c1a ce3c 806f 87bd 144c c73c cfbd 8a3d
00000080: 231b 13bc 85b2 333b a2fb 723d 730e 4f3d
00000090: ea4e d33c 7ad6 37bd dbc2 843d 2b16 ebbc
000000a0: f40a 83bd 3b9f 4f3c 8740 953d 2234 5abc
000000b0: 7d91 923b 7e18 7dbd 6619 b9bc a45b 7cbd
000000c0: 335e f53a 6d5c 92bd 0dbe a0bc 3c55 59bd
000000d0: 319a 59bd d6cd 703b 8cf8 c13c 3078 2dbd
000000e0: daa4 31bd dc69 5c3c 0438 43bd e0c9 c33b
000000f0: af74 47bd 075e 7fbd cb9c 683d fb62 ac3c
0.059070446 0.06665514 0.010548922 0.029948253 0.06521988 -0.012029614 0.08030406 -0.033864353
-0.024120096 0.09193956 -0.05159381 0.004395574 0.009494168 0.07533098 -0.023081603 0.024586925
0.06141646 -0.044881556 0.029668288 -0.086319774 -0.049135514 -0.03268954 0.027570087 -0.042297136
-0.0036684258 0.07485519 -0.07668844 0.0063544856 0.025159113 -0.06613064 0.024328269 0.06774484
-0.008978638 0.0027419638 0.059322007 0.05055089 0.025794465 -0.044882275 0.06482478 -0.028697094
-0.063985735 0.012672241 0.07287698 -0.0133180935 0.00447291 -0.061790936 -0.022595119 -0.061610833
0.001872009 -0.07146535 -0.019621873 -0.0530598 -0.053125564 0.0036743782 0.023678087 -0.042350948
-0.043370105 0.013452973 -0.047660843 0.005974993 -0.048695263 -0.06234553 0.056790154 0.021043291

layer.7.weight f4 [64]
00000000: 9f0b 813f 9dfa 803f c48a 7f3f fc2e 803f
00000010: f4cc 803f 56d4 7f3f 200d 813f a776 7f3f
00000020: 9f04 7e3f d731 7f3f 2f24 803f f30d 813f
00000030: 8745 813f 2dd9 7d3f f62b 813f 362e 813f
00000040: 0642 813f 43ce 803f c63e 813f 42c7 803f
00000050: dd3c 813f fb6e 803f b468 7e3f 8015 813f
00000060: e733 813f f545 813f 6b19 7e3f 2c9c 7d3f
00000070: a090 7e3f ee83 803f 08e8 7d3f 793f 813f
00000080: f840 813f d545 813f 8f0a 7e3f 9608 813f
00000090: af08 813f 9a2d 813f 25a3 803f c881 7e3f
000000a0: 43f0 7d3f a62e 813f 2eaf 7d3f 882f 803f
000000b0: c47b 7f3f 6227 803f bdcb 7d3f 8aa3 803f
000000c0: 31dc 7f3f 2a91 803f bd03 803f 235a 7f3f
000000d0: b44f 803f 657c 803f e9ce 7f3f 6748 803f
000000e0: 653a 813f dcaa 803f d6db 803f c772 803f
000000f0: 151b 7f3f 5631 803f 3f20 813f d741 813f
1.0081671 1.0076481 0.99821115 1.0014338 1.0062547 0.99933374 1.008213 0.99790424
0.992258 0.99685425 1.0011042 1.0082382 1.0099343 0.9915951 1.0091541 1.0092227
1.0098274 1.0062946 1.0097282 1.0060809 1.0096699 1.0033869 0.99378514 1.0084686
1.0093964 1.0099474 0.99257535 0.99066424 0.9943943 1.0040262 0.99182177 1.0097495
1.0097952 1.0099436 0.9923486 1.0080745 1.0080775 1.0092041 1.0049788 0.9941678
0.99194735 1.0092361 0.9909543 1.0014505 0.99798226 1.0012019 0.99139005 1.0049908
0.9994536 1.00443 1.0001141 0.9974691 1.0024323 1.0037962 0.99925095 1.0022095
1.0095946 1.0052142 1.0067089 1.0035027 0.996507 1.0015056 1.0087966 1.0098218

layer.7.bias f4 [64]
00000000: 5a4e 01bc 5bf4 b7ba 8711 eabb 1b42 e23b
00000010: 63ec 0abc 2bce 14bb c6ad 093c b189 12bc
00000020: c7de 25bc f585 20bc c671 fa3b 7bcc 22bc
00000030: 6c57 e5bb 13fd 1e3c 076b 05bc f56f 373b
00000040: 1ed4 1b3c 9363 23bc 1c5c 5ebb 4491 22bc
00000050: 361c 4a3b 53c5 243c c198 d6bb e212 823b
00000060: adc8 1bbc 1651 e4bb 3103 d0ba e6db 6a3b
00000070: 52bc 11bc 34c3 1dbc cdac a4bb f149 e4bb
00000080: 3874 1fbc c12e 20bc cb78 efbb d732 253c
00000090: 00b5 0b3c 9241 053c f103 043c 9e76 233c
000000a0: e7ce 1e3c a46d 9cbb 63ae d7bb 2330 14bc
000000b0: fcc8 a739 5738 423a e8ab 193b 161c b33a
000000c0: 1e19 cebb d38c eebb fee4 05bc 9c3c b6bb
000000d0: aa72 af3b 39b7 c7bb 52f2 21bc 5ae9 1fbc
000000e0: 3c93 463b 8a71 cebb 20d3 243c b0eb 7abb
000000f0: dde0 1fbc 938e 08bc 40a2 1a3c 1ae2 ef3b
-0.007892216 -0.0014034616 -0.0071432027 0.006904853 -0.008479211 -0.0022705893 0.008403247 -0.008943961
-0.010123915 -0.009797563 0.0076429574 -0.009936447 -0.006998947 0.009703892 -0.008143193 0.0027990316
0.009511022 -0.009972471 -0.0033929413 -0.009922329 0.003083957 0.010056811 -0.0065489714 0.003969536
-0.009508294 -0.006967674 -0.0015870092 0.0035836636 -0.008894997 -0.00962906 -0.0050254823 -0.0069668223
-0.009732299 -0.009776772 -0.007308101 0.010082922 0.0085270405 0.008133309 0.00805758 0.009977011
0.009692884 -0.0047738124 -0.006582068 -0.00904468 0.00032002467 0.0007408908 0.0023448411 0.0013664986
-0.0062896153 -0.007279971 -0.008172272 -0.0055614244 0.005354245 -0.00609484 -0.009884434 -0.009760225
0.003030016 -0.006300156 0.010060102 -0.0038287453 -0.009758201 -0.008334774 0.0094380975 0.0073206546

layer.7.running_mean f4 [64]
00000000: 1b06 443e ed0f 553e 402b 283e d71e 273e
00000010: 3261 443e a587 123e 88d7 5a3e 868e 103e
00000020: f786 103e 0a4b 4d3e 14b8 0d3e dac9 203e
00000030: b84c 2a3e 6e11 3d3e 168c 233e 0cfc 4e3e
00000040: 9b29 603e ba60 1f3e 2ec9 663e cf0d da3d
00000050: ee0a 2d3e 782a 163e fa4f 213e 1624 0a3e
00000060: e227 193e 19b5 6e3e 14b6 ef3d 8047 133e
00000070: e3f1 3e3e 00c0 f63d 384c 343e 2ee3 593e
00000080: 7463 313e 3e6f 1b3e 03b7 413e c6da 2d3e
00000090: 58fd 363e 1d40 173e 0bcc 3e3e 589d 193e
000000a0: 9612 f63d acaf 533e 540c 423e d46c 163e
000000b0: 6274 233e 5391 143e 67fd 093e a5ad 063e
000000c0: df02 163e e654 073e c9fb 0c3e f1cf 003e
000000d0: 9c4c ed3d 6bd9 083e 5749 373e 1a25 0d3e
000000e0: 32c2 1c3e fc9c 343e 26bb 0c3e ff80 163e
000000f0: 95b2 0d3e 6d09 fd3d 2cb1 383e 104e 323e
0.19142954 0.20806856 0.16422749 0.16320358 0.19177702 0.14309557 0.21371281 0.14116868
0.14113985 0.20048156 0.13839751 0.15702 0.16630828 0.1846368 0.15971407 0.20213336
0.21890871 0.15564242 0.22537681 0.10647165 0.168987 0.14664638 0.15753165 0.13490328
0.1495662 0.23311271 0.117046505 0.14382744 0.1864696 0.1204834 0.176072 0.21278068
0.17323095 0.15179154 0.1891747 0.16977987 0.1787008 0.14770551 0.18632524 0.15001428
0.12015264 0.20672482 0.18950015 0.14689952 0.15962365 0.14508562 0.13475572 0.13152178
0.14649533 0.1321598 0.13767923 0.12579323 0.11586878 0.13364188 0.1789907 0.13783684
0.15308455 0.1763801 0.13743266 0.14697646 0.13837655 0.123553135 0.18036336 0.17412591

layer.7.running_var f4 [64]
00000000: d6b7 183e 88cd 203e 2739 fd3d 8726 f93d
00000010: 8e1d 223e c095 db3d e04a 2d3e 4882 e53d
00000020: c069 d83d 4545 113e 6c2b d93d cd50 f23d
00000030: f630 263e 4864 073e 80ea 093e fa06 2c3e
00000040: e350 2f3e 31f1 2f3e f18b 6f3e e801 a73d
00000050: 9666 153e 5a80 eb3d 3c7d e43d 52c7 e93d
00000060: 5eaa f93d 26fe 793e e331 c03d 0b78 d13d
00000070: 422d 163e 2513 bd3d 0de5 243e 32be 253e
00000080: e8b5 3e3e 2f90 e33d 2d03 0f3e 592a ff3d
00000090: 021e 083e 1e7e ea3d 6424 0b3e 4423 f53d
000000a0: c57e c33d af38 673e 3229 393e c345 d93d
000000b0: 7670 f93d 1081 053e 0923 d83d 23e6 ca3d
000000c0: 67f0 d23d c016 cf3d 0c65 d93d 5440 de3d
000000d0: 6546 b43d 229e bf3d 38a0 0a3e 45e2 f13d
000000e0: bf53 343e 7719 293e 3904 d13d 68f2 d03d
000000f0: 0c64 d23d c7aa 203e fe12 083e c630 143e
0.14913878 0.15703404 0.123644166 0.12165552 0.15831587 0.10721922 0.16923094 0.1120649
0.10567045 0.1418658 0.10603985 0.11831818 0.16229615 0.13221848 0.13468361 0.16799536
0.171207 0.17181851 0.23393227 0.081546605 0.14589915 0.114990905 0.11156699 0.114149705
0.12190698 0.24413356 0.09384515 0.102279745 0.14665702 0.09232167 0.16103001 0.16185835
0.18624079 0.11111485 0.13966055 0.12459249 0.13292697 0.11449836 0.135881 0.11969617
0.09545664 0.22580217 0.18082121 0.10609009 0.12179653 0.13037515 0.105535574 0.09907176
0.10299759 0.10111761 0.10614976 0.10852113 0.08802489 0.09356333 0.13537681 0.118107356
0.17610072 0.1651362 0.102058835 0.10202485 0.10272989 0.15690146 0.13288495 0.1447173

layer.8.weight f4 [32, 64]
00000000: 62ed 023c 9b94 173d b360 673c 1452 6d3d
00000010: 5976 1abd 3338 f6bd 7e65 553d bf64 c7bc
00000020: 5a0f 59bb 117a aabd f4a1 2cbd e0fb 97bd
00000030: 92bf f6bd e952 ca3d 3b3a 7fbd 86c9 b73d
00000040: 1ecb f63d 6ec6 02be 1df3 0abd 7230 19bd
00000050: 5270 033e 151c 60bb 795f 7e3a 0966 643d
00000060: 518a f0bd d6b1 abbd d433 f03c d745 963d
00000070: e801 923b 86fc b9bd ba22 56bd 5e29 8dbd
00000080: 2339 87bd 4e04 e7bc 5550 df3c d3c4 ac39
00000090: 1bed 18bd 8c6f ac3d 4fc9 eb3d 8192 403d
000000a0: 1627 e73d 1574 ca3d 6091 c13c 2b37 fdbd
000000b0: dc51 77bd 9dd6 d63b 3d8f d43d 8785 5fbd
000000c0: c827 d63d 5917 fd3d 7580 8f3d 7ae1 abbd
000000d0: 7aa5 f93d 9e91 92bd b3ed e7bc 30a2 86bd
000000e0: c074 e43d 87f0 2bbd a95a 1abc 1470 633d
000000f0: 3824 823d 9f95 b63d 7b01 c33d c973 d03d
00000100: e699 bd3d 2426 d8bc 54ce 3b3c 62a5 893d
00000110: b105 88bc 5f24 5fbd 488f ffbd cdbd ed3d
00000120: 4a2e d2bd c35b 1f3d 1020 5a3d 4d9c 2cbd
00000130: d92e f1bd 5d1d 63bd 4f1c 0d3d 155d 8ebd
00000140: eee3 bf3d 1440 c93d f303 b7bd 4c51 fdbc
00000150: 856a 0c3d 8fa2 d13d 210b 963c 6f59 923d
00000160: 3a2a a0bd 1861 e1bb 298e 76bd bbcd d7bc
00000170: 3ffc e1bc 57de 93bd c0ea 23bd a929 a8bc
00000180: 210d 6cbd 12f3 31bd 0ecf f43d 6cfb e83d
00000190: b619 cd3d 7a40 b3bd 433b a2ba f0b6 ce3d
000001a0: f606 b13d 628c 9cbd dc32 e2bd d5fc 9a3d
000001b0: 5b79 c5bd 541f 2a3d 1922 ce3d 185e 5739
000001c0: fccb cabc e265 063c ecb4 f0bb da8f e2bd
000001d0: 197f 023d 6ef9 a7bb 259b e0bd 26e7 af3c
000001e0: 46c1 e5bd 15ec aabc 0f02 3f3d 22c2 813d
000001f0: 3b15 8cbd 4c5c 62bc 50b6 69bd bab7 72bd
00000200: 2a63 52bd 9411 4dbb 098c d33d a9b5 4f3d
00000210: 742b f4bd 87c8 7b3d 4f80 c6bd 787c 43bc
00000220: 2f46 a7bd 279e 5d3d ed14 b53d 3a55 90bd
00000230: db48 5a3d c8aa 123d 6bc6 10bc 7a12 e8bd
00000240: 2dcb 0d3d 3518 5dbd 4278 843c f931 fcbd
00000250: 0172 ca3c 6d4e 323d 7988 c13d 6471 28bc
00000260: 0fdd 9c3c da19 9bbd a672 713d f296 ab3b
00000270: 4cca b93d 4d9c 43bc af1f 7bbd 78bd d43d
00000280: 2348 95bd 2c6e 0bbd 7657 423d 6cdd 9b3d
00000290: aea2 053e d155 d73c 70c6 b93d 3694 883d
000002a0: 7e10 5e3d 7b8b 71bc f4c7 893b 52d0 7e3d
000002b0: c484 24bc 3e67 113c af94 3cbd 0d90 d5bd
000002c0: 94ce 2ebd 86f1 bf3b 5c28 ea3d ad2e bfbc
000002d0: 4d8e c73d 8bdf 583d 4d56 d33b a4e5 e2bd
000002e0: 9a2b c7bb f866 a8bc 2b60 393d 338f f9bd
000002f0: c6d1 84bd fc8b f5bd e3a3 fa3c a463 8bbd
00000300: e70c a33d f49b 15bd ef8b 513d 652f b7bd
00000310: 65e0 8cbd fb29 0b3c f32c 2dbd 8c0f ef3d
00000320: 623c d5bd 479f ecbd 5178 013e 04eb 05bd
00000330: 18e4 cf3d f2f9 f93c b3f3 40bd cdc5 a93d
00000340: 0d84 053e ec59 6a3d 129d 183d 390e 5ebc
00000350: 78fc c13d a8d1 93bc f778 9fbd 4d88 a83d
00000360: b361 b2bd fdaa 03be 684f 023d dffd 93bd
00000370: 9f61 cfbc 2e08 b13d 8c1e cfbc 625b 563d
00000380: 64a0 41bd 6edf 7cbd 13c6 08bd 5380 a73c
00000390: 3bdc 4cbc d461 afbd 59d4 7abd 4050 57bd
000003a0: e781 ffbd 5164 6c3d 037c f73c f3ca 2abd
000003b0: 23e1 83bd d04e b33d ce15 4ebd 298a 93bd
000003c0: a014 a9bd dd9a ed3d 1938 933d 7338 7dbd
000003d0: 86aa bcbc 94b3 ad3d 28e8 ebbd 8dd6 0b3d
000003e0: 0a01 96bd 36e4 dbbc d88a c13b ce08 9ebd
000003f0: 0a44 1f3d a00d 3d3d e1cc c43c f86c f1bd
0.007991167 0.037006956 0.014122176 0.057939604 -0.03771052 -0.12022438 0.052098744 -0.024340032
-0.0033120723 -0.083240636 -0.042146638 -0.07421088 -0.12048258 0.09879095 -0.062311392 0.089739844
0.1205046 -0.12771007 -0.033923257 -0.037399717 0.12835816 -0.0034196426 0.00097035576 0.05576137
-0.11745132 -0.08383529 0.029321589 0.0733754 0.0044557936 -0.09081368 -0.05227921 -0.06892656
-0.06602695 -0.028200295 0.027259985 0.00032953042 -0.037335496 0.084197134 0.11513006 0.047014717
0.11286752 0.09885422 0.02362889 -0.12364038 -0.0603808 0.0065563456 0.10378883 -0.0545707
0.104568064 0.12357969 0.07006923 -0.083926156 0.12189765 -0.071566805 -0.028311586 -0.065739036
0.11155081 -0.04197743 -0.009421029 0.055526808 0.063545644 0.08915257 0.09521767 0.10178334
0.092578694 -0.026385374 0.011462767 0.067209974 -0.016604276 -0.054478046 -0.124785006 0.11608467
-0.10262735 0.03890587 0.053253233 -0.042141248 -0.117765136 -0.055447925 0.034450825 -0.06951348
0.09369646 0.09826675 -0.089363 -0.030922554 0.034281272 0.10236084 0.018315854 0.07145964
-0.07820554 -0.0068780296 -0.06019417 -0.026343217 -0.0275861 -0.07220142 -0.040018797 -0.020527678
-0.05762971 -0.0434447 0.11953555 0.1137608 0.100146696 -0.08752532 -0.001237728 0.10093486
0.08643906 -0.076439634 -0.11044857 0.07567755 -0.09642287 0.041533783 0.10065097 0.0002053905
-0.02475547 0.008203002 -0.0073457863 -0.11062594 0.03185949 -0.00512617 -0.109670915 0.021472525
-0.112185046 -0.020864526 0.046632823 0.06335856 -0.06839987 -0.013815951 -0.057058632 -0.059257247
-0.0513641 -0.0031290995 0.10329444 0.050710354 -0.119223505 0.061470535 -0.09692442 -0.011931531
-0.08167683 0.054105904 0.08841882 -0.07047506 0.053292137 0.0358074 -0.008836369 -0.11331649
0.03461759 -0.053978164 0.016170625 -0.12314219 0.024712564 0.043531824 0.09449858 -0.010280941
0.019148378 -0.0757329 0.058947228 0.0052365 0.09071788 -0.0119391205 -0.061309513 0.10387701
-0.072891496 -0.034040615 0.04744669 0.07610592 0.13050339 0.026286038 0.09071052 0.06668894
0.054214947 -0.014742727 0.0042047445 0.06221039 -0.010041419 0.0088747125 -0.046040233 -0.10427866
-0.042677477 0.0058576493 0.11433479 -0.023337686 0.097439386 0.052947562 0.006449497 -0.11078957
-0.0060781958 -0.020556912 0.04525773 -0.12185516 -0.064853236 -0.119895905 0.030595725 -0.06806114
0.07961445 -0.03652568 0.05115884 -0.08944587 -0.06878737 0.008493896 -0.042279195 0.11672887
-0.10411908 -0.11553817 0.12643553 -0.03269483 0.10150927 0.030514691 -0.04710741 0.08289681
0.13038655 0.057214662 0.03725917 -0.013553196 0.09471983 -0.018044308 -0.07786744 0.08229122
-0.08710041 -0.12858196 0.03181401 -0.072261564 -0.025315104 0.08644138 -0.02528312 0.052333243
-0.0472721 -0.061736517 -0.033392023 0.020446932 -0.012503679 -0.08563581 -0.061237667 -0.052566767
-0.12475949 0.057712857 0.0302105 -0.041697454 -0.06439426 0.08755267 -0.050313763 -0.07204086
-0.08255887 0.116018035 0.07188434 -0.061821412 -0.02303053 0.084815174 -0.1151889 0.03414016
-0.07324417 -0.026842218 0.005906444 -0.07716523 0.038883246 0.046155572 0.024023475 -0.11788362

layer.8.bias f4 [32]
00000000: e832 8dbc 4951 ec3d 3345 7bbd 7f8d c5bd
00000010: de94 933d a469 f23c f009 423d 0edc d43c
00000020: 1cbd 6d3b 391c dd3d 87a0 aa3d a7d6 83bd
00000030: 2f19 b73d 4d34 6fbd b2f8 ab3d 615a e4bc
00000040: bba4 c83d 9521 8c3d 057b 4c3d 3505 9abc
00000050: 0f87 f7bd 6c97 03be 5be9 dcbd 4645 983d
00000060: 3df3 9dbc 20fc 603c 26b7 823d 59d0 a23d
00000070: 5e1c edbd 8d7e 68bd 5a4b 833d edc1 c5bd
-0.017236188 0.115389414 -0.06134529 -0.09646129 0.072061285 0.029591389 0.04737276 0.025983837
0.0036276048 0.10796399 0.083313994 -0.06437426 0.0894035 -0.058399487 0.08397044 -0.027875127
0.09797045 0.06842343 0.049922008 -0.018801311 -0.12086307 -0.12850732 -0.107866965 0.07435088
-0.019281024 0.013731986 0.06382589 0.079498954 -0.11577676 -0.056761313 0.064108565 -0.09656129

layer.11.weight f4 [1, 32]
00000000: b417 6fbd b3e1 fdbd 9d17 eebd 8cca e0bc
00000010: 2471 293e 9d08 11be b632 433d ec79 dd3c
00000020: f2f7 2bbd b7f7 0b3d eeb2 2b3e 014b eebd
00000030: 34a4 923c e6d7 6abc da4d 133e 436b a73d
00000040: 64d3 e4bd f5c7 e9bd a23e d1bc a138 893d
00000050: d50a 13bd 0129 5a3c ad46 6a3d 492d 2c3d
00000060: 2912 c9bd 2bcb aebc dd9d 1cbe a86b f53d
00000070: 29df 45bc 54f4 b63d cb66 77bd 809b 573d
-0.058372214 -0.12396564 -0.116255976 -0.027440332 0.16547066 -0.14163442 0.047655784 0.027035676
-0.041984506 0.034171786 0.16767475 -0.116353996 0.017900564 -0.014333701 0.14385167 0.081747554
-0.11173132 -0.11415092 -0.025542561 0.06700254 -0.035899002 0.01331544 0.057196308 0.042035375
-0.09817917 -0.021337112 -0.15294595 0.119834244 -0.012077131 0.08933321 -0.060400765 0.05263853
