src/models/v3/pretrained_models/spa-francorchamps_model_v3.pt (torch, 63253 bytes, 15 tensors)

layer.0.weight f4 [128, 21]
000000 52 d5 4b be 3b 1b e0 ba 46 a8 5c 3e d0 69 52 3e
       -0.19905594 -0.0017097959 0.21548566 0.20548177
000010 42 ad f2 3d 4e c2 23 be e1 d0 d8 3d 2b 64 d8 bd
       0.118494526 -0.1599209 0.105867155 -0.105659805
000020 fd 81 21 be a4 eb 9b 3d 7c b2 52 be 1b 30 41 3e
       -0.15772243 0.07613304 -0.20575899 0.18866007
000030 70 89 aa 3c ff d2 72 3d 5d e4 1b 3e a7 f5 76 3b
       0.020817488 0.059283253 0.15223832 0.0037683041
000040 c0 19 5e 3e 1c e3 35 be 0c 7f 20 bc ed 43 53 be
       0.2168951 -0.17762417 -0.009795915 -0.2063138
000050 d9 11 23 3d fe 15 2c 3e 72 a8 4e 3e f9 48 ee bd
       0.039811943 0.16805264 0.20181444 -0.11635012
000060 8d 34 3f 3e ec b3 f8 bd 0f d2 17 3d 93 ed 5b bd
       0.1867239 -0.121436924 0.03706556 -0.053693365
000070 6c 5b 50 3c d3 d4 0b bd 7f 6d 09 bd f6 05 e7 bb
       0.012717109 -0.034138512 -0.03355169 -0.007050271
000080 96 df 9b bd 6b c4 7c 3d 0c a5 2d be aa f1 12 bd
       -0.07611005 0.061710756 -0.16957492 -0.035875
000090 3c 7a 89 bd e4 01 c5 3d ae 0b 31 be 8e 1b 3b be
       -0.067127675 0.09619501 -0.17289612 -0.1827223
0000a0 9d 3a 58 3e 56 d4 e1 3d eb b8 07 be dc 48 de 3d
       0.21116109 0.11026828 -0.13254134 0.108537406
0000b0 6f 15 dc bd ee b6 1e 3e 04 0c 3b be 4d 6d 00 3e
       -0.10746276 0.1549947 -0.18266302 0.12541695
0000c0 db 53 01 be ff 20 ff bc 84 ea 18 be 5e f3 a5 3d
       -0.12629645 -0.031143663 -0.1493321 0.08103059
0000d0 12 40 30 3e c7 0f f0 3c 0e 37 53 be c4 f7 2c bd
       0.17211941 0.029304398 -0.2062647 -0.042228475
0000e0 6b 7d 24 3e b2 98 a6 bd 4b 56 a9 b7 bc 82 0d 3d
       0.16063468 -0.08134593 -2.0186553e-05 0.034548506
0000f0 64 0a 20 3e a9 b4 be bd 31 55 0c be 1b 93 da bd
       0.15628964 -0.09311802 -0.13704373 -0.106725894
000100 ea 45 02 3e 41 b9 4d 3c b3 c6 54 be 83 39 c5 3a
       0.12721983 0.012556375 -0.20778923 0.0015047047
000110 41 b5 3c 3e 0d 32 f5 bd 48 8b 1c bb 80 0a a6 3d
       0.18428518 -0.11972437 -0.002388673 0.081074715
000120 67 7e ae 3d 53 cb 83 3c b8 82 81 3d 95 c5 f8 bd
       0.08520203 0.016088163 0.06323761 -0.12147061
000130 92 3d 01 bd 53 2f 49 3d 8e 51 d2 3d 51 c5 53 bd
       -0.03155286 0.049117398 0.102694616 -0.051701847
000140 b1 5c 50 bd 80 38 b4 bc e8 95 49 3e 6e 57 9b bc
       -0.050869647 -0.021999598 0.19686091 -0.018962588
000150 ac 7c d2 bc ea d0 eb bd e8 e6 05 3d 59 a7 bc bd
       -0.025694214 -0.115144566 0.032690912 -0.092116065
000160 4b f6 3a 3e 97 f8 f9 3d 70 9e b9 3d 77 9a bd 3d
       0.18258016 0.12205618 0.09063423 0.092579775
000170 f3 7a a8 b9 70 1a 2c 3e 80 2c 99 3c c1 e0 90 3d
       -0.0003213506 0.1680696 0.018697977 0.070741184
000180 30 85 0f be 37 66 3c 3b d8 b4 94 bd 80 d3 67 bd
       -0.14015651 0.0028747448 -0.07261056 -0.056598186
000190 4b 9f 4e 3e f0 1a 06 bd 8c 96 b9 3d 0f 79 67 3e
       0.20177953 -0.032740533 0.09061918 0.22604774
0001a0 37 72 bd bd b2 42 47 3d 69 72 09 bc 5c f4 44 be
       -0.092503004 0.04864759 -0.008389094 -0.1923384
0001b0 b9 67 91 3d 10 7f b8 bc d7 6d 0a 3e 2a 28 65 bb
       0.07099862 -0.022521526 0.13518463 -0.0034966567
0001c0 31 1f 1d 3d bc 53 33 3e d8 16 1e be 41 ff 2d 3e
       0.038359825 0.17512411 -0.15438402 0.16991903
0001d0 25 70 82 3d 6a e0 18 bd cf 36 5a be 64 53 51 be
       0.06369046 -0.037323393 -0.2130997 -0.20441967
0001e0 ec 54 08 3d 9d 9f d1 bc 11 92 68 bd f3 bb 3a be
       0.033284113 -0.025588805 -0.056779925 -0.1823576
0001f0 fe 9b 1a 3e 5d 79 4a be fd 91 1d bd 29 83 5b 3e
       0.15098569 -0.19772859 -0.038469303 0.21436752
000200 21 09 20 3d 34 8d f7 3c a7 93 6b 3d e0 cc 02 3e
       0.039071206 0.030218698 0.05751386 0.12773466
000210 b9 a1 ca 3d 1e 41 a4 3d ec c5 c9 3a eb 8c 8a 3c
       0.098941274 0.080202326 0.0015394068 0.016912898
000220 86 f5 94 bc 54 06 26 be 5e 9a b5 bd 5a 4b d1 3d
       -0.018183481 -0.16213351 -0.08867334 0.1021945
000230 87 81 a1 bb 10 0a 38 3d 1a 5b ce bd 3b 4b a5 bd
       -0.004928771 0.04493147 -0.1007597 -0.0807099
000240 dd 38 0e bd a2 d6 21 bc 86 ba f3 3d 30 06 31 bd
       -0.034722198 -0.009877833 0.11900811 -0.04321879
000250 55 46 d2 bd ae d8 16 3e 12 02 6d 3d b2 d6 0e be
       -0.10267321 0.14731094 0.057863303 -0.13949087
000260 5a e4 bc bd 07 60 5a bd 47 3f 6c bd 99 8f e4 3d
       -0.09223242 -0.053314235 -0.057677533 0.111602016
000270 7f 95 26 be 0f 6e 87 bd a7 34 4a 3e 3d 4d e6 3c
       -0.16267966 -0.06612789 0.19746648 0.028113002
000280 31 fd 4b bd 34 c7 47 3e 10 0b 37 3e 94 41 a7 bd
       -0.04980201 0.19509584 0.17875314 -0.08166805
000290 43 e8 8d 3b e4 5e c2 3d 04 f6 a0 bd b4 a6 ea bc
       0.0043306663 0.09490755 -0.07859424 -0.028643943
0002a0 79 a9 39 3e 8c 3e a8 bd 9a f6 b0 bd ab 06 2d be
       0.18131055 -0.08215055 -0.086407855 -0.16897075
0002b0 ba 94 f8 bd 39 44 3c be e2 89 12 3e 5a e9 51 3e
       -0.12137742 -0.183854 0.1431041 0.20499173
0002c0 7f 69 28 bd a7 7a 82 3d 81 8b 0c 3c 78 59 8b bd
       -0.041116234 0.0637105 0.008578182 -0.06804174
0002d0 45 d4 ff bd 3f 90 27 be cb 2f 52 be c7 21 b3 bd
       -0.12491659 -0.1636362 -0.20526044 -0.08746677
0002e0 72 b2 eb bd 3e 38 b8 bd a1 f6 1d be 86 bd 08 3e
       -0.11508645 -0.08995102 -0.15426113 0.13353547
0002f0 c5 ee 0b 3e 30 d0 69 bc cf b8 6a bd a5 04 ac 3c
       0.13665302 -0.014270827 -0.057305153 0.020998308
000300 e3 f8 df bd 05 a9 1a bc b8 d7 0c be 88 06 4d 3e
       -0.10936143 -0.009439711 -0.13754165 0.20022023
000310 93 f8 f1 bd 8a c5 2f bd 33 56 0c 3e eb 81 52 be
       -0.1181499 -0.042912997 0.13704757 -0.20557372
000320 17 ec d8 39 09 a9 a6 3c 61 01 86 3b e5 82 8e 3d
       0.0004137463 0.020344274 0.00408952 0.0695856
000330 bb 57 1b 3e a6 37 c3 bd 19 f8 bc 3d 61 26 25 be
       0.15170185 -0.095320985 0.092270084 -0.16127922
000340 0c 11 4b be e6 38 d1 bd c6 c7 5b bd cb 70 2c 3e
       -0.19830722 -0.10215931 -0.053657316 0.16839902
000350 5d 71 14 bd e4 a5 20 3c 08 e3 ef bd 41 c3 57 be
       -0.036240924 0.009805176 -0.11713225 -0.21070577
000360 02 3b d7 3d 65 13 1f 3e a2 6b 83 bc 77 5c 2b be
       0.10509302 0.15534742 -0.016042534 -0.16734491
000370 6d 22 0b be dd dd 27 be 11 c1 40 bd 8c b7 ec 3d
       -0.13587351 -0.16393228 -0.047059122 0.11558446
000380 de 74 20 be 9b 29 02 be 17 c8 d6 bd db 3d cf bd
       -0.15669581 -0.12711184 -0.10487383 -0.1011922
000390 c6 b0 50 be a7 db 4c bd a4 f8 96 3d da cf 6d 3d
       -0.20379934 -0.050014164 0.07371643 0.05805955
0003a0 6d ff 96 3d 5e 6e 0d be 7b bf 05 be 5d ab 5c 3c
       0.07372937 -0.13811633 -0.13061325 0.013468591
0003b0 2f 09 f9 bd 96 bc 86 3b 84 f5 e4 3d 86 be 33 be
       -0.12159955 0.0041118367 0.11179641 -0.17553148
0003c0 b3 2f 17 3e c1 0e 9b 3d b4 d2 ad bb 93 1e ae 3d
       0.1476429 0.075711735 -0.005304659 0.08501925
0003d0 05 fc 4f bd 4d 15 e6 3d 8f 9f 52 be a8 51 02 3d
       -0.050777454 0.112345316 -0.2056868 0.031816155
0003e0 06 0d eb bd 3a f0 1a be a6 95 38 3d 78 8a 37 be
       -0.114770934 -0.15130702 0.04506459 -0.17923915
0003f0 d0 09 c2 bd 9d 22 31 be fe 4a f2 3d d7 b4 31 be
       -0.09474528 -0.1729836 0.1183071 -0.17354141

layer.0.bias f4 [128]
000000 d6 db 34 3c 21 a4 c4 3d db 9b d3 bd 24 61 2c 3e
       0.011038741 0.096016176 -0.103324614 0.16833931
000010 33 6e 52 be e7 9f 04 be ea 84 f6 bd c5 5d 2c bd
       -0.2054985 -0.12951623 -0.1203707 -0.042081613
000020 c3 b0 ec 3d ef 34 a1 3c 89 88 de bd 9b a3 2e bd
       0.11557152 0.019678561 -0.10865886 -0.042636495
000030 3a 66 f2 bd 9f 33 bc 3d 12 73 8f bd 50 d5 97 bd
       -0.118359044 0.091895334 -0.0700437 -0.07413733
000040 84 8a 19 3e 4b ef 0c 3e e8 90 1a be ab 24 e6 bd
       0.14994246 0.13763158 -0.1509434 -0.112374626
000050 2d eb 0a 3e bb 82 18 bd 56 8c 98 3d 07 65 ee bc
       0.13566275 -0.03723405 0.07448642 -0.029100908
000060 ea 3d f5 bd b3 35 a5 3d e1 c8 07 3e 81 94 b7 bd
       -0.119747 0.08066883 0.13260223 -0.08963872
000070 8e 70 32 be 53 84 2f bc c1 e0 63 3e e9 bf fc 3d
       -0.17425749 -0.010712701 0.22253706 0.123412915
000080 e6 27 45 3e ff f0 23 be fe a2 df bc 72 a4 06 3d
       0.19253501 -0.16009901 -0.0272994 0.03287167
000090 50 29 48 3e c2 3d d0 3b 49 2d 35 bd b9 c1 f4 3d
       0.1954701 0.0063550184 -0.04423264 0.11951012
0000a0 2b 65 9e bd a2 17 27 3e 5e 30 f0 bd 39 e3 3d be
       -0.0773414 0.16317609 -0.11727975 -0.1854371
0000b0 f0 72 26 3e 44 ab 1b bd 4a 3d c7 bd 58 b5 13 bc
       0.16254783 -0.03800513 -0.09728487 -0.009015404
0000c0 8c a6 24 3e 94 29 e4 3d 5e a3 c9 3d 82 15 bb bd
       0.16079158 0.11140743 0.09845613 -0.09134962
0000d0 f6 5a f5 3c a5 ce 61 be f8 8b f1 3a 56 8a 70 3d
       0.0299506 -0.22051485 0.0018428555 0.058725677
0000e0 55 94 92 bb fb 85 01 bd 3a c5 08 3e cc bc e7 3d
       -0.004473249 -0.031621914 0.13356486 0.11315307
0000f0 a7 2c f7 3d bd 2a 2c be ce a3 38 3d da 59 de 3d
       0.12069064 -0.16813178 0.04507809 0.108569816
000100 e2 fd 14 3e 24 59 54 3e 0f 83 9c bd a8 89 4c bd
       0.14549974 0.2073713 -0.07642185 -0.049935967
000110 c6 d2 bf 3c 16 05 19 bd 8d 3a 16 3e d9 21 31 be
       0.023415934 -0.037358366 0.14670773 -0.17298068
000120 bc ad 2c 3e 3c e6 3f be 13 b2 2c 3d b0 bc 46 be
       0.1686315 -0.18740171 0.042162012 -0.19407916
000130 9f c6 25 3e 43 13 1e 3e 4b e6 3a bd f4 1b 23 bd
       0.16189049 0.15437035 -0.04562978 -0.03982158
000140 19 db 26 be 31 3e 1f be f6 0d 11 be 55 42 41 3e
       -0.16294517 -0.15551068 -0.14165482 0.1887296
000150 c9 21 55 3e e6 5f 5e be a9 f3 89 bd 15 4e a1 bc
       0.2081367 -0.2171627 -0.067359276 -0.019690553
000160 07 f1 e2 3d fa 3e 1f be ff 94 43 3e a6 9b 27 3e
       0.110811286 -0.15551367 0.19099806 0.16367969
000170 aa 5e f0 bc d4 32 4e 3e 6d 6d 32 bd 5f 7e 20 be
       -0.029342014 0.20136577 -0.043561388 -0.15673207
000180 08 18 48 3e 76 7f 40 be f6 a4 00 be 74 18 10 3d
       0.19540417 -0.18798622 -0.12562928 0.03517957
000190 93 0a b1 3d 34 b6 54 3c 9d af 93 3d 50 1f 4d 3d
       0.08644595 0.012982894 0.0721123 0.05007869
0001a0 1c 0c 5a 3e 93 e5 18 be 02 44 55 bc ff c6 47 be
       0.21293682 -0.14931326 -0.013016703 -0.19509505
0001b0 35 43 51 3e 97 e7 7b bc 70 dc 40 be d6 f1 52 bd
       0.20435794 -0.01537504 -0.1883409 -0.051500164
0001c0 1b b0 41 be 7f 1a 02 be 7a ac bf ba 6d 42 3d 3d
       -0.18914835 -0.1270542 -0.0014623546 0.046205927
0001d0 54 92 28 be ad ef 72 3d a4 37 e6 bd 41 07 f4 3c
       -0.1646207 0.059310604 -0.11241081 0.029788615
0001e0 50 7a 38 3e 20 4b be 3c e2 46 cc bd 1e 54 4a be
       0.18015409 0.023229182 -0.09974457 -0.1975865
0001f0 fc dc 54 3e 85 48 25 3e e8 e0 c5 bc 78 28 29 be
       0.20787424 0.16140945 -0.024155095 -0.16519344

layer.3.weight f4 [128]
000000 00 00 80 3f e3 9d 7f 3f 00 00 80 3f 00 00 80 3f
       1.0 0.9985029 1.0 1.0
000010 4f a5 80 3f b2 49 81 3f 00 00 80 3f 54 b5 7d 3f
       1.0050448 1.0100615 1.0 0.9910481
000020 50 68 7e 3f 00 00 80 3f 00 00 80 3f ec 44 81 3f
       0.9937792 1.0 1.0 1.0099158
000030 00 00 80 3f f7 6d 80 3f 00 00 80 3f 00 00 80 3f
       1.0 1.0033559 1.0 1.0
000040 ed 8d 7d 3f 00 00 80 3f 00 00 80 3f be 17 7f 3f
       0.99044687 1.0 1.0 0.996456
000050 11 e7 80 3f b4 bf 7e 3f a5 ad 7f 3f 49 26 81 3f
       1.0070516 0.99511266 0.99874336 1.0089809
000060 e0 f8 80 3f 91 44 80 3f 49 67 80 3f 30 b9 7d 3f
       1.0075951 1.0020925 1.003152 0.991107
000070 00 00 80 3f 70 50 7f 3f f6 9b 7d 3f 00 00 80 3f
       1.0 0.9973211 0.990661 1.0
000080 c3 51 80 3f 00 00 80 3f 00 00 80 3f e4 4b 7e 3f
       1.0024952 1.0 1.0 0.9933455
000090 00 00 80 3f 00 00 80 3f fd 20 81 3f 00 00 80 3f
       1.0 1.0 1.0088192 1.0
0000a0 00 00 80 3f 90 19 80 3f 39 d5 7d 3f 80 c3 7d 3f
       1.0 1.0007801 0.99153477 0.99126434
0000b0 85 9e 7f 3f d9 a0 7d 3f 29 97 80 3f 00 00 80 3f
       0.99851257 0.9907356 1.004613 1.0
0000c0 e6 2e 7f 3f 00 00 80 3f 0b f4 80 3f 00 00 80 3f
       0.99680936 1.0 1.0074476 1.0
0000d0 79 3a 80 3f e3 d8 7f 3f 00 00 80 3f 00 00 80 3f
       1.0017844 0.9994032 1.0 1.0
0000e0 65 32 81 3f 96 f5 7d 3f 00 00 80 3f 00 00 80 3f
       1.0093504 0.9920286 1.0 1.0
0000f0 df 98 7e 3f 00 00 80 3f 6d 4e 81 3f 00 00 80 3f
       0.9945201 1.0 1.0102059 1.0
000100 da 42 81 3f 00 00 80 3f 09 80 80 3f 00 00 80 3f
       1.0098526 1.0 1.0039073 1.0
000110 00 00 80 3f 00 00 80 3f 3f a9 80 3f 00 00 80 3f
       1.0 1.0 1.005165 1.0
000120 42 db 7d 3f f9 b4 80 3f 00 00 80 3f b1 49 81 3f
       0.99162686 1.0055228 1.0 1.0100614
000130 00 00 80 3f 43 bb 7e 3f 00 00 80 3f 6a c0 80 3f
       1.0 0.9950449 1.0 1.005872
000140 ba 7a 7f 3f 90 37 80 3f 00 00 80 3f 00 00 80 3f
       0.9979664 1.0016956 1.0 1.0
000150 00 00 80 3f 00 00 80 3f 00 00 80 3f 00 00 80 3f
       1.0 1.0 1.0 1.0
000160 3c 46 81 3f 00 00 80 3f 00 00 80 3f b9 16 7e 3f
       1.0099559 1.0 1.0 0.9925342
000170 00 00 80 3f 00 00 80 3f 00 00 80 3f 00 00 80 3f
       1.0 1.0 1.0 1.0
000180 00 00 80 3f 97 6a 7f 3f fe e6 7e 3f 00 00 80 3f
       1.0 0.9977202 0.99571216 1.0
000190 07 a7 7d 3f 00 00 80 3f 00 00 80 3f 1f 83 7e 3f
       0.9908299 1.0 1.0 0.99418825
0001a0 00 00 80 3f 00 00 80 3f b4 1c 80 3f 6c ae 7d 3f
       1.0 1.0 1.000876 0.9909427
0001b0 a8 9c 7d 3f cb f6 7d 3f ff f8 7d 3f 5b 3a 7f 3f
       0.99067163 0.992047 0.9920806 0.9969842
0001c0 66 f4 80 3f 00 00 80 3f 00 00 80 3f 73 ad 7f 3f
       1.0074584 1.0 1.0 0.9987404
0001d0 00 00 80 3f fe 2c 7e 3f 15 aa 7f 3f 00 00 80 3f
       1.0 0.992874 0.998689 1.0
0001e0 00 00 80 3f 00 00 80 3f 00 00 80 3f 00 00 80 3f
       1.0 1.0 1.0 1.0
0001f0 00 00 80 3f 00 00 80 3f d3 89 80 3f a8 ba 7d 3f
       1.0 1.0 1.0042061 0.9911294

layer.3.bias f4 [128]
000000 b9 02 9c 3a 0b 81 08 3b 1b 6f 6d 3b 1e 8e 5b 3b
       0.0011902667 0.0020828869 0.0036229554 0.0033501456
000010 2f 65 8c 3a f9 b3 04 bb 98 42 05 3a 69 7b b4 3b
       0.0010711307 -0.0020248874 0.00050834706 0.0055078757
000020 94 76 bf 3b a4 a4 2b 3a a6 92 e8 3b b0 9c 06 3b
       0.005842993 0.00065476657 0.00709756 0.002054017
000030 64 d7 b6 3b 57 5b b2 3b 1f 26 88 bb 85 12 4a bb
       0.005579876 0.0054430175 -0.004154935 -0.0030833792
000040 47 d4 a8 ba 42 90 8b 3b c6 1f 40 3a 08 1e 61 3a
       -0.0012880646 0.00425914 0.00073289534 0.0008587544
000050 f5 c6 0e bc 7b 21 17 bb 44 a9 95 3b af 9b e8 3a
       -0.008714427 -0.0023060727 0.004567297 0.0017746593
000060 9e ed 99 bb b0 27 fc bb 16 ef 47 bb 53 14 03 3c
       -0.0046975156 -0.007695161 -0.0030507497 0.008000451
000070 28 3e de ba 57 7a c3 3b 74 b5 f3 bb d1 8b 91 3a
       -0.001695578 0.005965512 -0.0074374024 0.0011104291
000080 61 18 a8 b9 51 d9 3d bb c7 65 ec bb 55 09 34 ba
       -0.0003206162 -0.0028968642 -0.0072142812 -0.00068678457
000090 ba d3 e1 ba 7f dd 00 39 58 54 ac 3a 8a a5 4c bb
       -0.0017229237 0.00012289545 0.0013147695 -0.0031226599
0000a0 ba e9 15 bc ce 2e 39 ba a7 f9 bf 3b 8b 55 d0 3b
       -0.009149963 -0.00070641644 0.0058586183 0.0063578538
0000b0 dc 82 28 3a 78 2e df bb 0a 5a a3 bb a1 ac 9e bb
       0.0006428191 -0.0068109594 -0.0049850987 -0.0048423563
0000c0 af 04 a0 39 0a 8a 05 3b 55 bd a8 3b ec 7f ea bb
       0.00030521068 0.0020376467 0.0051495233 -0.0071563628
0000d0 7c 8b 48 3b c0 2c 8c ba 30 d3 ca bb 0e 87 28 3b
       0.0030600717 -0.0010694489 -0.0061897263 0.0025715264
0000e0 2b 3e 99 3b a9 b9 74 bb e8 c3 d9 bb 1a 71 77 bb
       0.0046766005 -0.0037342107 -0.0066456683 -0.0037756623
0000f0 82 5a d2 3b 02 53 cd bb 80 50 ee bb 91 0b 1c ba
       0.006419481 -0.006265999 -0.00727278 -0.0005952651
000100 ff cb e2 bb 5c 62 cb bb 8b 5c 4e 3b 66 ab 0b 3b
       -0.006921291 -0.0062067937 0.0031488265 0.0021311878
000110 b3 c2 fd bb 89 b4 0f 3a 02 d8 34 3b 72 14 a4 bb
       -0.007744157 0.0005481919 0.002759457 -0.00500732
000120 f3 00 7d 3b 3e c0 34 3a df 91 f0 bb 49 34 33 3b
       0.0038605302 0.00068951014 -0.007341608 0.0027344397
000130 45 04 d7 bb dd 76 ae 3b 6a db eb 3a bc dd b6 bb
       -0.0065617883 0.005324228 0.0017994468 -0.005580632
000140 3a 8d 75 b8 70 12 15 3b 18 b0 89 bb ca 43 50 bb
       -5.854408e-05 0.0022746585 -0.0042019 -0.0031778687
000150 6c 7b ed 3b 29 3a 2b 3a 2b a6 cf 3b e0 97 6f 3b
       0.007247379 0.0006531799 0.0063369474 0.003655903
000160 12 f0 f2 3b 62 3b 2c 3b c9 d7 a2 bb 86 61 f8 b9
       0.0074138725 0.0026280512 -0.0049695713 -0.00047374907
000170 9f 6b b1 3a 45 0d c8 3b ee 46 a4 ba bc a6 2e 3b
       0.0013536102 0.0061050975 -0.0012533346 0.0026649674
000180 0f 45 a7 bb 32 71 01 bc 4c 21 2b bb d4 e7 1c bb
       -0.005104668 -0.007900523 -0.0026112376 -0.0023941891
000190 cd 56 e6 ba 97 52 eb 3a 67 5a da 3a d7 7e d1 3b
       -0.0017573476 0.0017953691 0.0016659022 0.0063932943
0001a0 3b e8 ed 3b d0 86 71 3b e5 7a 1e 3b d8 3c 34 bb
       0.00726035 0.0036854036 0.0024182138 -0.0027502086
0001b0 6c 5c 31 bb dd d3 6f bb 48 01 8b bb 48 1f 28 3b
       -0.0027063144 -0.0036594786 -0.004242096 0.002565341
0001c0 6c cf c9 bb 02 37 29 36 c9 d1 32 bb e3 00 20 bb
       -0.00615876 2.5214981e-06 -0.0027285686 -0.002441459
0001d0 40 de d4 bb 28 c4 81 b9 93 5f e7 3a fb 6f 04 3b
       -0.006496221 -0.00024750945 0.0017652385 0.0020208347
0001e0 0a 10 63 3b fd 2f 3e 3b 61 fb ea 3b 5b 32 3e bb
       0.0034647011 0.0029020302 0.00717108 -0.0029021713
0001f0 06 71 a2 3b e1 13 a9 3b 60 aa 84 bb 14 a9 db 3b
       0.004957321 0.0051598405 -0.0040486306 0.0067035053

layer.3.running_mean f4 [128]
000000 00 00 00 00 58 02 9a 43 00 00 00 00 00 00 00 00
       0.0 308.0183 0.0 0.0
000010 6e 1a 93 3f 58 aa 86 42 00 00 00 00 08 a4 86 3d
       1.1492441 67.3327 0.0 0.06574255
000020 d4 e6 a8 43 00 00 00 00 00 00 00 00 7d bb ba 42
       337.80334 0.0 0.0 93.36619
000030 00 00 00 00 d0 2e a2 43 00 00 00 00 00 00 00 00
       0.0 324.36572 0.0 0.0
000040 fd d5 b2 42 00 00 00 00 00 00 00 00 ba ea ae 43
       89.417946 0.0 0.0 349.8338
000050 30 4d 09 41 7e dc 91 43 1b cd c4 43 88 44 8e 40
       8.581345 291.7226 393.6024 4.4458656
000060 d4 31 5f 3f 6d 24 05 42 d6 55 8f 43 a5 a2 95 42
       0.87185407 33.285572 286.6706 74.817665
000070 00 00 00 00 24 cc 89 43 94 e7 2f 42 00 00 00 00
       0.0 275.59485 43.97615 0.0
000080 a5 b4 bd 43 00 00 00 00 00 00 00 00 90 08 bd 42
       379.4113 0.0 0.0 94.51672
000090 00 00 00 00 00 00 00 00 9c db 6e 40 00 00 00 00
       0.0 0.0 3.732154 0.0
0000a0 00 00 00 00 54 45 b7 43 e6 6b a5 42 ea 09 5e 43
       0.0 366.54163 82.71074 222.03873
0000b0 fa 51 38 43 65 4f c3 43 3a a6 71 43 00 00 00 00
       184.32022 390.62027 241.64932 0.0
0000c0 95 ee 7d 43 00 00 00 00 e1 0c 6e 43 00 00 00 00
       253.93196 0.0 238.05031 0.0
0000d0 2f 97 b5 43 24 f1 96 43 00 00 00 00 00 00 00 00
       363.18112 301.8839 0.0 0.0
0000e0 f4 e6 e4 42 e5 93 b0 42 00 00 00 00 00 00 00 00
       114.45108 88.28886 0.0 0.0
0000f0 ed 6f 83 42 00 00 00 00 de 48 87 41 00 00 00 00
       65.718605 0.0 16.91058 0.0
000100 4e df 7c 42 00 00 00 00 65 28 45 43 00 00 00 00
       63.21807 0.0 197.15779 0.0
000110 00 00 00 00 00 00 00 00 7b 87 65 42 00 00 00 00
       0.0 0.0 57.382305 0.0
000120 4d 0c 9b 43 e9 a3 3f 43 00 00 00 00 07 31 fa 40
       310.0961 191.64027 0.0 7.818485
000130 00 00 00 00 57 0d 7f 43 00 00 00 00 05 ac 48 43
       0.0 255.05211 0.0 200.67195
000140 99 24 37 43 1e 25 64 43 00 00 00 00 00 00 00 00
       183.14296 228.14499 0.0 0.0
000150 00 00 00 00 00 00 00 00 00 00 00 00 00 00 00 00
       0.0 0.0 0.0 0.0
000160 94 f2 19 42 00 00 00 00 00 00 00 00 97 19 81 43
       38.486893 0.0 0.0 258.19992
000170 00 00 00 00 00 00 00 00 00 00 00 00 00 00 00 00
       0.0 0.0 0.0 0.0
000180 00 00 00 00 36 9a 68 43 d0 95 1e 43 00 00 00 00
       0.0 232.60239 158.5852 0.0
000190 e9 06 f1 3e 00 00 00 00 00 00 00 00 ef 3d c9 42
       0.47075585 0.0 0.0 100.620964
0001a0 00 00 00 00 00 00 00 00 64 d7 60 43 c2 af a4 41
       0.0 0.0 224.84137 20.58582
0001b0 8d f7 8e 43 07 7a c0 43 a8 91 d7 43 54 b5 c5 43
       285.934 384.95334 431.13794 395.41663
0001c0 ba 02 df 42 00 00 00 00 00 00 00 00 de 49 9b 42
       111.505325 0.0 0.0 77.64427
0001d0 00 00 00 00 d6 48 bf 43 34 e8 67 43 00 00 00 00
       0.0 382.56903 231.90704 0.0
0001e0 00 00 00 00 00 00 00 00 00 00 00 00 00 00 00 00
       0.0 0.0 0.0 0.0
0001f0 00 00 00 00 00 00 00 00 65 d6 29 43 d6 f7 58 43
       0.0 0.0 169.83748 216.96811

layer.3.running_var f4 [128]
000000 58 69 8d 39 d6 26 04 47 58 69 8d 39 58 69 8d 39
       0.00026972103 33830.836 0.00026972103 0.00026972103
000010 27 7a 06 42 56 4b 29 45 58 69 8d 39 72 b6 5e 3f
       33.61929 2708.7085 0.00026972103 0.8699714
000020 39 06 1a 47 58 69 8d 39 58 69 8d 39 51 6d 82 45
       39430.223 0.00026972103 0.00026972103 4173.6646
000030 58 69 8d 39 77 a4 0c 47 58 69 8d 39 58 69 8d 39
       0.00026972103 36004.465 0.00026972103 0.00026972103
000040 3f 96 72 45 58 69 8d 39 58 69 8d 39 d7 0b 20 47
       3881.3904 0.00026972103 0.00026972103 40971.84
000050 f8 39 ff 42 28 3b e0 46 7b 0a 4a 47 31 19 0b 42
       127.61322 28701.578 51722.48 34.7746
000060 5d d4 1d 42 67 79 3d 45 ec 6d e2 46 0e 01 10 45
       39.457386 3031.5876 28982.96 2304.066
000070 58 69 8d 39 cc c7 c3 46 80 af 44 44 58 69 8d 39
       0.00026972103 25059.898 786.7422 0.00026972103
000080 28 79 44 47 58 69 8d 39 58 69 8d 39 d5 33 9b 45
       50297.156 0.00026972103 0.00026972103 4966.479
000090 58 69 8d 39 58 69 8d 39 f1 b6 84 43 58 69 8d 39
       0.00026972103 0.00026972103 265.42923 0.00026972103
0000a0 58 69 8d 39 a6 05 37 47 b0 6d 56 45 38 f8 8f 46
       0.00026972103 46853.65 3430.8555 18428.11
0000b0 8b 97 34 46 d9 1a 4a 47 aa 9b ae 46 58 69 8d 39
       11557.886 51738.848 22349.832 0.00026972103
0000c0 a6 01 b1 46 58 69 8d 39 6a 3d 9d 46 58 69 8d 39
       22656.824 0.00026972103 20126.707 0.00026972103
0000d0 cc 3e 2b 47 2b cf f5 46 58 69 8d 39 58 69 8d 39
       43838.797 31463.584 0.00026972103 0.00026972103
0000e0 32 f4 ac 45 9c b7 74 45 58 69 8d 39 58 69 8d 39
       5534.5244 3915.4756 0.00026972103 0.00026972103
0000f0 8f 11 20 45 58 69 8d 39 95 91 94 43 58 69 8d 39
       2561.0974 0.00026972103 297.13736 0.00026972103
000100 21 8a 08 45 58 69 8d 39 54 44 58 46 58 69 8d 39
       2184.633 0.00026972103 13841.082 0.00026972103
000110 58 69 8d 39 58 69 8d 39 d6 a3 e0 44 58 69 8d 39
       0.00026972103 0.00026972103 1797.1199 0.00026972103
000120 d3 be 00 47 66 62 45 46 58 69 8d 39 12 4d cc 42
       32958.824 12632.6 0.00026972103 102.15053
000130 58 69 8d 39 1a 88 a8 46 58 69 8d 39 d1 09 61 46
       0.00026972103 21572.05 0.00026972103 14402.454
000140 38 28 34 46 f5 45 91 46 58 69 8d 39 58 69 8d 39
       11530.055 18594.979 0.00026972103 0.00026972103
000150 58 69 8d 39 58 69 8d 39 58 69 8d 39 58 69 8d 39
       0.00026972103 0.00026972103 0.00026972103 0.00026972103
000160 83 1b 42 44 58 69 8d 39 58 69 8d 39 2d 6b b8 46
       776.4299 0.00026972103 0.00026972103 23605.588
000170 58 69 8d 39 58 69 8d 39 58 69 8d 39 58 69 8d 39
       0.00026972103 0.00026972103 0.00026972103 0.00026972103
000180 58 69 8d 39 75 48 91 46 fe 9d 07 46 58 69 8d 39
       0.00026972103 18596.229 8679.498 0.00026972103
000190 2b df 81 41 58 69 8d 39 58 69 8d 39 1d ca 53 45
       16.233969 0.00026972103 0.00026972103 3388.632
0001a0 58 69 8d 39 58 69 8d 39 77 19 85 46 31 0f 0b 43
       0.00026972103 0.00026972103 17036.732 139.05934
0001b0 02 ed dd 46 b4 48 43 47 dc a3 72 47 db ba 52 47
       28406.504 49992.703 62115.86 53946.855
0001c0 22 a2 9e 45 58 69 8d 39 58 69 8d 39 c0 b8 04 45
       5076.2666 0.00026972103 0.00026972103 2123.5469
0001d0 58 69 8d 39 1b 73 45 47 dd b9 8e 46 58 69 8d 39
       0.00026972103 50547.105 18268.932 0.00026972103
0001e0 58 69 8d 39 58 69 8d 39 58 69 8d 39 58 69 8d 39
       0.00026972103 0.00026972103 0.00026972103 0.00026972103
0001f0 58 69 8d 39 58 69 8d 39 3e 0a 1b 46 9b 19 80 46
       0.00026972103 0.00026972103 9922.561 16396.803

layer.4.weight f4 [64, 128]
000000 62 7c 38 3d ef 97 4f bd c6 88 8b bd 15 07 4b bd
       0.045040496 -0.050682005 -0.06813197 -0.0495673
000010 aa 44 72 3d a3 1b 95 3d d5 bb 6c 3d 3e 7d 28 bb
       0.059147514 0.07280662 0.057796318 -0.0025709416
000020 5c a0 0a 3d 1a 56 6b 3d d0 64 5c 3d a1 08 3b 3d
       0.033844337 0.05745516 0.05380708 0.045662526
000030 d3 4f 9a 3c 3f a5 94 bd d0 e2 93 bd fc 74 79 bb
       0.018836891 -0.07258081 -0.072209954 -0.0038064113
000040 f2 64 84 3d ea 63 4e bd 68 98 cb 3c b0 6c 2a bd
       0.06464566 -0.050388254 0.024852946 -0.04160756
000050 77 37 3f 3c 52 d0 0f bd eb 57 5d 3d b6 e6 6e 3d
       0.011670939 -0.03511078 0.054038923 0.05832549
000060 b9 97 8c bc f5 27 be bd a4 41 77 bc dd 00 8d bd
       -0.01716219 -0.09284965 -0.015091334 -0.0688493
000070 94 c7 a4 3c 60 c6 3c bb eb ba 8f b8 af 77 3e bd
       0.020114698 -0.0028804764 -6.8535875e-05 -0.046500858
000080 34 83 3f bd 06 3c 27 3d a8 83 e4 bc 1d 2a 0f bd
       -0.046755984 0.040828727 -0.02789481 -0.03495227
000090 e8 56 83 bd 49 6d 88 3d d4 c5 52 bd 5f 3b 00 3d
       -0.064130604 0.066614695 -0.051458195 0.03130662
0000a0 da da 71 3d 8f 29 a1 3d 81 a6 ea 3b 74 e8 53 bd
       0.059046604 0.07869255 0.007160962 -0.051735356
0000b0 0f 1c b1 3d bd 47 74 bd 06 46 14 bc 04 1c ae bd
       0.0864793 -0.059638727 -0.009049898 -0.08501437
0000c0 b4 ff 99 bd 96 91 d6 3c bf 08 87 bd 87 f4 9d bd
       -0.075194746 0.026192468 -0.06593465 -0.077126555
0000d0 80 be 49 bd 2b d0 7e 3d 0d 67 83 3c 5a 28 ab bd
       -0.04925394 0.062210243 0.01604035 -0.08357306
0000e0 b6 d7 cf 3c ae ce 8b 3c 42 40 8c 3d 55 76 3d 3d
       0.025371414 0.017066326 0.06848194 0.04625543
0000f0 24 6d bd 3d 1d dc e2 3b e6 b6 8e 3d 6c d1 0e bd
       0.092493325 0.006923212 0.06968479 -0.03486769
000100 8a 7f fd 3c 74 fa 45 bb 31 1d 4d bd fc e5 45 bd
       0.030944604 -0.0030209096 -0.050076667 -0.048315033
000110 12 4c 9d 3d ee f2 13 3d 66 bc 82 bd b0 02 8e bd
       0.07680525 0.036120348 -0.063835904 -0.06934106
000120 71 51 21 3d 1c 77 e0 3c 5a 71 c4 bc bf 04 b3 3d
       0.03938431 0.027400546 -0.023979831 0.087411396
000130 a8 f8 62 3c e5 83 29 3d c1 f4 6f bd d3 81 fd 3c
       0.01385323 0.04138555 -0.058583025 0.030945694
000140 46 96 f7 ba 88 c3 8b bd 92 4b e3 bc 22 6c 87 3d
       -0.001888939 -0.06824404 -0.027745996 0.066124216
000150 3c 5e 7f 3d 6f d0 de 3b fa 08 67 3d 57 0c cb 3c
       0.06234573 0.0067997496 0.056405045 0.024786158
000160 a0 03 dd bc 01 15 06 bd e2 12 a1 3d 7d 4b 3c bd
       -0.026979268 -0.032734875 0.0786493 -0.04597043
000170 86 f4 00 bd 44 41 13 3c 12 c6 98 3c 43 30 e9 bc
       -0.031483196 0.0089877285 0.018649135 -0.028465396
000180 f6 a4 8e 3d 7a 77 f3 bc 5c 1d 21 bd 1a ce 8a 3d
       0.069650576 -0.029720057 -0.03933464 0.06777592
000190 67 9a a4 3d b4 1c 10 bd 8d 1e 79 3d 81 b5 58 3d
       0.080372624 -0.035183623 0.06082015 0.05290747
0001a0 46 d9 c2 3c 44 10 3b 3d 85 33 fc 3c a7 14 9b bd
       0.023785245 0.04566981 0.030786285 -0.075722985
0001b0 d3 3a 19 3c da f6 8f 3d 2d c8 00 bc a8 a0 01 3d
       0.009352404 0.07029505 -0.007860226 0.031647354
0001c0 18 56 8c 3d 90 9b 2b 3d 30 22 18 bd 57 21 ae bd
       0.068523586 0.041896403 -0.03714198 -0.08502453
0001d0 5a cd 14 3d bb 5b 4a bd 08 24 9c 3c 8f 93 9c 3c
       0.03632865 -0.049403887 0.01906015 0.01911333
0001e0 f4 6a ec 3b be c5 5d bc f3 f4 94 3b 34 7b 43 bd
       0.0072148982 -0.013535915 0.004545802 -0.047724918
0001f0 88 b9 e7 bc b0 f4 d0 3c 04 d9 37 3d d9 bf ac bd
       -0.02828671 0.025507301 0.044884697 -0.084350295
000200 8e e9 40 bb a7 cb ed bc 37 a2 8d 3d 10 4f 9f 3d
       -0.0029436084 -0.029027773 0.06915706 0.07778752
000210 14 d3 8c bd 0a 22 a3 3d f0 44 19 bb 71 9a d3 b9
       -0.068761975 0.07965477 -0.0023387037 -0.00040360124
000220 e0 2d d6 3b 9e aa 82 3c c6 6d a0 3d c0 b5 c1 3d
       0.0065362304 0.015950497 0.078334376 0.09458494
000230 13 2c ad 3d 40 df 9f 3d b5 3a 58 3b 9b 90 67 bd
       0.08455672 0.078062534 0.0032993976 -0.05653439
000240 89 52 43 bc a6 79 05 bd 9d 27 58 bd 6c 9a 9c 3d
       -0.011921533 -0.032586716 -0.052772153 0.07646641
000250 22 2d 0a bc 7c 9e 08 3c a2 20 e9 bb ba 84 98 bd
       -0.008433612 0.008338567 -0.007114486 -0.074471906
000260 cc 6b 81 3c 05 72 98 bd 35 ca a9 bb 13 35 54 3d
       0.015798472 -0.074436225 -0.0051815757 0.051808428
000270 e9 4f 8a 3d 08 ef 79 bd ca 95 9b bd 18 6f a0 3d
       0.06753523 -0.061018974 -0.07596929 0.078336895
000280 18 52 3d 3c 8d 64 04 3d c5 27 ef bc d0 f6 a1 bb
       0.011555217 0.032322455 -0.029193768 -0.0049427524
000290 f1 11 8b bd d0 57 80 37 57 4b 76 3d ac e5 18 3b
       -0.067905314 1.529968e-05 0.060130443 0.0023330254
0002a0 1a 7a 98 bd 96 37 95 bd 09 2a ca 3c fc 64 4a 3b
       -0.07445164 -0.07285993 0.024678247 0.0030882945
0002b0 f1 ca 92 bd d2 f7 2d bb cf bb 9e 3d eb 60 91 bd
       -0.07167614 -0.0026545417 0.077506654 -0.07098564
0002c0 79 cc 0e bd 1d 07 41 bd 15 a0 ff bc db e3 8b bd
       -0.03486297 -0.047125924 -0.031204263 -0.06830569
0002d0 d4 39 5d bd 30 66 68 bd 34 b1 a0 bd d2 c6 b7 bc
       -0.054010227 -0.05673808 -0.07846299 -0.022433672
0002e0 45 39 93 3d b8 f7 e7 3c 1a 1b 27 bd eb 3a 46 bc
       0.07188658 0.028316364 -0.04079733 -0.012099008
0002f0 65 ef ae 3d b8 d4 34 bd 88 f8 08 3d 39 2d 6f bd
       0.08541755 -0.044148177 0.033440143 -0.058392737
000300 3c 0f a0 3d 20 7f e3 bc 29 cd 14 bd 04 c5 3e 3d
       0.07815406 -0.027770579 -0.03632847 0.046574607
000310 c2 4e 92 bb 24 35 03 bd e8 dd 63 3d 48 68 6e 3d
       -0.004464955 -0.0320331 0.05563155 0.05820492
000320 3e 2f e1 bb 6b 83 7f 3d c2 5b 85 bd ce 17 d2 3b
       -0.006872087 0.06238119 -0.06511642 0.006411529
000330 22 61 0b bd 6e 9a 32 bd cc b8 22 bd a0 be d0 3c
       -0.03402818 -0.043604307 -0.039727017 0.025481522
000340 43 7c 8c 3d cb 36 68 bd 94 29 99 3c 4b 67 f3 bc
       0.068596385 -0.05669288 0.018696584 -0.02971234
000350 c9 5e 46 3d d1 79 57 bd 11 21 04 bd e5 46 9f bd
       0.048430238 -0.052606408 -0.032258097 -0.07777194
000360 71 af 73 bd 08 5d 86 bc 35 88 2c 3c 06 55 48 bd
       -0.059493486 -0.016401783 0.010530521 -0.04890921
000370 68 f2 36 bd 0f 97 9b 3d 03 51 c3 ba 32 89 30 bd
       -0.04466477 0.075971715 -0.0014901463 -0.04309959
000380 11 57 1f bd 35 4b 7a bc dc 61 a9 3d aa fb cf bc
       -0.038901392 -0.01527672 0.08270618 -0.025388557
000390 31 b5 4e 3d 87 46 92 3d 95 ce 81 3d 8f 48 15 bd
       0.050465766 0.07142358 0.063382305 -0.03644615
0003a0 bd 50 2b bc 58 74 65 3d da 77 94 3d 6a a7 2a 3d
       -0.010456261 0.056019157 0.07249422 0.041663565
0003b0 b7 5a 86 3c 01 43 71 bd 34 e4 1e 3d 84 e8 e3 bc
       0.016400678 -0.05890179 0.03879185 -0.027820833
0003c0 1a 8b f5 bc 60 3a 64 3d f2 03 c2 3c e6 52 83 3d
       -0.029973555 0.055719733 0.023683522 0.06412296
0003d0 a4 8f 10 bd 56 07 75 3c 13 7d 8e bd 6f f5 58 3d
       -0.035293236 0.014955362 -0.0695745 0.05296844
0003e0 79 e1 de 3c 75 04 71 bc d1 93 3f bd ce 40 80 bd
       0.027207123 -0.014710535 -0.046771828 -0.062623605
0003f0 21 9e 0f bd 37 f0 3e 3d 0b 84 a9 bd 97 cf 06 3d
       -0.035062913 0.046615805 -0.08277138 0.032912817

layer.4.bias f4 [64]
000000 1a 34 72 3d dc af 88 3d c8 14 2d 3c 22 85 f5 3c
       0.05913172 0.066741675 0.010564037 0.02997071
000010 52 a4 85 3d df 05 45 bc 5a 9b a4 3d 2b b0 0a bd
       0.06525482 -0.012025326 0.080374435 -0.033859413
000020 fb 8f c5 bc 83 60 bc 3d 83 4e 53 bd ad 57 91 3b
       -0.024116507 0.09198096 -0.051588546 0.0044355006
000030 47 77 1c 3c e0 47 9a 3d a0 3d bc bc 3f d0 c9 3c
       0.009549922 0.0753324 -0.022978604 0.024635432
000040 e6 c2 7b 3d 58 f8 37 bd 36 d0 f3 3c 64 af b0 bd
       0.061465167 -0.044914573 0.029762369 -0.08627203
000050 28 f4 48 bd 96 fe 05 bd 8b 8f e1 3c ed 28 2d bd
       -0.04906097 -0.032713495 0.027534267 -0.042275358
000060 ab d0 6f bb 9e 4d 99 3d 09 2c 9d bd b6 4d cf 3b
       -0.0036592882 0.074855074 -0.07674415 0.0063264025
000070 51 9d ce 3c c0 5b 87 bd d4 46 c7 3c 6e e3 8a 3d
       0.025221499 -0.06609297 0.024325766 0.0678166
000080 13 54 12 bc 7c a9 36 3b 13 d5 72 3d 93 3a 4f 3d
       -0.008931178 0.0027872017 0.059285235 0.05059297
000090 0a c7 d3 3c ce 81 37 bd f9 cc 84 3d a5 45 eb bc
       0.025851745 -0.044801526 0.06484408 -0.028719733
0000a0 9b fc 82 bd 05 70 50 3c 09 43 95 3d 83 b2 59 bc
       -0.06395837 0.01272202 0.072881766 -0.013287189
0000b0 5d a7 91 3b ce e0 7c bd 2e 6c b9 bc 1f 53 7c bd
       0.004445 -0.061737828 -0.022634592 -0.061602708
0000c0 32 27 f6 3a be 43 92 bd fd db a0 bc b3 9f 59 bd
       0.0018779992 -0.07141827 -0.019636149 -0.053130817
0000d0 66 c2 59 bd b7 7d 74 3b fe 38 c2 3c 53 74 2d bd
       -0.05316391 0.0037306377 0.023708817 -0.042347264
0000e0 29 48 31 bd 27 15 5d 3c 25 4c 43 bd d8 a1 c4 3b
       -0.043281708 0.013493813 -0.04768004 0.0060007386
0000f0 3e 2f 47 bd 60 63 7f bd 94 eb 68 3d 80 ff ac 3c
       -0.048629038 -0.06235063 0.05686529 0.021117926

layer.7.weight f4 [64]
000000 63 0e 81 3f 6a fb 80 3f 65 8a 7f 3f f8 2d 80 3f
       1.0082515 1.0076725 0.9982055 1.0014029
000010 46 d0 80 3f 20 d2 7f 3f b0 10 81 3f a5 73 7f 3f
       1.006356 0.9993 1.0083218 0.99785835
000020 bc fd 7d 3f 74 2d 7f 3f cd 26 80 3f 77 10 81 3f
       0.9921529 0.9967873 1.0011841 1.008315
000030 9b 48 81 3f 5a d6 7d 3f 9b 2f 81 3f a1 31 81 3f
       1.0100282 0.991552 1.0092653 1.009327
000040 30 44 81 3f 82 d0 80 3f 29 42 81 3f fa c5 80 3f
       1.0098934 1.0063632 1.0098315 1.0060418
000050 a3 3f 81 3f 3f 6f 80 3f 6b 65 7e 3f c5 17 81 3f
       1.0097545 1.003395 0.993735 1.0085379
000060 a1 36 81 3f a4 49 81 3f e1 13 7e 3f ab 96 7d 3f
       1.0094796 1.0100598 0.9924908 0.99058026
000070 9d 93 7e 3f fb 84 80 3f 3b e3 7d 3f 05 43 81 3f
       0.9944399 1.0040582 0.9917485 1.0098578
000080 06 44 81 3f f6 48 81 3f 61 06 7e 3f 08 0b 81 3f
       1.0098884 1.0100391 0.99228483 1.0081491
000090 89 0a 81 3f 2f 30 81 3f df a5 80 3f 0c 7e 7e 3f
       1.008134 1.009283 1.005062 0.9941108
0000a0 9d ec 7d 3f 95 31 81 3f 65 aa 7d 3f 1c 2f 80 3f
       0.9918917 1.0093256 0.99088126 1.0014377
0000b0 0f 7b 7f 3f 00 29 80 3f 60 c6 7d 3f e2 a2 80 3f
       0.9979715 1.0012512 0.9913082 1.0049708
0000c0 f8 d7 7f 3f 80 91 80 3f 33 04 80 3f 5c 57 7f 3f
       0.9993892 1.0044403 1.0001281 0.99742675
0000d0 ba 4f 80 3f 26 7f 80 3f 83 d0 7f 3f bf 49 80 3f
       1.0024331 1.0038803 0.9992754 1.0022506
0000e0 96 3d 81 3f c1 ad 80 3f 65 db 80 3f 27 73 80 3f
       1.009692 1.0053025 1.0066954 1.0035142
0000f0 dd 17 7f 3f c8 30 80 3f 1f 22 81 3f 28 45 81 3f
       0.9964579 1.0014887 1.0088538 1.009923

layer.7.bias f4 [64]
000000 8d 3e 02 bc 69 14 b9 ba dd b0 ec bb 9c 90 e4 3b
       -0.007949484 -0.0014120463 -0.007223232 0.0069752466
000010 42 96 0c bc 73 9d 1a bb f3 e6 0a 3c 4c 57 13 bc
       -0.008580746 -0.0023592382 0.008477914 -0.008992981
000020 4d 7e 27 bc c7 e2 21 bc e2 38 fc 3b 0e fa 23 bc
       -0.010222984 -0.009880728 0.0076972106 -0.010008348
000030 53 2a e5 bb de 44 20 3c ac 32 06 bc 0a 47 3c 3b
       -0.006993571 0.009782044 -0.008190792 0.0028728866
000040 a5 33 1d 3c c1 cd 24 bc 38 04 63 bb 90 37 24 bc
       0.009594833 -0.010058821 -0.0034639966 -0.010023013
000050 5b 4e 4f 3b 09 4c 26 3c a4 e9 d8 bb 7c 71 85 3b
       0.0031632397 0.010149964 -0.006619649 0.0040723663
000060 dc dc 1c bc ec ca e5 bb 6b be c5 ba 99 b1 70 3b
       -0.009574141 -0.0070127156 -0.0015086656 0.003672695
000070 ad 1d 13 bc 26 23 1f bc 1a c1 a7 bb c6 cf e6 bb
       -0.008979243 -0.00971297 -0.005119455 -0.0070438115
000080 5e b0 20 bc a0 8d 21 bc 70 0a ef bb a9 b3 26 3c
       -0.009807674 -0.009860426 -0.0072949454 0.01017467
000090 41 f2 0c 3c 79 8a 06 3c 5b 42 05 3c 39 2d 25 3c
       0.00860268 0.008211725 0.008133496 0.010081583
0000a0 28 41 20 3c f4 65 9b bb d5 03 db bb 3c 61 15 bc
       0.009781159 -0.0047423784 -0.0066838064 -0.009117421
0000b0 f7 1a 82 39 2d 46 58 3a c0 3a 1f 3b 6d 35 ae 3a
       0.00024815623 0.0008250203 0.0024296492 0.0013291069
0000c0 bc 70 cf bb 20 e1 ed bb 0c 06 07 bc 68 02 b8 bb
       -0.0063305777 -0.007259503 -0.008241188 -0.005615521
0000d0 e3 cb af 3b b2 ec c9 bb c3 7f 23 bc 4a a3 21 bc
       0.0053648814 -0.0061622495 -0.009979191 -0.009865591
0000e0 94 ab 4d 3b 41 64 ce bb ec 58 26 3c 3d 0c 80 bb
       0.0031382786 -0.0062985723 0.010153037 -0.003907709
0000f0 3f ed 20 bc a7 8b 09 bc 6c be 1b 3c 89 ac ee 3b
       -0.009822189 -0.008395112 0.009505849 0.0072837514

layer.7.running_mean f4 [64]
000000 da 18 4b 3e 9b cf 5f 3e 14 21 2d 3e ee 0f 27 3e
       0.19833699 0.21856539 0.1690715 0.1631467
000010 3e cc 4d 3e 6d b1 19 3e c3 70 64 3e e8 9c 13 3e
       0.20097443 0.15009089 0.2230864 0.14415324
000020 60 a8 17 3e aa 4a 53 3e 17 9e 13 3e ae bc 27 3e
       0.14810324 0.20633951 0.14415775 0.1638057
000030 20 92 32 3e fe e7 41 3e 97 b5 2f 3e 78 9e 57 3e
       0.17438555 0.18936154 0.17159115 0.21056545
000040 ee 30 6e 3e 74 4c 28 3e 7b b1 73 3e 86 25 e5 3d
       0.23260853 0.16435415 0.23798172 0.11188798
000050 48 24 36 3e 0a 53 19 3e 72 0b 26 3e 7c 68 11 3e
       0.17787278 0.14973083 0.16215304 0.14200014
000060 8c 1d 21 3e 1e dd 77 3e 48 44 f4 3d ff 14 10 3e
       0.15733927 0.24205443 0.11927086 0.1407051
000070 2d a3 44 3e 44 31 00 3e ee 81 38 3e 16 3e 64 3e
       0.19202872 0.12518793 0.18018314 0.22289309
000080 62 5f 3e 3e 23 d6 26 3e e0 67 40 3e 7a d3 34 3e
       0.18591073 0.16292624 0.18789625 0.17658797
000090 57 0b 42 3e 6d fb 23 3e 7f 8c 49 3e 8e 41 1f 3e
       0.18949638 0.1601388 0.19682501 0.15552351
0000a0 5d d9 f5 3d ab 9b 64 3e 27 af 43 3e b1 5e 1c 3e
       0.120043494 0.22325008 0.19109784 0.15270497
0000b0 9a 0c 2a 3e 3c 36 1d 3e 21 a0 0a 3e a6 6d 09 3e
       0.1660637 0.1535272 0.13537647 0.13420734
0000c0 8b ab 16 3e d3 15 11 3e f0 31 0f 3e b6 34 09 3e
       0.14713876 0.14168482 0.13983893 0.13399014
0000d0 a9 a4 f6 3d 24 ef 0e 3e c1 19 3f 3e 94 2b 12 3e
       0.12043125 0.13958412 0.18662168 0.14274436
0000e0 64 c0 28 3e b3 d5 3f 3e d3 48 12 3e 8e 0c 19 3e
       0.16479641 0.18733864 0.14285593 0.14946195
0000f0 2d 5a 14 3e 6a f5 03 3e 82 05 46 3e 74 59 3a 3e
       0.14487524 0.12886587 0.19338039 0.18198186

layer.7.running_var f4 [64]
000000 60 88 07 3e 07 ad 11 3e a1 34 d3 3d 2d 8b c8 3d
       0.13235617 0.14226161 0.103127725 0.09792171
000010 cc 04 18 3e 76 c3 b9 3d 84 d3 1e 3e 64 bd bd 3d
       0.1484558 0.09070484 0.15510374 0.09264639
000020 5d 7e b7 3d 8d 78 fa 3d 09 cd b5 3d a6 6e cd 3d
       0.08959649 0.122300245 0.08876998 0.1003087
000030 e3 39 1b 3e 9a 5b e3 3d a2 06 04 3e 66 31 1e 3e
       0.15158801 0.11101456 0.12893155 0.15448532
000040 04 57 24 3e 1a 99 2f 3e 94 90 6c 3e b9 79 82 3d
       0.16048819 0.17148247 0.23102027 0.06370873
000050 50 47 04 3e d0 5e c0 3d ae d9 be 3d 40 06 d0 3d
       0.12917829 0.09393084 0.09318863 0.10157442
000060 14 9d db 3d 56 4c 73 3e 4f fa 95 3d a0 eb 9f 3d
       0.1072332 0.23759589 0.07323133 0.07808614
000070 a9 74 03 3e 85 35 92 3d a3 26 13 3e 81 45 1b 3e
       0.12837471 0.07139114 0.14370207 0.15163232
000080 50 b2 3e 3e 1a e3 c9 3d 78 d8 ee 3d 5c 41 de 3d
       0.18622708 0.09857769 0.11662382 0.1085231
000090 ad 53 f4 3d 38 11 d2 3d 8c c7 f9 3d aa a9 d1 3d
       0.119300224 0.102571905 0.12196264 0.10237439
0000a0 86 f1 8c 3d eb e1 66 3e 71 54 1d 3e 2a 98 b4 3d
       0.068820044 0.22547118 0.15364243 0.088180855
0000b0 2c d8 d5 3d cc 59 f1 3d 3f 99 a8 3d 70 bf a2 3d
       0.10441622 0.117847055 0.082323544 0.0794667
0000c0 29 8d a4 3d 6c d8 b0 3d 67 01 a8 3d ae a4 c7 3d
       0.08034737 0.08635029 0.082033925 0.09748207
0000d0 72 66 8b 3d 59 e3 9c 3d 21 9d f8 3d 5b 52 c7 3d
       0.06806649 0.076605506 0.12139345 0.09732505
0000e0 cd ba 31 3e f5 cb 1f 3e c3 d7 ab 3d f0 3a a7 3d
       0.17356415 0.15605147 0.08390763 0.08165538
0000f0 43 75 af 3d e5 5e 14 3e cb 51 fe 3d 68 8f 06 3e
       0.08567288 0.14489324 0.124179445 0.13140643

layer.8.weight f4 [32, 64]
000000 47 55 04 3c af ec 17 3d 79 9b 67 3c 44 21 6d 3d
       0.008076972 0.037090953 0.014136189 0.057893053
000010 ab dc 1a bd 92 04 f6 bd 8a f5 54 3d c6 1e c7 bc
       -0.0378081 -0.120125905 0.051991977 -0.024306666
000020 40 11 52 bb 8b 77 aa bd 73 53 2c bd b5 f3 97 bd
       -0.0032053739 -0.08323582 -0.04207177 -0.0741953
000030 76 e9 f6 bd 1d 44 ca 3d aa a5 7f bd 11 fd b7 3d
       -0.12056248 0.09876273 -0.06241385 0.089838155
000040 78 ea f6 3d e7 d4 02 be 35 58 0b bd 5c 26 19 bd
       0.1205644 -0.12776528 -0.034019668 -0.037390098
000050 67 86 03 3e 9a 56 5e bb 26 16 72 3a 19 20 64 3d
       0.12844239 -0.003392613 0.0009234868 0.055694673
000060 a0 a7 f0 bd 04 e1 ab bd 8a bc f0 3c c8 66 96 3d
       -0.11750722 -0.08392528 0.029386777 0.07343823
000070 00 56 95 3b 74 de b9 bd bf c8 55 bd 5a f6 8c bd
       0.004557371 -0.09075633 -0.0521934 -0.06882925
000080 61 66 87 bd b7 b5 e7 bc b6 d7 df 3c ec e1 d5 39
       -0.06611324 -0.02828489 0.027324539 0.0004079485
000090 8f c4 18 bd b7 92 ac 3d df fb eb 3d 0b 83 40 3d
       -0.037296828 0.08426421 0.1152265 0.046999972
0000a0 3f 0b e7 3d f0 44 ca 3d fa e6 c0 3c 5b 4a fd bd
       0.11281442 0.0987643 0.023547638 -0.12367698
0000b0 14 e2 76 bd 7c 2a d4 3b 74 65 d4 3d 1b 87 5f bd
       -0.0602742 0.006474791 0.10370913 -0.054572206
0000c0 68 24 d6 3d 4f 21 fd 3d ba 8c 8f 3d bc ca ab bd
       0.10456163 0.12359869 0.07009263 -0.08388278
0000d0 62 be f9 3d c1 ca 92 bd 61 45 e7 bc 51 ce 86 bd
       0.12194516 -0.071675785 -0.028231325 -0.065823205
0000e0 e8 3a e4 3d 17 46 2c bd 4a 68 19 bc 1e 67 63 3d
       0.11144048 -0.04205903 -0.009363243 0.055518262
0000f0 e7 2f 82 3d 2a 7e b6 3d 4b 11 c3 3d 00 43 d0 3d
       0.06356793 0.08910783 0.09524783 0.10169029
000100 ea cc bd 3d 2a 51 d7 bc 06 cc 3a 3c da 8c 89 3d
       0.092676 -0.02628382 0.011401182 0.067163184
000110 7c dd 88 bc e2 f4 5e bd 6a c1 ff bd e6 a3 ed 3d
       -0.016707174 -0.054432757 -0.12488063 0.11603527
000120 9e f3 d1 bd c4 86 1f 3d e2 7e 5a 3d 3a 59 2c bd
       -0.102515444 0.038946882 0.05334366 -0.04207728
000130 40 5b f1 bd ac 36 63 bd ee ac 0c 3d 56 27 8e bd
       -0.11784983 -0.05547206 0.034344606 -0.069410965
000140 87 08 c0 3d 75 12 c9 3d c0 37 b7 bd e9 16 fd bc
       0.093766265 0.098179735 -0.0894618 -0.030894713
000150 d3 c3 0c 3d 2f b3 d1 3d 70 99 95 3c 84 2b 92 3d
       0.03436644 0.10239255 0.018261641 0.07137206
000160 f6 4e a0 bd 39 80 e4 bb b8 29 76 bd 66 41 d7 bc
       -0.078275606 -0.006973293 -0.06009838 -0.026276302
000170 d1 25 e1 bc 8d c6 93 bd bf 7d 23 bd 76 4d a7 bc
       -0.027483853 -0.07215605 -0.039914843 -0.020422678
000180 87 63 6c bd 94 5d 32 bd ec f9 f4 3d 49 23 e9 3d
       -0.057712104 -0.043546274 0.11961731 0.11383683
000190 59 2e cd 3d 81 22 b3 bd ae f5 94 ba 38 a8 ce 3d
       0.10018606 -0.087468155 -0.0011364722 0.10090679
0001a0 58 f0 b0 3d 38 ba 9c bd 44 5c e2 bd 5f ea 9a 3d
       0.08639592 -0.07652706 -0.110527545 0.07564234
0001b0 ca 4a c5 bd 84 ce 29 3d 18 f6 cd 3d 7a 20 44 39
       -0.096334055 0.041456714 0.10056704 0.00018704115
0001c0 15 4a ca bc 69 d4 06 3c 4f 25 ee bb 98 78 e2 bd
       -0.024693528 0.008229353 -0.007267631 -0.11058158
0001d0 3f a8 02 3d ff 2b ab bb 3f 6f e0 bd a5 4d af 3c
       0.031898733 -0.0052237506 -0.109587185 0.021399328
0001e0 9e ee e5 bd 74 b1 ab bc eb 47 3f 3d 5d aa 81 3d
       -0.11227153 -0.02095864 0.046699446 0.06331322
0001f0 b9 0a 8c bd 4b 7c 62 bc 1f 77 69 bd cc 1f 73 bd
       -0.06837983 -0.013823579 -0.05699837 -0.059356496
000200 ea 03 52 bd ce 32 48 bb 31 7d d3 3d c2 bc 4f 3d
       -0.051273264 -0.003054786 0.10326613 0.050717123
000210 ab 5c f4 bd 53 21 7c 3d 41 b2 c6 bd 95 5f 43 bc
       -0.119317375 0.061555218 -0.09701968 -0.011924644
000220 90 19 a7 bd 92 cc 5d 3d 5a 37 b5 3d 9f 32 90 bd
       -0.081591725 0.05415017 0.08848448 -0.07040905
000230 ed e7 59 3d 4d 92 12 3d 26 80 12 bc 70 e0 e7 bd
       0.053199697 0.035784055 -0.008941686 -0.11322105
000240 41 0c 0e 3d be 42 5d bd c4 b3 83 3c df 2c fc bd
       0.034679655 -0.05401873 0.01607693 -0.12313246
000250 92 09 cb 3c a8 5a 32 3d 4d 66 c1 3d 11 f3 28 bc
       0.024784837 0.043543488 0.094433405 -0.010311858
000260 a0 2c 9c 3c cb 46 9b bd 7e bb 71 3d da c7 ae 3b
       0.019064248 -0.07581862 0.059016697 0.0053338828
000270 fb 01 ba 3d 1c 63 43 bc 73 b3 7a bd d5 f4 d4 3d
       0.09082409 -0.011925485 -0.061206292 0.103982605
000280 da 70 95 bd 39 c7 0b bd b9 9b 42 3d 1e 02 9c 3d
       -0.07296915 -0.03412554 0.04751179 0.07617591
000290 81 ab 05 3e d1 b4 d7 3c a5 fd b9 3d 17 8b 88 3d
       0.13053705 0.026331337 0.09081582 0.06667154
0002a0 d7 22 5e 3d ef d0 72 bc 37 e9 86 3b 8c a0 7e 3d
       0.054232445 -0.014820321 0.004117157 0.06216483
0002b0 43 6c 23 bc 0e 43 10 3c db dd 3c bd 36 9c d5 bd
       -0.009974542 0.00880505 -0.046110015 -0.104301855
0002c0 9a af 2e bd 93 f6 bf 3b 1c 37 ea 3d 6b 9e be bc
       -0.042647935 0.0058582514 0.114362925 -0.023268899
0002d0 b1 ac c7 3d 14 70 58 3d d0 83 d5 3b d8 04 e3 bd
       0.09749735 0.05284126 0.0065159574 -0.11084908
0002e0 9f e0 c9 bb 78 21 a9 bc 58 9c 39 3d c4 a1 f9 bd
       -0.00616081 -0.020645842 0.045315117 -0.121890575
0002f0 be d1 84 bd 68 9e f5 bd 1f f8 fa 3c bc 92 8b bd
       -0.06485318 -0.11993104 0.030635891 -0.06815097
000300 b7 3c a3 3d a4 2f 15 bd de 87 51 3d 28 54 b7 bd
       0.07970565 -0.036422387 0.051154964 -0.089515984
000310 79 18 8d bd 17 7f 0c 3c 4e 95 2d bd 15 0a ef 3d
       -0.068894334 0.008575222 -0.042378716 0.11671845
000320 0b 1c d5 bd 53 9a ec bd 47 8a 01 3e c2 ef 05 bd
       -0.104057394 -0.115528725 0.12650405 -0.032699354
000330 47 ac cf 3d da b9 f9 3c af 67 41 bd ac fe a9 3d
       0.10140281 0.030484129 -0.04721802 0.08300528
000340 23 97 05 3e 03 f8 69 3d 49 31 18 3d 38 76 5d bc
       0.13045935 0.057121288 0.037156377 -0.013516955
000350 8c 2e c2 3d d9 ad 93 bc e9 97 9f bd 6b 63 a8 3d
       0.09481534 -0.018027233 -0.077926464 0.082220875
000360 86 8e b2 bd e2 c6 03 be 51 a7 02 3d 64 d0 93 bd
       -0.087185904 -0.12868837 0.031897847 -0.07217482
000370 d2 96 ce bc 15 0c b1 3d 97 b5 ce bc 1b cd 56 3d
       -0.025218401 0.086448826 -0.025233073 0.052441698
000380 9d f7 41 bd c5 3a 7d bd c3 6e 08 bd c0 3d a8 3c
       -0.047355283 -0.061823625 -0.033308756 0.020537257
000390 cd 5e 4c bc e4 44 af bd 4d 6f 7a bd bd 54 57 bd
       -0.012473774 -0.08558062 -0.0611413 -0.052571047
0003a0 d0 8a ff bd cf 00 6c 3d a7 ca f6 3c c8 ea 2a bd
       -0.12477648 0.05761796 0.030125929 -0.04172781
0003b0 21 c8 83 bd 59 39 b3 3d a1 6f 4e bd 04 8a 93 bd
       -0.06434656 0.087511726 -0.050399426 -0.07204059
0003c0 f6 16 a9 bd c9 a0 ed 3d ab 32 93 3d f9 41 7d bd
       -0.082563326 0.11602933 0.071873985 -0.061830495
0003d0 22 2a bc bc 2a 7b ad 3d 1b e3 eb bd b1 87 0b 3d
       -0.02296931 0.08470757 -0.11517926 0.034064952
0003e0 28 37 96 bd 8e 9e dc bc 39 af c3 3b dc 30 9e bd
       -0.07334739 -0.026931074 0.005971816 -0.07724163
0003f0 bf 29 1f 3d 3c c4 3c 3d dc 2a c5 3c ab a0 f1 bd
       0.03885817 0.04608558 0.024068289 -0.11798223

layer.8.bias f4 [32]
000000 bc 7a 8c bc 14 78 ec 3d 58 d6 7a bd 0e 5b c5 bd
       -0.017148368 0.115463406 -0.06123957 -0.09636508
000010 26 c1 93 3d 9b 1c f3 3c 07 6a 42 3d 84 55 d4 3c
       0.072145745 0.029676726 0.047464397 0.025919683
000020 39 7e 71 3b fd 1a dd 3d 51 ce aa 3d f9 a3 83 bd
       0.0036848916 0.10796163 0.08340133 -0.0642776
000030 ce 50 b7 3d f2 d2 6e bd fb 1f ac 3d e3 b4 e4 bc
       0.08950959 -0.058306642 0.08404537 -0.027918285
000040 6a b9 c8 3d d9 51 8c 3d 96 74 4c 3d eb 3b 99 bc
       0.0980099 0.06851549 0.049915873 -0.018705329
000050 5d b5 f7 bd 90 9f 03 be 40 b5 dc bd 73 1c 98 3d
       -0.12095139 -0.12853837 -0.10776758 0.07427301
000060 b4 74 9e bc b0 63 62 3c 93 e7 82 3d b1 fa a2 3d
       -0.019342758 0.013817713 0.063918255 0.07957972
000070 d3 ea ec bd 6c 4d 68 bd dd 49 83 3d 28 c4 c5 bd
       -0.11568227 -0.05671446 0.06410573 -0.096565545

layer.11.weight f4 [1, 32]
000000 a7 4b 6f bd 0c 01 fe bd ca 46 ee bd e1 6f e1 bc
       -0.058421757 -0.124025434 -0.11634596 -0.027519168
000010 52 88 29 3e 8b 1c 11 be 5d 8e 43 3d db de dc 3c
       0.16555908 -0.14171045 0.04774319 0.026961735
000020 35 34 2c bd dd c6 0b 3d b2 cb 2b 3e a4 72 ee bd
       -0.042041976 0.034125198 0.16776922 -0.1164296
000030 93 7d 93 3c 9e 0a 6c bc aa 63 13 3e b8 47 a7 3d
       0.018004214 -0.014406828 0.14393488 0.08167976
000040 f0 dc e4 bd 96 f4 e9 bd ae 37 d1 bc f0 68 89 3d
       -0.11174953 -0.11423604 -0.025539245 0.06709468
000050 4d ad 12 bd c3 1d 5a 3c 31 a7 6a 3d b1 c0 2b 3d
       -0.035809804 0.01331276 0.057288352 0.04193181
000060 57 e6 c8 bd 60 69 af bc 92 b2 1c be 79 89 f5 3d
       -0.09809559 -0.021412551 -0.15302494 0.119891115
000070 23 54 47 bc 4a 01 b7 3d 73 6f 77 bd 56 8d 57 3d
       -0.012166056 0.08935793 -0.06040902 0.052625023
