src/models/v3/pretrained_models/suzuka_model_v3.pt (torch, 63253 bytes, 15 tensors)

layer.0.weight f4 [128, 21]
00000000: b9be 4cbe ac76 98bd de78 383e 6457 db3d
00000010: 5c6f 3b3d d0e8 4c3e 969d 1bbe 2821 a93c
00000020: 5dbd 433e a02e 84bd 5d44 3d3d 2b76 2b3e
00000030: ebf8 c8bd 1c3f 5dbe 67c0 323e 712f 033e
00000040: 72c7 0bbe c175 0c3e 50ec 223d ad0e 59bd
00000050: 99b3 853d 50b7 523e bf27 033e 522f 09be
00000060: 6e28 c0bc c08b 96bc bdda a8bd 40ee e8bd
00000070: 458f 42be 38a7 1f3e 3dd2 c8bd 910c 4ebe
00000080: 8bce 2c3e 7e54 493e 87f0 b3bb 17b7 48be
00000090: 6a89 c93d 7eca fe3c 5ef3 79bd f830 db3c
000000a0: 0325 abbd 726b 053e a28e 32bc 9f18 b13c
000000b0: 01b2 54bd 1bb6 e4bd 60ab 1fbe 42ab 1c3e
000000c0: 8289 ad3d 43b3 1bbe 335d 84bc 8ecb 1fbd
000000d0: 9e7d b83d 12a8 ffbd b27f e9bd e41e 1fbe
000000e0: 5c55 f63b 7a62 4fbe f4db eabd 92fb 4ebe
000000f0: b675 123e 9b74 133e b3d8 7ebd 3d71 1a3e
00000100: dedd c3bd 49ef 3a3c a8f3 11be cac2 b3bd
00000110: 4637 3cbe c257 fd3d 1405 58be 56e1 0f3e
00000120: 2757 173e 5bfd 4e3e 8ee0 813c c2d9 42be
00000130: 104b 4b3e 7e3a 38be 6606 6dbd a80a 1f3e
00000140: 4486 26be 5264 a9bc 7177 0ebc 4ce4 943c
00000150: 5ef7 cc3c 7118 92bd ca76 e83d e7f6 3ebe
00000160: 23a7 113c badd 86bd d4d6 81bd e8e1 77ba
00000170: 6bf1 77bd 9060 273e 1126 143e 0b30 a63d
00000180: 4b58 86bc ceb8 62be 5d83 463e e296 f3bb
00000190: d988 f93d 434a 6c3e 73d6 efbd e594 24be
000001a0: 4db0 64be 9257 003e e57d ae3d 7086 4abe
000001b0: 8400 fbbc 5858 0cbe ede7 12be 93a2 a4bc
000001c0: d693 f8bc eb97 e23d 3688 c13d c0c1 d33d
000001d0: a18b 96bd a5e2 a33d 4322 77bd 6ef7 d23d
000001e0: 703e 8cbc 4828 2a3a 0525 963d 725f 583e
000001f0: 7d6a 5bbd a5f8 383e 1775 403e 06f2 a9bc
00000200: 8356 a8bd dfbd 4f3e 4b1f 3dbe 9591 4bbe
00000210: f05e 5cbe 2ce6 903d 88d8 ffbd d79e 08bd
00000220: 368c efbc 7813 5cbd 2e15 19be 4244 9abb
00000230: 56e9 b4bd b4c2 ffbd d82b 00be 1223 43be
00000240: 1f44 39be e1d8 15be 42e4 d5bd d130 203e
00000250: 0f3b 3e3d f5d8 1abe 6b18 d0bd 9355 4abe
00000260: 40d2 2fbe d0db 3ebe 1fe5 06be b0b2 873c
00000270: b6b5 5ebe 1b40 f9bc 8306 96bc 1575 b83d
00000280: 1e2f 21be 0496 053e 838c 4b3e 64c9 50be
00000290: ed30 a8bd 4335 16bc b5a0 1e3e f63f 0d3e
000002a0: 6fc7 45be 0457 733d c019 bf3d a474 e2b9
000002b0: 13ca 2d3e 179f 27be 790e 32be 7246 d93d
000002c0: defb d43c 014c 3c3c 6ed9 56be 199e 0cbb
000002d0: c82a 47be 3929 d3bd 6e58 84bd 1a5c 193e
000002e0: 2f96 643d b2ac 3dbe ea90 ba3b eba3 c63c
000002f0: 416c 0abe e439 f63c d1b8 3fbe ebe7 bb3d
00000300: a3ed 2dbe 0289 e6bd 7f52 21bd 0d35 a03d
00000310: 4763 e1bd d931 89bd f80c af3c 4cb1 f3bd
00000320: 9ebd afbd b435 00be 47cd 47bd cbc0 edbd
00000330: 7c12 2b3e 4ff4 9fbc dea3 623d 82f4 6a3d
00000340: f000 3d3c 5e4c 8fbd beb0 21bd 623b e73d
00000350: 2e82 d1bd 8000 253e fbc3 6d3d 46d7 073e
00000360: d9cd 07bd b122 a7bc 3fa9 373e f466 003e
00000370: 4b6f 36bd cab8 563e 583e a0bc 0db9 59bd
00000380: 1568 0abe 8ea6 483e 744d c9bd 1c77 babc
00000390: edf4 d83c 168a e4bd 0889 f3bd ff43 a83d
000003a0: 6d49 003e 8fbc df3c 3ded 18be 3c03 37be
000003b0: fe71 34be 8f43 2ebe 3049 bcbd 8309 523e
000003c0: 0915 9fbd 72bd 883d b635 333e 2508 203d
000003d0: 2998 623e 86e4 4c3e b714 8ebd c7c9 453e
000003e0: ceaa 333e 973e f4bd 2608 403e 6701 fabd
000003f0: d434 17bd df06 3bbe f06b d13d af41 083e
-0.1999463 -0.0744451 0.18014857 0.10710028 0.045760497 0.20010686 -0.15196833 0.020645693
0.19115205 -0.064542055 0.046207774 0.16744296 -0.09813102 -0.21606106 0.17456208 0.12811066
-0.13650301 0.13716795 0.039776146 -0.05299251 0.06528396 0.2057774 0.1280813 -0.13396958
-0.023456778 -0.018377185 -0.08244846 -0.113735676 -0.18999965 0.15591133 -0.09805725 -0.20121981
0.16875665 0.19661137 -0.0054913196 -0.19601093 0.09840663 0.031102415 -0.06102311 0.026756749
-0.08356669 0.13029268 -0.010898264 0.021618186 -0.05192757 -0.11167546 -0.15592718 0.15299705
0.08473493 -0.15205102 -0.016157722 -0.039012484 0.090083346 -0.12483229 -0.11401309 -0.15539128
0.0075175 -0.2025241 -0.11467734 -0.20213154 0.14302716 0.1439995 -0.06221838 0.1508226
-0.09563802 0.011409589 -0.14253104 -0.087773874 -0.1838046 0.12370254 -0.21095687 0.14050803
0.1477934 0.20213835 0.015854146 -0.1902838 0.19852853 -0.17991063 -0.05786743 0.15531409
-0.16262156 -0.02067772 -0.008695469 0.018175267 0.025020298 -0.07133568 0.11350782 -0.18648873
0.008889946 -0.0658526 -0.06339803 -0.0009455965 -0.06053297 0.1634543 0.14467646 0.08114632
-0.016399523 -0.2214081 0.19386049 -0.007433758 0.12184305 0.23075204 -0.11710825 -0.16072424
-0.22332878 0.12533405 0.08520106 -0.19777846 -0.030639894 -0.13705575 -0.14346285 -0.020097053
-0.030343931 0.11064132 0.09449808 0.10339689 -0.07350851 0.080022134 -0.06033541 0.103011
-0.017119616 0.0006490988 0.0733128 0.2113016 -0.053568352 0.180636 0.18794666 -0.020745289
-0.08219626 0.20287274 -0.18468969 -0.19879754 -0.21520591 0.07075152 -0.12492472 -0.033354606
-0.029241662 -0.053729504 -0.14949486 -0.004707844 -0.08833568 -0.124883085 -0.12516725 -0.19056347
-0.18092392 -0.14633514 -0.10443927 0.15643622 0.04644304 -0.15121825 -0.10160907 -0.19759206
-0.17170048 -0.1863854 -0.1317334 0.016564697 -0.21749005 -0.030426076 -0.018313652 0.090067066
-0.1574063 0.13045508 0.1987782 -0.20389324 -0.08212457 -0.009167972 0.15490992 0.1379393
-0.19314359 0.059409156 0.09331083 -0.00043192983 0.16971616 -0.16369282 -0.17388333 0.106091395
0.025999006 0.01149273 -0.2098138 -0.0021456538 -0.19449914 -0.10310597 -0.06462179 0.1497654
0.05580729 -0.1852291 0.0056935446 0.024248084 -0.13517858 0.030056901 -0.18722846 0.09175094
-0.16985182 -0.11256601 -0.039385315 0.07822619 -0.11005264 -0.06698961 0.021368489 -0.11899051
-0.085810885 -0.12520486 -0.048779752 -0.11609038 0.1670627 -0.019525675 0.055332057 0.057362087
0.011535868 -0.06996988 -0.039475195 0.11290623 -0.10229908 0.16113472 0.05804823 0.13265714
-0.033155296 -0.020402284 0.17935656 0.12539274 -0.04453973 0.20968929 -0.019560978 -0.053154994
-0.13516267 0.19594786 -0.09829226 -0.022761874 0.026483977 -0.1115915 -0.11891371 0.08216094
0.1252801 0.027311591 -0.14934249 -0.17872328 -0.1762161 -0.17017959 -0.09193647 0.20511441
-0.07767684 0.06676759 0.17500958 0.039070267 0.22128357 0.2000905 -0.06937545 0.19315253
0.17545626 -0.119260006 0.18753108 -0.12207299 -0.036915615 -0.1826434 0.102256656 0.13306306

layer.0.bias f4 [128]
00000000: bd90 283e 7cea 2f3e b2ec 09be 17b5 af3d
00000010: 9b51 3ebe 0140 37be cf17 d9bc 3d69 cc3d
00000020: 29c6 33be 1c5f 803d b609 0b3d 4a8d 05be
00000030: 3980 18be 32c0 ebbc 3e65 5dbe bf22 9e3c
00000040: 7a3a e43c acd4 5c3d 1a90 b8bd 07d6 283d
00000050: d08a 513d 08fd 2bbd 2ee8 b83d de40 a53c
00000060: 7842 1b3e 0186 493e e3c6 32bd 1bac 58be
00000070: 355f 553e 9212 453e c844 e63d 9f56 2e3e
00000080: 216e c1bd e777 603d 060f d5bc f48a 173e
00000090: ee88 6c3d 0192 3b3d 8566 873d 03c6 583d
000000a0: f2e2 143e 9812 9bbd ec6e ffbd fada a73d
000000b0: 9f21 f93c 8660 94bd 8adc 3a3e e636 77bd
000000c0: c12f b13d 17d5 5f3d 80fe 47bc 832a 213d
000000d0: 284a 77bd 5d1b 613e 4014 093e b599 083e
000000e0: ba51 82bd 33c1 edbd bb64 db3d b520 93bd
000000f0: 38ee 2f3d 67b8 b5bd 0527 dcbd dbbc 46be
00000100: 60fe 55be cb3a 953d 3ba9 d5bd 4896 533e
00000110: 24bf 3dbe 865d 2fbe 86f2 fa3a da0c 103e
00000120: ab50 22be 471b e7bd ed90 053e 5a94 ac3d
00000130: 1f8d 873d d775 c8bd 7dc5 653c 2d48 5cbe
00000140: 3964 303e 24d6 65bd bf69 3cbe 0e42 0dbe
00000150: dfee 203d cd59 adbd d618 cd3d 19cc 633d
00000160: 2837 b93d 140d aebd bcd5 263e e3c1 87bc
00000170: 57ff 1a3e a7da 903d 8a97 7b3d 8f18 91bd
00000180: d6ba fc3d 081f 353e c90f cd3d 86a9 5b3d
00000190: c302 403e e218 43be a634 113e 44a8 1abd
000001a0: 6cab 583e 074d c1bd 447c 9b3d dbae 063d
000001b0: 78bd aa3d 4b0d 39be d107 86bd 1e13 593e
000001c0: 16bd 2c3e beb6 f53d 1005 583d ca5e 26bd
000001d0: 29f3 4ebe 8b7a c63d df65 d43b e42f 0f3e
000001e0: 029e 18be fd32 7abc 81e2 b93d 141e 64be
000001f0: 6033 e73d dd8c e6bd f608 da3d e1bc 2a3d
0.16461463 0.17179292 -0.13469198 0.08579462 -0.18585818 -0.1789551 -0.02650061 0.0998101
-0.17556061 0.06268141 0.033944808 -0.13042179 -0.14892663 -0.02877817 -0.21620652 0.019303678
0.027859915 0.053913757 -0.0901186 0.041219737 0.051157773 -0.041989356 0.0902866 0.020172533
0.15162075 0.19680025 -0.043646704 -0.21159403 0.208371 0.19245365 0.11243588 0.17025231
-0.094448335 0.054801848 -0.02600814 0.147991 0.057747774 0.045793537 0.06611351 0.052923214
0.14539698 -0.07571906 -0.124723285 0.08196063 0.03041154 -0.07244973 0.18248191 -0.06035509
0.086516865 0.054646578 -0.012206674 0.039347183 -0.060373455 0.21983095 0.13386631 0.13339885
-0.06363244 -0.116091155 0.10712572 -0.07183973 0.042951792 -0.088730626 -0.1074963 -0.1940798
-0.20897818 0.072866045 -0.10432669 0.20662796 -0.18529946 -0.1712552 0.0019145764 0.14067402
-0.15851085 -0.112844996 0.13043566 0.08426733 0.066187136 -0.09788101 0.014024136 -0.21511908
0.17225732 -0.056112424 -0.18399714 -0.13794729 0.039290305 -0.08464394 0.10014503 0.055614565
0.09043723 -0.08498588 0.1629247 -0.016571945 0.15136467 0.070729546 0.061423816 -0.07084762
0.123403236 0.17687619 0.100127764 0.053628467 0.18751054 -0.19052461 0.1418024 -0.037758127
0.21159142 -0.0943852 0.07592061 0.0328816 0.083369195 -0.18071477 -0.065444596 0.21198699
0.16869006 0.11997746 0.052739203 -0.04061774 -0.20209946 0.09691342 0.0064818705 0.13983113
-0.14904025 -0.015270946 0.09076405 -0.22277099 0.11289096 -0.11257336 0.106462404 0.041684035

layer.3.weight f4 [128]
00000000: 0000 803f d153 803f 014e 7d3f 058b 803f
00000010: 6eea 813f d58d 7f3f 743a 813f 3a1d 803f
00000020: 0000 803f e82a 7c3f 0000 803f af5d 7c3f
00000030: c576 7c3f 0000 803f 0000 803f 0000 803f
00000040: 0000 803f f93d 7e3f 0000 803f cd6b 803f
00000050: f4ac 7c3f 4584 7c3f 0000 803f 0000 803f
00000060: 321b 803f dcd6 7f3f 3644 813f 0000 803f
00000070: 0000 803f 93e3 813f 0000 803f f04a 7f3f
00000080: d146 803f 6de1 813f e8c9 813f 4024 803f
00000090: 0000 803f 0000 803f 0000 803f 0000 803f
000000a0: 0000 803f 0000 803f 8750 803f 0000 803f
000000b0: 7a2c 803f 09bd 7c3f 0000 803f 0000 803f
000000c0: 0000 803f 86e4 7f3f 0000 803f 0000 803f
000000d0: 0000 803f f8ce 803f d03e 7c3f 7a92 7e3f
000000e0: dde4 813f 5aff 803f 0000 803f 0000 803f
000000f0: 1570 7c3f bfeb 813f 7c66 813f 0000 803f
00000100: 0000 803f 0000 803f bd61 803f fa7a 7c3f
00000110: 0000 803f 44ad 7c3f 9d8e 7c3f 0000 803f
00000120: 0000 803f 0000 803f a2a3 813f ae73 7c3f
00000130: dc38 803f 0000 803f d069 7c3f 0000 803f
00000140: 0000 803f e4a4 7c3f fa55 803f 0000 803f
00000150: 08a4 813f fa88 7f3f 0000 803f e6cb 813f
00000160: 528b 7d3f 0000 803f 9227 813f 9631 813f
00000170: a4da 813f 0000 803f be56 7c3f 0000 803f
00000180: ec5e 803f 6a5d 7f3f ce40 7d3f 0000 803f
00000190: 5646 7c3f 9c3f 7f3f 0000 803f fedb 813f
000001a0: 0000 803f 0000 803f 0000 803f 4236 803f
000001b0: 0000 803f 5045 7c3f 0000 803f 0000 803f
000001c0: 0000 803f 5931 7c3f 4f4e 813f 2cb3 7d3f
000001d0: 0000 803f 6d60 7c3f 34e3 813f 6789 7f3f
000001e0: 6767 803f 0000 803f 66de 813f 56c1 813f
000001f0: 3b53 7d3f 0000 803f 0000 803f 0000 803f
1.0 1.0025579 0.9894715 1.0042425 1.0149667 0.99825794 1.0095963 1.0008919
1.0 0.9850297 1.0 0.9858045 0.9861873 1.0 1.0 1.0
1.0 0.9931331 1.0 1.0032898 0.98701406 0.9863933 1.0 1.0
1.0008299 0.99937224 1.0098941 1.0 1.0 1.0147575 1.0 0.9972372
1.0021611 1.014692 1.0139742 1.0011063 1.0 1.0 1.0 1.0
1.0 1.0 1.0024575 1.0 1.0013573 0.98725945 1.0 1.0
1.0 0.99958074 1.0 1.0 1.0 1.0063162 0.98533344 0.99442255
1.0147969 1.0077927 1.0 1.0 0.98608524 1.0150069 1.0109401 1.0
1.0 1.0 1.0029827 0.9862515 1.0 0.9870188 0.9865511 1.0
1.0 1.0 1.0128062 0.98614013 1.0017352 1.0 0.9859896 1.0
1.0 0.98689103 1.0026238 1.0 1.0128183 0.99818385 1.0 1.014035
0.9904071 1.0 1.0090201 1.0093257 1.0144849 1.0 0.9856986 1.0
1.0028968 0.99751914 0.9892701 1.0 0.98544824 0.99706435 1.0 1.0145261
1.0 1.0 1.0 1.0016558 1.0 0.9854326 1.0 1.0
1.0 0.985128 1.0102023 0.9910152 1.0 0.98584634 1.0147462 0.99819034
1.0031556 1.0 1.0145996 1.0137126 0.98955125 1.0 1.0 1.0

layer.3.bias f4 [128]
00000000: 9e86 4e3c ef5c 013c 2237 debb 7223 743c
00000010: f4bd ecb9 4fa2 c33b 6c90 2ebc a626 533c
00000020: b2d3 59bc efdf 363c 7b95 edbb 5ea7 6fbc
00000030: 139a 5bbc 3ca3 55bc 11eb 5f3c 334f 3c3c
00000040: 0ef9 b93a 21b1 4abc cc65 6cbc a809 633c
00000050: 92ce f83b f2a9 5bbc c6ee 65bc c1ea 4f3c
00000060: 7aef 5c3b 7d7f 4f3c c321 593c f15c 23bc
00000070: 8d04 0dbc 8203 ebba fe1e e4ba 7931 0fbc
00000080: 106f 383c 7846 73bc b01e 58bc dc41 713c
00000090: 0932 53bc e1f4 053c d8ec 8ebb 505d 47bc
000000a0: e9e5 0e3c 1588 58bc e41f 5f3c 3ab8 f33b
000000b0: 13af 3abc 22b3 5bbc 0139 6bbc 8877 70bc
000000c0: e9ae 313c 78d7 713c 8cbb f1bb 3db5 34bc
000000d0: b022 b53b eabe 6cbc 4a51 4abc 354a 4fbc
000000e0: 573e 5e3c 73f7 75bb 2cce 5cbc d528 2d3c
000000f0: 94fb 41ba 7acd 4ebb f1bb 33bc 9949 69bc
00000100: 5e89 54bc 29b3 05bc 70a3 453c 4e26 cdbb
00000110: 7acf 233c 403e 543c 1f66 52bc 5f65 a9bb
00000120: 454e 0fbc 360f 72bc adb9 653c 310e cdbb
00000130: 1d8a 4d3c 5c23 173c f056 67bc 4269 723c
00000140: 66e9 54bc 3c14 003c 6acc 2b3c 8c7a 713c
00000150: 4180 573c b2cf 52bc 2aad 27bc 5e4e 3f3b
00000160: 3db2 653b a8c7 f2bb 8de4 373c fb2c b83a
00000170: 5a47 e33b f91a 59bc 3a8e 5bbc 932f 6bbc
00000180: 4463 34bb d4f7 4fbc 1f45 01bc 62d4 ddbb
00000190: 418b 69bc 77a6 1b3c eaf1 043c 9501 163c
000001a0: 0446 6f3c 5898 6d3c 06e4 efbb 1ece 43bc
000001b0: deaa 8ebb fabe 32bc c016 88ba 1f8f 2cbc
000001c0: 1185 64bc 4cff 4dbc afb1 0cbb dbea bd3b
000001d0: 3883 603c 235b 4a3c 1e1d 41bc f98f 4e3c
000001e0: f820 613c 5802 68bc beec 053c be1a 84bb
000001f0: cbfc 08bc eb9e 5e3c c9d4 61bc cdf2 61bc
0.012605337 0.007895692 -0.0067814747 0.014901029 -0.00045154954 0.0059702764 -0.01065455 0.0128876325
-0.013295101 0.011161788 -0.0072504855 -0.014627306 -0.013403433 -0.013039406 0.013666884 0.011493492
0.0014188604 -0.012371332 -0.014428567 0.013857283 0.0075929845 -0.013407217 -0.014033979 0.012690247
0.0033712075 0.012664673 0.013252678 -0.009970889 -0.008607042 -0.0017930123 -0.0017404256 -0.008739823
0.011256948 -0.014848344 -0.01319091 0.014725175 -0.012890347 0.008176059 -0.00436173 -0.0121682435
0.008721807 -0.013216038 0.013618443 0.007437733 -0.01139428 -0.013409408 -0.0143568525 -0.014676936
0.0108449245 0.014760844 -0.0073770937 -0.011029539 0.0055278167 -0.014449814 -0.012348482 -0.01265197
0.013564668 -0.0037531524 -0.01347689 0.010568817 -0.0007399854 -0.003155558 -0.010970102 -0.014238738
-0.012972204 -0.008160391 0.012062892 -0.00626067 0.009998197 0.012954295 -0.01284173 -0.005169555
-0.008746688 -0.014774134 0.014021319 -0.0062577953 0.012545136 0.009224739 -0.014119849 0.014795603
-0.0129951 0.007817324 0.010485748 0.01473869 0.013153137 -0.012866901 -0.010234157 0.0029190998
0.0035048865 -0.007409055 0.011223924 0.0014051491 0.006935996 -0.01325106 -0.013400609 -0.014354604
-0.0027524987 -0.012693364 -0.007890015 -0.006769703 -0.014254392 0.0095001375 0.008114317 0.009155651
0.014604095 0.014501654 -0.0073208837 -0.011950998 -0.004353865 -0.01090979 -0.0010382757 -0.01053217
-0.013947741 -0.012573075 -0.0021468212 0.005795819 0.01370316 0.01235083 -0.011786727 0.012607568
0.0137407705 -0.014160715 0.0081741195 -0.004031508 -0.008361052 0.013587694 -0.013783642 -0.013790798

layer.3.running_mean f4 [128]
00000000: 0000 0000 6178 7643 3c93 e240 3399 4643
00000010: bc3c 0442 31b1 3943 b4d5 5d43 9ee9 3743
00000020: 0000 0000 965e 2442 0000 0000 86e8 ad42
00000030: 4eef 553f 0000 0000 0000 0000 0000 0000
00000040: 0000 0000 eff5 0d42 0000 0000 2183 4943
00000050: 65a1 843f c8fb 1743 0000 0000 0000 0000
00000060: 3e29 1343 9fb3 a142 9799 fe42 0000 0000
00000070: 0000 0000 addd 9240 0000 0000 bc17 6843
00000080: a045 4443 223b 2843 2f90 2b43 1a77 dd41
00000090: 0000 0000 0000 0000 0000 0000 0000 0000
000000a0: 0000 0000 0000 0000 4a82 3c43 0000 0000
000000b0: 9847 9c42 2242 3f43 0000 0000 0000 0000
000000c0: 0000 0000 beb8 933e 0000 0000 0000 0000
000000d0: 0000 0000 ec8a d242 b57c 7b43 05c3 3443
000000e0: d42b 9442 a11a ef42 0000 0000 0000 0000
000000f0: 2c19 f142 e19d 4543 5686 353b 0000 0000
00000100: 0000 0000 0000 0000 5ea2 9142 be31 1843
00000110: 0000 0000 1c35 8043 55e9 e942 0000 0000
00000120: 0000 0000 0000 0000 5c5e 9842 7094 db42
00000130: 8efd 0543 0000 0000 e102 2d42 0000 0000
00000140: 0000 0000 af52 2f43 8699 d042 0000 0000
00000150: f6c9 1a43 9d0b 1d43 0000 0000 6d3e 4d43
00000160: 9cc3 8142 0000 0000 35a0 7743 c99c 8043
00000170: 42db a941 0000 0000 3275 8343 0000 0000
00000180: da75 0143 ab70 4643 6a6e 0f43 0000 0000
00000190: 2a65 7142 05b1 6e42 0000 0000 210b 1a43
000001a0: 0000 0000 0000 0000 0000 0000 49d4 0e43
000001b0: 0000 0000 5599 8443 0000 0000 0000 0000
000001c0: 0000 0000 0f61 8243 5473 ef42 d207 0842
000001d0: 0000 0000 edac 3043 4c60 2842 7383 fe41
000001e0: 4398 7243 0000 0000 5f1e 3340 da27 8442
000001f0: 2c2f 0142 0000 0000 0000 0000 0000 0000
0.0 246.47023 7.080473 198.59843 33.05931 185.69215 221.83478 183.91257
0.0 41.09237 0.0 86.95415 0.83568275 0.0 0.0 0.0
0.0 35.49017 0.0 201.51222 1.0361754 151.98352 0.0 0.0
147.1611 80.85082 127.29998 0.0 0.0 4.58956 0.0 232.09271
196.27197 168.23099 171.56322 27.683155 0.0 0.0 0.0 0.0
0.0 0.0 188.50894 0.0 78.13983 191.25833 0.0 0.0
0.0 0.28851885 0.0 0.0 0.0 105.27133 251.48714 180.7618
74.0856 119.55201 0.0 0.0 120.549164 197.61671 0.0027698479 0.0
0.0 0.0 72.81712 152.1943 0.0 256.41492 116.95573 0.0
0.0 0.0 76.184296 109.78992 133.99045 0.0 43.25281 0.0
0.0 175.32298 104.29985 0.0 154.78891 157.04536 0.0 205.24385
64.88205 0.0 247.62581 257.22488 21.23206 0.0 262.9156 0.0
129.46036 198.44011 143.4313 0.0 60.348793 59.67287 0.0 154.04347
0.0 0.0 0.0 142.82924 0.0 265.1979 0.0 0.0
0.0 260.75827 119.72525 34.007637 0.0 176.67549 42.09404 31.814184
242.59477 0.0 2.7987287 66.077835 32.296066 0.0 0.0 0.0

layer.3.running_var f4 [128]
00000000: f85b c63e 7a8f 0147 0086 e643 d3d7 a746
00000010: a0b5 6c44 974c 9c46 ec4a db46 3701 9146
00000020: f85b c63e 0e3c 7f44 f85b c63e e535 9045
00000030: beaf eb41 f85b c63e f85b c63e f85b c63e
00000040: f85b c63e 09cb 6c44 f85b c63e 56f1 b046
00000050: 0609 5141 ccd2 4946 f85b c63e f85b c63e
00000060: e548 3646 c0b0 6c45 2b6c 1246 f85b c63e
00000070: f85b c63e d6b1 b343 f85b c63e 673a e846
00000080: ef6e a346 0839 8246 f67b 8946 f2a0 4644
00000090: f85b c63e f85b c63e f85b c63e f85b c63e
000000a0: f85b c63e f85b c63e 1f01 9a46 f85b c63e
000000b0: 42ed 4f45 f87d 9c46 f85b c63e f85b c63e
000000c0: f85b c63e 5434 0f41 f85b c63e f85b c63e
000000d0: f85b c63e 8162 c245 7d4d 0847 08c6 8846
000000e0: 3891 7945 8ba7 fa45 f85b c63e f85b c63e
000000f0: e11e 0446 7b02 b546 a025 ce3e f85b c63e
00000100: f85b c63e f85b c63e ff9b 6e45 aa0e 4446
00000110: f85b c63e 9edf 0b47 6034 ea45 f85b c63e
00000120: f85b c63e f85b c63e e736 5545 e2c8 e245
00000130: 5c91 1c46 f85b c63e 20fe ca44 f85b c63e
00000140: f85b c63e 4f38 8346 c7c2 d145 f85b c63e
00000150: 7c55 4946 c6c2 5f46 f85b c63e 2a80 c246
00000160: 4e42 1445 f85b c63e 4c33 0447 013c 1347
00000170: 3e81 a243 f85b c63e 6422 1647 f85b c63e
00000180: 6ced 1f46 8ab7 b146 0595 4146 f85b c63e
00000190: 1545 0545 3806 4945 f85b c63e 08e0 4e46
000001a0: f85b c63e f85b c63e f85b c63e 5149 2f46
000001b0: f85b c63e 8e29 1447 f85b c63e f85b c63e
000001c0: f85b c63e 9f31 1147 b990 f845 7862 8d44
000001d0: f85b c63e 4989 8446 c2cc 9c44 a9d1 0d44
000001e0: 26a4 fe46 f85b c63e 1e26 ed42 6ede 3245
000001f0: d981 1544 f85b c63e f85b c63e f85b c63e
0.38742042 33167.477 461.04688 21483.912 946.8379 20006.295 28069.46 18560.607
0.38742042 1020.93835 0.38742042 4614.737 29.460812 0.38742042 0.38742042 0.38742042
0.38742042 947.1724 0.38742042 22648.668 13.064703 12916.699 0.38742042 0.38742042
11666.224 3787.0469 9371.042 0.38742042 0.38742042 359.38934 0.38742042 29725.201
20919.467 16668.516 17597.98 794.5148 0.38742042 0.38742042 0.38742042 0.38742042
0.38742042 0.38742042 19712.56 0.38742042 3326.8286 20030.984 0.38742042 0.38742042
0.38742042 8.950275 0.38742042 0.38742042 0.38742042 6220.313 34893.49 17507.016
3993.0762 8020.943 0.38742042 0.38742042 8455.72 23169.24 0.4026308 0.38742042
0.38742042 0.38742042 3817.7498 12547.666 0.38742042 35807.617 7494.547 0.38742042
0.38742042 0.38742042 3411.4314 7257.1104 10020.34 0.38742042 1623.9414 0.38742042
0.38742042 16796.154 6712.347 0.38742042 12885.371 14320.693 0.38742042 24896.082
2372.144 0.38742042 33843.297 37692.004 325.0097 0.38742042 38434.39 0.38742042
10235.355 22747.77 12389.255 0.38742042 2132.3176 3216.3887 0.38742042 13240.008
0.38742042 0.38742042 0.38742042 11218.329 0.38742042 37929.555 0.38742042 0.38742042
0.38742042 37169.62 7954.0903 1131.0771 0.38742042 16964.643 1254.3987 567.27594
32594.074 0.38742042 118.57445 2861.9019 598.0289 0.38742042 0.38742042 0.38742042

layer.4.weight f4 [64, 128]
00000000: 977c 16bd 92a7 77bd 4067 9b3d 5810 f9bc
00000010: 024b 603d 2171 abbd cbf3 cc3d 707e ca3d
00000020: 3743 1c3b 666e f4bb 8930 79bd 7e7c 3c3d
00000030: 022b b8bc 348b c4bc 7e27 65bd eca6 2c3d
00000040: 2330 2abd f47a 99bd 6a21 f6bc 28d6 e73c
00000050: 17ca 7dbd 8109 2a3d 3a54 9abd f955 90bb
00000060: b891 d7ba d65c 6cbd d04b 6ebd 96c9 4bbd
00000070: 669a 40bd 6ab7 7a3d 4944 a6bd 6866 88bd
00000080: 464a 583b c67a 753d 8a24 11bd 04ff 9d3d
00000090: 6e90 373d 0dad 5cbd db87 a8bc 7a95 efbc
000000a0: b743 94bd afc6 af3c 2288 8abd bf60 283d
000000b0: 7af1 82bd 834d 5a3d 8edf c5bb c4ee caba
000000c0: c7db 943d aa21 663d e213 e23c 8504 b2bd
000000d0: 6beb 2bbd 8774 633d 2ad1 a1bd 1153 fdbc
000000e0: e62f 81bd 1eae c6bb 13e9 a73b 14d8 9d3c
000000f0: 8496 a73d 930d 83bd bec9 253c 5d22 98bd
00000100: bbed 783d 5368 84bd ef78 ba3d f1f4 383d
00000110: 254e e43c b8fc 8e3d e84a 60bc 76f4 0a3b
00000120: c5ab 25bd d905 d43c f949 023c 080d 5c3d
00000130: 1453 26bd 8baf a83d 4f23 45bc bab0 00bd
00000140: 05fc 1ebd 12b6 39bd 37a0 a2bd b06a 3e3d
00000150: 3d4c 77bd 48d3 fabc 62ea 1f3d 7b43 3fbd
00000160: 7bb3 5bbd 068d 45bd c2f2 703c 5a6d b4bd
00000170: ecc8 7c3c 2f12 23bd d67c 6f3d a22e fcbc
00000180: b803 fdbc b0fe 383c 050e 873d 71d8 ac3c
00000190: d2c3 9e3b 5e13 343d f511 b33d 8b02 dd3c
000001a0: 6bae 5fbd c38f a53c b13f 9d3d 499c 723d
000001b0: 6ec0 2cbd 5039 90bc ad70 99bd 846d a53d
000001c0: ecdb 853d fc66 f0bc a5b5 b9bc a40d 91bd
000001d0: 8d8e 09bd 77d5 123d b61a c6bc 4300 38bd
000001e0: bd37 a5bc 0fce 533d 21d9 b2bc be63 55bd
000001f0: 8d6c bd3d c30a b5bc 0cdb 303d d168 92bd
00000200: 5514 64bd 03f7 9abc f452 c5bc ad5d 463d
00000210: 6f22 053c dbe5 18bd 21c0 afbd 2cd6 93bb
00000220: 493b 1ebb 76e3 6fbc 6004 113d b469 1dbd
00000230: 210a 81bc 51f4 033d 88c9 853d 3505 9e3d
00000240: 211a a1bd 09d0 c33c 7c5f 1fbc 3fa1 9fbd
00000250: b733 97bc 8e56 1e3d 3c89 5e3d 5128 c1bc
00000260: 4abe 833d 6052 eabb dd93 8c3d d0e5 7a3d
00000270: 4b76 a4bd b2da 39bd e0a6 923b 339c 48bd
00000280: 698d 78bc 09c8 8a3d 088c 6a3c 3fbd 05bd
00000290: 74c8 863d c2ba 873d e214 fbbc 87b8 463d
000002a0: 1327 ea3c 50e5 1a3d 81bc 9dbd d3f0 203d
000002b0: 5f0c 26bd 9209 90bd 3a02 433d a0af bfbd
000002c0: 29e3 12bd ac26 28bd 626e 1ebd e9c8 10bd
000002d0: db0d 94bd 254a c6bc 5dd3 e13b 063b bd3c
000002e0: 1f9f d03c 35fa b5bd 383e 97bd d594 6cbd
000002f0: c810 2dbd 54d7 babd f389 d0bc d1e5 cfbc
00000300: 0187 96bd 15dd 3abc f8ee 2abd f8e5 86bb
00000310: bb93 21bd 0586 013d 278d 453d ddef 90bd
00000320: cdd5 01bd 14a3 df3c b363 09bd 032c c3bd
00000330: 4ce8 803a 510d 95bd fcda 2f3c 72e4 a33d
00000340: 9e22 653c b9d8 64bd 055f dc3c 7383 82bc
00000350: d405 fc39 a45a 913d 4462 89bd 0d87 5b3d
00000360: ca4f b5bd 6816 57bd b2ac 5bbd b566 e03c
00000370: deca b0bd 3f3b a4bd c3bb 183d 8e36 123d
00000380: 9d14 e8bc a907 74bb 70e0 363d 410a 003d
00000390: fdf8 533d 785b 843d 5114 7d3d fc50 a7bd
000003a0: 75d6 cabc 78f6 953d b9c3 99bd 14fc a93d
000003b0: 3641 87bd 7f32 213d 28fd 8abd ac14 13bc
000003c0: 066b a3ba 4220 c53c 3495 8abd 601c 853d
000003d0: 1cc7 243a 234a 9abd 3e68 c0bd c238 acbc
000003e0: 73c7 36bc 50e6 55bd a0b1 003d 2258 9a3d
000003f0: 35d5 78bd 2d4e 9bbd 395c 513c c0be a8bd
-0.036739912 -0.060462542 0.07588053 -0.030403301 0.054759033 -0.08371187 0.10007437 0.09887397
0.0023843774 -0.0074594496 -0.060837302 0.046017163 -0.022481445 -0.023992158 -0.055945866 0.042151377
-0.041549813 -0.074941546 -0.03004523 0.02830036 -0.061960306 0.04151297 -0.07535596 -0.00440478
-0.0016446626 -0.057705723 -0.05817777 -0.049752794 -0.047022246 0.061210074 -0.08118493 -0.066601574
0.0033003255 0.05993154 -0.035435237 0.07714656 0.044815473 -0.05387597 -0.020572593 -0.02924608
-0.07239478 0.021457044 -0.067642465 0.04110789 -0.06393714 0.053296577 -0.0060386127 -0.0015482535
0.07268482 0.05618445 0.027597371 -0.08692268 -0.04197256 0.05553105 -0.07901223 -0.030923398
-0.06307964 -0.006063237 0.00512422 0.019268073 0.081830055 -0.063990735 0.0101189 -0.07428429
0.060773592 -0.06465211 0.091050975 0.04515547 0.027869293 0.06981796 -0.013689734 0.002120284
-0.040447015 0.025881695 0.007952207 0.053723365 -0.040606573 0.08236607 -0.012032344 -0.03141854
-0.038814563 -0.04533965 -0.07940715 0.046488464 -0.06037544 -0.030618325 0.039041884 -0.046695214
-0.053637963 -0.048230194 0.0147063155 -0.0880992 0.015428763 -0.039812263 0.058468662 -0.030783955
-0.030885562 0.011291191 0.06594471 0.021099301 0.004845121 0.043963782 0.087436594 0.026978752
-0.054609697 0.020210152 0.07678164 0.059231076 -0.042175703 -0.017605454 -0.07492194 0.08077529
0.065360874 -0.029345982 -0.022669623 -0.0708268 -0.033583213 0.035848107 -0.024182659 -0.044922125
-0.02016818 0.051710185 -0.02183205 -0.052097075 0.0924922 -0.022099858 0.04317765 -0.071488984
-0.055683453 -0.018916612 -0.024087407 0.04842918 0.008125885 -0.037328582 -0.085815676 -0.0045116153
-0.0024144223 -0.014641633 0.035404563 -0.038430884 -0.0157519 0.03221542 0.0653258 0.07715837
-0.07866312 0.02390291 -0.009727355 -0.07794427 -0.018457277 0.038656764 0.054330096 -0.023578795
0.06432779 -0.007150933 0.0686414 0.061254323 -0.08030375 -0.04537458 0.0044754595 -0.04897709
-0.015170434 0.06776435 0.014315613 -0.032651182 0.06581202 0.06627418 -0.030649606 0.048515823
0.028583085 0.037816346 -0.0770197 0.039292168 -0.04053914 -0.070330754 0.047609545 -0.0935967
-0.035861168 -0.041052505 -0.038679488 -0.035347853 -0.07229205 -0.024205277 0.0068916515 0.023099434
0.0254665 -0.08885614 -0.07384914 -0.057759125 -0.042252332 -0.09123102 -0.025456404 -0.02537814
-0.07349969 -0.011405249 -0.041731805 -0.00411677 -0.039447527 0.03162195 0.048230316 -0.07077
-0.031698037 0.027299441 -0.033542346 -0.09529879 0.0009834855 -0.072779305 0.010733362 0.08002557
0.013985304 -0.055870745 0.026900778 -0.01593182 0.00048069528 0.070973665 -0.06708196 0.05359559
-0.08853109 -0.052511603 -0.053631492 0.027392725 -0.08632444 -0.08019113 0.03728844 0.03569656
-0.028330142 -0.003723601 0.044647634 0.03125978 0.051751126 0.06462759 0.061786953 -0.081697434
-0.024760464 0.07322401 -0.07508034 0.08300033 -0.06604235 0.039354797 -0.06786567 -0.0089770965
-0.0012467809 0.024063233 -0.067667395 0.06499553 0.0006285773 -0.07533672 -0.093948826 -0.021023158
-0.011155951 -0.052221596 0.031419396 0.07536341 -0.060750205 -0.0758327 0.012778335 -0.08239508

layer.4.bias f4 [64]
00000000: 784b b7ba 6567 c13c ed61 583d 070d 503c
00000010: 0d8f a0bd 3676 9dbd 922e fbbc 628d 0fbd
00000020: a9a5 e9bc 7896 ae3d 99ff 4d3d 72c0 953d
00000030: 22bb 9cbd dc8a d83c 6961 74bd b3d2 06bc
00000040: 89ac adbb cd17 a23d a33a a63c 1834 8abd
00000050: 649e c9bd 4c05 783d 25aa 603c 98b2 83bb
00000060: 4077 80bd 4349 e7bc 1a4e b7bd a878 8f3d
00000070: e470 c93b df82 333c a8cf b0bd 196b c43d
00000080: c825 74bc 5d9b 19bd c62b 74bd 6245 ae3d
00000090: a566 90bc b880 53bc 78c7 6c3d 0373 8cbc
000000a0: 38e1 7abd 2435 aa3a f226 c0bc 5720 12bd
000000b0: 4751 e9bc de6c cd3b dd46 6d3d 790a f8bc
000000c0: 0ccb a13d b422 b23d 0696 163d 63f7 60bd
000000d0: feb7 68bd 209f c43c f723 5c3d e848 90bc
000000e0: fc5c 503d fe70 433b b2a0 e73c f877 683d
000000f0: ad5f ee3c f27c e1bc b7de b43d 7183 20bd
-0.0013984283 0.023608873 0.052827764 0.012698418 -0.07839785 -0.076885626 -0.030661855 -0.035046943
-0.028521376 0.085247934 0.050292585 0.07312097 -0.0765288 0.0264334 -0.05966321 -0.008228946
-0.005300109 0.07914696 0.020291632 -0.06748217 -0.09844664 0.060551926 0.013712441 -0.004019093
-0.06272745 -0.028233176 -0.089504436 0.07005435 0.006147491 0.010956495 -0.08633357 0.0959074
-0.014901586 -0.03750168 -0.059612058 0.085093275 -0.01762707 -0.012909107 0.057807416 -0.017144686
-0.06124994 0.0012985808 -0.02345607 -0.035675373 -0.028481139 0.0062690815 0.05792891 -0.030278431
0.07900056 0.08698025 0.036764167 -0.054923426 -0.056816094 0.024001658 0.053745236 -0.01761289
0.050869927 0.0029821987 0.028274868 0.056755036 0.029098356 -0.027525399 0.08831542 -0.039187852

layer.7.weight f4 [64]
00000000: 0c8a 7c3f 88e7 7f3f 75ae 813f 2249 803f
00000010: acd3 813f 35b9 7e3f 5445 7e3f 7b3f 7c3f
00000020: c2e9 7c3f 44ec 813f afd0 813f 7de5 813f
00000030: 43e3 813f 29a9 813f 3f1a 803f 1660 7c3f
00000040: 13b0 7f3f 695b 7d3f 1dab 7f3f d380 7c3f
00000050: 4eea 813f 46c3 813f 510a 7d3f c2b1 813f
00000060: ecdd 813f 8640 7c3f 16d2 7c3f dadc 7f3f
00000070: b9e0 7e3f b045 803f 93a6 7c3f 038e 813f
00000080: 4049 803f d93a 7d3f 9baf 813f 3c7f 813f
00000090: 16e8 813f 53a0 7c3f aef5 7c3f 110a 803f
000000a0: 44ea 813f ef72 7e3f 21b4 803f 79b9 813f
000000b0: 3c46 7d3f e8dd 813f 21b9 813f 5890 7c3f
000000c0: ae8f 7c3f 74b9 813f 22ea 813f 445e 7e3f
000000d0: 60ac 7c3f 55eb 813f 9071 7d3f 4b1e 803f
000000e0: 8f98 7e3f e0e3 813f eac0 813f 2f46 7e3f
000000f0: 76c4 813f d28d 7d3f 3a2d 7d3f cede 813f
0.9864814 0.99962664 1.0131365 1.0022318 1.0142722 0.99501354 0.99324536 0.98534364
0.98794186 1.0150228 1.014181 1.0148159 1.014748 1.0129749 1.000801 0.98584116
0.9987804 0.98967606 0.99870473 0.9863407 1.0149629 1.0137718 0.98843867 1.0132372
1.014585 0.98535955 0.98758066 0.9994637 0.9956165 1.0021267 0.9869167 1.0121464
1.0022354 0.9891792 1.0131716 1.0116954 1.0148952 0.98682135 0.9881238 1.0003072
1.0149617 0.99394125 1.0054971 1.0134727 0.98935294 1.0145845 1.0134622 0.9865775
0.9865674 1.0134721 1.0149577 0.9936259 0.98700523 1.0149943 0.9900141 1.0009245
0.99451536 1.0147667 1.0136998 0.9932584 1.013808 0.99044526 0.98897135 1.014612

layer.7.bias f4 [64]
00000000: 2d06 4c3c 1e2c 6e3c dc64 0a3b 1202 15bc
00000010: 2aee 6f3c c8d9 2b3a 8588 5abc 1b10 8abb
00000020: aa53 74bc 9033 f43a 6891 efbb f9a7 49bc
00000030: 4c84 533c ac9e 433a 14ca 673c 8ae0 123c
00000040: a7cb a03b 68bf 14bb a49a 6d3c ca5c 67bc
00000050: 00f6 3b3b 7680 033b d7c3 eaba 98bb 37bb
00000060: 089a d9bb 10af 693c 8d99 db3b caec feba
00000070: 8934 52bc b0e6 38ba 4479 c8ba 3485 8aba
00000080: 08aa fd3a 16eb c43a 787f 0a3a fff1 6dbc
00000090: f6e7 6cbc 3892 5bba 0a29 693c c8c0 5c3c
000000a0: 0015 323c 44c2 233c 3e80 70bc f803 a9ba
000000b0: f4a0 e53a 3e76 74bc a4f8 643c 140b 223b
000000c0: da97 b1bb 14d7 5cbc 5d53 d5bb a855 37bc
000000d0: 078a 6abc 55a0 5e3c de64 633b e6a5 67bc
000000e0: accc 473b 74d7 88ba bc26 1b3a 9093 1bba
000000f0: 40b8 85b8 efbe 00bc f79c 553b 8718 683c
0.012452644 0.014536886 0.0021117246 -0.009094732 0.014644185 0.0006555584 -0.013338213 -0.0042133457
-0.014912525 0.001863109 -0.007311035 -0.012308114 0.01290996 0.00074623036 0.0141473 0.008964667
0.0049070898 -0.0022697095 0.014502201 -0.014121244 0.0028680563 0.0020065582 -0.0017911148 -0.0028035399
-0.0066406764 0.01426293 0.0067016543 -0.0019449231 -0.012829908 -0.0007053418 -0.0015294929 -0.0010568262
0.0019353041 0.0015023674 0.00052832766 -0.014523028 -0.014459601 -0.00083759753 0.014230976 0.013473697
0.010869265 0.009995047 -0.014679013 -0.001289486 0.0017519281 -0.014920769 0.013975296 0.0024725841
-0.0054197134 -0.013479013 -0.006510182 -0.011189856 -0.014315135 0.013588031 0.0034697573 -0.014138674
0.0030486984 -0.0010440187 0.00059185526 -0.0005934769 -6.3762534e-05 -0.007858022 0.003259478 0.014166004

layer.7.running_mean f4 [64]
00000000: 9e49 cf3d 9d04 da3d 051a 023e 1420 c93d
00000010: 2778 a63d dfd7 953d 1933 b23d 4fc1 c63d
00000020: d308 cb3d 773d 263e a0af 013e e26f ef3d
00000030: d58a b73d 2a85 dd3d 8b38 b43d dead bd3d
00000040: 6b72 d83d 20ff 033e 78ce db3d d975 a93d
00000050: 3948 9f3d c76e f93d 9d34 d33d 85ed e83d
00000060: d542 b13d 84db be3d 4fb2 8d3d dc28 083e
00000070: 047a e43d 8ba7 da3d 9475 ad3d 1385 043e
00000080: 8c33 f33d 32cd bb3d 4401 aa3d 42a8 023e
00000090: d799 e23d ba19 d53d 1c3e f03d 4956 c53d
000000a0: b3ca ad3d 0129 c83d cb16 bb3d 5e94 e33d
000000b0: ed46 b53d 9f40 d23d 6e38 f73d 9407 ca3d
000000c0: 59f5 0c3e b87f 133e 5af8 043e 90a6 b43d
000000d0: 8add a23d fe9e d63d 3731 eb3d 2b76 e23d
000000e0: 9840 033e e0b4 dc3d 6f1b e13d 76c1 fb3d
000000f0: 1f1a e03d 3cb5 b23d d1c7 083e 338e c63d
0.10121463 0.10645411 0.12705238 0.098205715 0.08128386 0.07316565 0.08701152 0.097048394
0.099137925 0.16234384 0.12664652 0.11691262 0.08962027 0.10816415 0.08799847 0.09261678
0.105686985 0.12890291 0.1073274 0.08274431 0.07777447 0.12179332 0.103127696 0.11373428
0.08655325 0.09319213 0.06918775 0.13296837 0.11156085 0.106764875 0.08469692 0.12941389
0.11875066 0.09169997 0.08301023 0.12759498 0.11064499 0.104052976 0.117305964 0.09635598
0.084859274 0.09773446 0.09135207 0.11112283 0.08851419 0.10266232 0.1207131 0.09864727
0.13765468 0.1440419 0.12985364 0.08820832 0.079524115 0.10479544 0.11483996 0.11057695
0.1281761 0.10776687 0.10991561 0.12292759 0.10942482 0.08725974 0.13357474 0.09695091

layer.7.running_var f4 [64]
00000000: f309 e83e 01fc e93e ee85 f63e 91d8 e53e
00000010: 6a76 e73e bcbf da3e 6992 e03e df6b e63e
00000020: 5c35 e83e 00fb 013f 3675 003f 8274 e83e
00000030: 1622 e53e 0723 e93e e16c e53e 6bea e33e
00000040: 388a e93e 9f59 f13e e2ef e73e 462e df3e
00000050: 1a78 e23e 376c ee3e 50e6 e53e 614b f73e
00000060: 51d8 e43e 7922 e43e 7be9 d93e e3e7 f23e
00000070: 2b48 ec3e 15a7 e73e d53e e33e 601b ef3e
00000080: 064d ef3e a320 e33e ef01 e43e c170 f13e
00000090: 5109 f73e 8fad e93e 1a52 ec3e f7db e53e
000000a0: bdd9 e43e 0369 e53e fef8 e43e cf7c fa3e
000000b0: ff9f e13e 8a70 e83e c59d ec3e 3e93 e83e
000000c0: 89c2 f33e 36bb f83e f4dd 033f ec4f e43e
000000d0: b8b7 de3e 8292 e83e 01bb ea3e fd9c f43e
000000e0: 94ca f43e 956b ea3e f312 eb3e f24c ef3e
000000f0: 18ad e93e a3af e03e 9f11 f43e 42b2 ec3e
0.4532009 0.45700076 0.48149055 0.4489179 0.4520753 0.42724407 0.43861702 0.45004174
0.4535321 0.5077362 0.5017885 0.45401388 0.44752568 0.45534536 0.4480963 0.44514784
0.45613265 0.47138688 0.45300204 0.4358999 0.44232255 0.46566936 0.44902277 0.48299697
0.44696286 0.4455755 0.42560944 0.4744254 0.4614881 0.4524466 0.44383875 0.46700573
0.46738452 0.44360837 0.44532725 0.47156337 0.48249295 0.45640227 0.4615639 0.44894382
0.4469737 0.4480668 0.44721216 0.48923346 0.4406738 0.4539836 0.4621412 0.45424837
0.47609356 0.4858033 0.5151055 0.44592226 0.4349954 0.45424277 0.45845798 0.47776023
0.47810805 0.45785204 0.45912895 0.46738392 0.45639873 0.43884 0.47669694 0.4622975

layer.8.weight f4 [32, 64]
00000000: 4579 33bd 0a6e a1bd 2052 cabd 8533 efbd
00000010: 0a90 a23c e38c 4abd 36ec e83d f39b 19bd
00000020: 90d7 c3bd 8460 87ba 1813 29bd 2c63 14bd
00000030: 55ac d4bd f481 20bd 19fa 5bbd 8f04 cc3c
00000040: c156 6dbd ba36 edbb fc98 f5bd c31c 493d
00000050: 8ec3 853c d2ad f8bd 7ba9 753d 7238 d93c
00000060: 3493 bebd ef78 7cbd bda3 e4bc 77c6 9cbc
00000070: a5ff a93d 6a2f c1bd fbeb c6bc 2e97 fc3c
00000080: 002d 113d 306b 18bc 3365 bd3d b66c 0c3e
00000090: 1975 a3bc c116 09be a371 a23d ee0a 4bbd
000000a0: 1168 d83d 9000 8b3d 17b1 9e3d 3e2b 2f3b
000000b0: 23f6 4a3d 01e6 c43d d818 ae3d b362 5fbd
000000c0: 7255 0abd 561e 5fbb 120b 743c 30bf 2c3d
000000d0: 2016 773d 942e b8bd 4acb a2bd e269 453d
000000e0: 3c44 903d 9c53 ca3d 13b2 bf3d e105 b33d
000000f0: 16e3 20bb 6290 9f3d 9c13 31bd 36e6 bcbd
00000100: 684f 623d aac6 bcbc 3d80 b33c 4ae7 1abc
00000110: 7e8b 893d bb74 f6bc 4aa0 45bd 523b 9abd
00000120: 4f5f f0bc 06ac dfbd 13e9 71bd a83c 013d
00000130: e613 5ebc 7e40 93bc cd18 e63d cf5a aabd
00000140: a645 c2bd ae11 9fbd 9900 853d 9cb4 b63c
00000150: 9737 3cbd 74ca 1d3d f004 85bc dbff 533d
00000160: 5bf8 f93d 3b57 be3d c810 5aba 5fe3 00bd
00000170: fc49 b9bc 5821 d2bd 9860 933d 4289 b8bc
00000180: fc91 e83d 5283 3c3d fa54 3e3d 7aa4 f9bd
00000190: 405a 52bd 0a5e e43d 6e23 69bc 7077 73bc
000001a0: 6753 6e3d 8410 8b3d 2c28 96bd 8f3f 0abe
000001b0: 7013 eeb9 1fa5 93bd 0f07 9c3d 75d3 ed3c
000001c0: 6b6d 683d ff71 6b3d 6ff5 d4bd eaa7 dfbd
000001d0: 6517 2f3d 447f d4bc f99b cbbc 4b41 dabd
000001e0: 9353 bbbd 4ab6 303d 3672 b8bd 3c87 b3bd
000001f0: b871 8e3d e876 b4bd d8b6 bd3d 507b dd3c
00000200: d838 a03c 68f5 93bd ca0a b03c e48a b33b
00000210: f8f0 d3ba 3ae2 103d 70c2 983d 0df7 8a3d
00000220: 8e8c 533c 390c 03bd 2674 743d f0b3 073e
00000230: 59fa 893d 8940 6ebd 1f5a 1cbd 3d18 c4bc
00000240: 85ea b5bd abc0 9cbd 4357 4fbd fef9 a5bd
00000250: 9f6c c4bd 60c1 e5bc aa6f 92bd 52cb d33d
00000260: 6fa8 d23d 867b ed3d 58c7 d83d 57e5 523d
00000270: c7ec b3bc 629e dd3d 8673 e23d 6bd8 09be
00000280: d355 b43d f886 22bd 76c1 d4bd b36c c1bc
00000290: 0d05 ff3d 875f 7a3d a47a 6e3d 0726 dbbd
000002a0: d2f9 103d b87b aabd 1d1e 7e3d c071 5bbb
000002b0: 3e2b 003c 3fa9 9e3d a341 c4bd 3008 b4bd
000002c0: 900e 193d 3644 a8bd a892 98bd 8086 eb3d
000002d0: 4276 d33d 70fb d63c 4328 63bd 1499 cb3c
000002e0: 8b39 a8bd 75f6 b6bd 92b5 d1bd 3a57 d23d
000002f0: 5484 d8bd aef9 cdbd 7c05 d93c 4a0d 403c
00000300: 4e5d 4cbb 865c 0b3e 0da1 afbd 3e67 00bd
00000310: 03c6 a53d 3917 5bbd 9a00 8d3c 001b 6bbc
00000320: e172 0a3d 93fe 7bbc 968a 8e3c a6a5 d5bd
00000330: 344e e73d 0737 573d f756 bc3d e95c 883d
00000340: 16eb c73a 3303 ac3d fdf4 ec3d 2dbf 95bd
00000350: a454 bcbc e830 a23d 8856 55bd db18 703d
00000360: 86e6 843d 4366 df3d 684e f63c 49fb 143b
00000370: aebc 463c 21b0 053e 471c 7b3c a073 9abd
00000380: 7246 00bd 0bf8 4f3d cde4 2c3d d96f bf3d
00000390: eef0 a53d 29ca e0bd 100b 1a39 f7ad eebd
000003a0: f614 ddbd 2ee1 c43d 4d59 abbd e76e d53d
000003b0: d5a7 00be faae bc3d 4e28 d0bc 038c 0b3d
000003c0: 559d efbd fb13 f0bd 8dc2 0fbd 1051 953d
000003d0: 71cd adbc 2368 72bc 22d8 e83c c4ab 073d
000003e0: 8097 18bd 540b 8b3d b183 a43b 90df e9bd
000003f0: d317 893d ef7b adbc b310 bebd b60e 913d
-0.043816824 -0.078823164 -0.09878945 -0.116797484 0.019844074 -0.049450766 0.11373179 -0.03750224
-0.095626 -0.0010328447 -0.041277975 -0.03622739 -0.10384432 -0.039186433 -0.05370531 0.024904517
-0.057944063 -0.00723919 -0.1199207 0.049099695 0.0163286 -0.121425286 0.059976082 0.026516173
-0.093054205 -0.06163877 -0.027910108 -0.019137604 0.083007134 -0.09432872 -0.024282446 0.030833807
0.035443306 -0.009302899 0.09247818 0.13713345 -0.019953297 -0.13387586 0.07931831 -0.04957097
0.10566724 0.06787217 0.07748621 0.0026728655 0.04955114 0.09614182 0.08500832 -0.054537486
-0.033772893 -0.0034045181 0.0148952175 0.042174518 0.060323834 -0.08993259 -0.079489306 0.04819668
0.07044265 0.098792285 0.09360137 0.08741356 -0.0024549416 0.07791211 -0.04323159 -0.09223597
0.05525151 -0.02304395 0.021911735 -0.009454558 0.06716059 -0.030084958 -0.048248567 -0.07530846
-0.029342322 -0.10921483 -0.059060168 0.031551987 -0.013554549 -0.017975088 0.11235199 -0.083181016
-0.09485941 -0.07767044 0.064942546 0.022302918 -0.045951452 0.038523152 -0.016237706 0.051757675
0.12205573 0.09293982 -0.00083185406 -0.031466838 -0.022618286 -0.10260266 0.07196158 -0.022526387
0.11355969 0.046023674 0.04646776 -0.121895745 -0.0513556 0.11150749 -0.0142296385 -0.014860019
0.058185007 0.067902595 -0.07331881 -0.13500808 -0.0004540938 -0.07209229 0.07618534 0.029031495
0.056744974 0.057481762 -0.10398375 -0.10920699 0.04274692 -0.025939591 -0.024854647 -0.10656985
-0.091468 0.043142594 -0.09006159 -0.08766028 0.06955284 -0.08811742 0.0926339 0.027036339
0.019558355 -0.07224542 0.02148952 0.0054792035 -0.0016169837 0.035371996 0.07458961 0.067854024
0.012911929 -0.03199408 0.05968108 0.13252234 0.06737203 -0.058167014 -0.038171884 -0.023937339
-0.08882622 -0.07653936 -0.05062033 -0.08104323 -0.0959103 -0.02804631 -0.071502045 0.10341515
0.102860324 0.11595826 0.10584897 0.051488247 -0.02196349 0.10821225 0.110571906 -0.13461463
0.08805432 -0.039679497 -0.10388462 -0.023611402 0.12452135 0.06112626 0.058222428 -0.107006125
0.035394497 -0.08324379 0.062040437 -0.0033484548 0.00782281 0.07747125 -0.09582832 -0.08790624
0.037367404 -0.08216135 -0.074498475 0.11500263 0.1032529 0.026242942 -0.05545832 0.024853267
-0.082141005 -0.08933727 -0.1023971 0.102705434 -0.105721146 -0.10057388 0.026491873 0.011721918
-0.0031183544 0.13609514 -0.0857564 -0.03134846 0.08094408 -0.053488944 0.0172122 -0.014349699
0.033800963 -0.015380519 0.017400067 -0.104319856 0.11294213 0.052542713 0.09196275 0.06658346
0.0015252556 0.08399048 0.11570165 -0.073118545 -0.022989579 0.079194844 -0.052084476 0.058617454
0.06489281 0.10908177 0.030066684 0.0022732785 0.012129946 0.13055469 0.015326566 -0.07541585
-0.031317182 0.05077366 0.04221039 0.09347505 0.08102594 -0.10976059 0.00014690706 -0.11654275
-0.107950136 0.09613262 -0.08366642 0.104215436 -0.12564023 0.09213062 -0.025409844 0.034069072
-0.116999306 -0.11722561 -0.035097647 0.07290852 -0.021216126 -0.014795336 0.028423373 0.033122793
-0.037253857 0.0678927 0.0050205817 -0.11419594 0.06693997 -0.02117726 -0.09280529 0.07082884

layer.8.bias f4 [32]
00000000: 4a7b 03be 4274 90bb 6a84 b13d e3a6 613d
00000010: b375 0dbd b870 043e 7f35 c1bd dd02 c5bd
00000020: 08ab 91bd 4067 bdbd f929 01bd 9a2c a3bc
00000030: 9bc9 f23d 15fb c43c a6ba 21bd 5980 483c
00000040: dd4d d3bd fdb0 00bc d22d 8dbd 6915 bfbd
00000050: 0b2e b03d 4c9d 1d3d 202a e43d bf09 fa3c
00000060: d29d 38bd c5b5 a73d e1d2 f3bc 8e66 f7bd
00000070: cbad d03d 4b86 ca3d d54b 35bd b912 313d
-0.1284 -0.0044083903 0.08667834 0.055090796 -0.034536075 0.12933624 -0.09434032 -0.09619687
-0.071127 -0.09248209 -0.03153417 -0.019918729 0.118548594 0.024045506 -0.039484642 0.012237632
-0.103175856 -0.007854697 -0.06893505 -0.093302555 0.08602532 0.038480088 0.11140847 0.030522225
-0.045072384 0.08188967 -0.02976364 -0.12080108 0.101893984 0.098888956 -0.044261772 0.043230746

layer.11.weight f4 [1, 32]
00000000: ced8 863c 4a4b cabd bf05 0e3e fc19 9f3d
00000010: 97dd 55bd 07ee 95bd aeb6 7dbb 2393 a2bd
00000020: 4a48 e13d 532c 483d 3736 0b3e 0667 423d
00000030: 6e3a 203e bba4 b4bd f64c f83d e170 a9bd
00000040: 420b 2f3e b632 e33d 687c 84bd 4421 b33c
00000050: 5188 90bd 539f 1dbe 7d08 b53d 6c19 1c3e
00000060: 158f 1cbe db84 2a3e bca2 34ba 79ba d1bd
00000070: 0b05 2f3e 7520 f8bd 828b 3abc 9300 a53d
0.016460802 -0.098776415 0.1386938 0.07768628 -0.052213278 -0.07320791 -0.0038713622 -0.0793822
0.11000116 0.048870396 0.135949 0.047461532 0.15647289 -0.08820482 0.12124054 -0.08273483
0.17094138 0.11093657 -0.06469041 0.021866448 -0.0705725 -0.15392809 0.0883951 0.15244073
-0.15288956 0.16652243 -0.00068907044 -0.10240645 0.17091767 -0.12115566 -0.0113858 0.0805675
